{"format": "graph-model", "generatedBy": "1.15.2", "convertedBy": "TensorFlow.js Converter v1.7.2", "userDefinedMetadata": {"signature": {"inputs": {"image_tensor:0": {"name": "image_tensor:0", "dtype": "DT_UINT8", "tensorShape": {"dim": [{"size": "-1"}, {"size": "-1"}, {"size": "-1"}, {"size": "3"}]}}}, "outputs": {"detection_scores:0": {"name": "detection_scores:0", "dtype": "DT_FLOAT", "tensorShape": {"dim": [{"size": "-1"}, {"size": "100"}]}}, "detection_classes:0": {"name": "detection_classes:0", "dtype": "DT_FLOAT", "tensorShape": {"dim": [{"size": "-1"}, {"size": "100"}]}}, "num_detections:0": {"name": "num_detections:0", "dtype": "DT_FLOAT", "tensorShape": {"dim": [{"size": "-1"}]}}, "detection_boxes:0": {"name": "detection_boxes:0", "dtype": "DT_FLOAT", "tensorShape": {"dim": [{"size": "-1"}, {"size": "100"}, {"size": "4"}]}}}}}, "modelTopology": {"node": [{"name": "BoxPredictor_0/ClassPredictor/weights", "op": "Const", "attr": {"value": {"tensor": {"dtype": "DT_FLOAT", "tensorShape": {"dim": [{"size": "1"}, {"size": "1"}, {"size": "512"}, {"size": "6"}]}}}, "dtype": {"type": "DT_FLOAT"}}}, {"name": "BoxPredictor_0/ClassPredictor/biases", "op": "Const", "attr": {"value": {"tensor": {"dtype": "DT_FLOAT", "tensorShape": {"dim": [{"size": "6"}]}}}, "dtype": {"type": "DT_FLOAT"}}}, {"name": "BoxPredictor_1/ClassPredictor/weights", "op": "Const", "attr": {"value": {"tensor": {"dtype": "DT_FLOAT", "tensorShape": {"dim": [{"size": "1"}, {"size": "1"}, {"size": "1024"}, {"size": "12"}]}}}, "dtype": {"type": "DT_FLOAT"}}}, {"name": "BoxPredictor_1/ClassPredictor/biases", "op": "Const", "attr": {"value": {"tensor": {"dtype": "DT_FLOAT", "tensorShape": {"dim": [{"size": "12"}]}}}, "dtype": {"type": "DT_FLOAT"}}}, {"name": "BoxPredictor_2/ClassPredictor/weights", "op": "Const", "attr": {"value": {"tensor": {"dtype": "DT_FLOAT", "tensorShape": {"dim": [{"size": "1"}, {"size": "1"}, {"size": "512"}, {"size": "12"}]}}}, "dtype": {"type": "DT_FLOAT"}}}, {"name": "BoxPredictor_2/ClassPredictor/biases", "op": "Const", "attr": {"value": {"tensor": {"dtype": "DT_FLOAT", "tensorShape": {"dim": [{"size": "12"}]}}}, "dtype": {"type": "DT_FLOAT"}}}, {"name": "BoxPredictor_3/ClassPredictor/weights", "op": "Const", "attr": {"value": {"tensor": {"dtype": "DT_FLOAT", "tensorShape": {"dim": [{"size": "1"}, {"size": "1"}, {"size": "256"}, {"size": "12"}]}}}, "dtype": {"type": "DT_FLOAT"}}}, {"name": "BoxPredictor_3/ClassPredictor/biases", "op": "Const", "attr": {"value": {"tensor": {"dtype": "DT_FLOAT", "tensorShape": {"dim": [{"size": "12"}]}}}, "dtype": {"type": "DT_FLOAT"}}}, {"name": "BoxPredictor_4/ClassPredictor/weights", "op": "Const", "attr": {"dtype": {"type": "DT_FLOAT"}, "value": {"tensor": {"dtype": "DT_FLOAT", "tensorShape": {"dim": [{"size": "1"}, {"size": "1"}, {"size": "256"}, {"size": "12"}]}}}}}, {"name": "BoxPredictor_4/ClassPredictor/biases", "op": "Const", "attr": {"dtype": {"type": "DT_FLOAT"}, "value": {"tensor": {"dtype": "DT_FLOAT", "tensorShape": {"dim": [{"size": "12"}]}}}}}, {"name": "BoxPredictor_5/ClassPredictor/weights", "op": "Const", "attr": {"value": {"tensor": {"dtype": "DT_FLOAT", "tensorShape": {"dim": [{"size": "1"}, {"size": "1"}, {"size": "128"}, {"size": "12"}]}}}, "dtype": {"type": "DT_FLOAT"}}}, {"name": "BoxPredictor_5/ClassPredictor/biases", "op": "Const", "attr": {"dtype": {"type": "DT_FLOAT"}, "value": {"tensor": {"dtype": "DT_FLOAT", "tensorShape": {"dim": [{"size": "12"}]}}}}}, {"name": "Postprocessor/Slice/begin", "op": "Const", "attr": {"value": {"tensor": {"dtype": "DT_INT32", "tensorShape": {"dim": [{"size": "3"}]}}}, "dtype": {"type": "DT_INT32"}}}, {"name": "Postprocessor/Slice/size", "op": "Const", "attr": {"value": {"tensor": {"dtype": "DT_INT32", "tensorShape": {"dim": [{"size": "3"}]}}}, "dtype": {"type": "DT_INT32"}}}, {"name": "Postprocessor/Const", "op": "Const", "attr": {"dtype": {"type": "DT_FLOAT"}, "value": {"tensor": {"dtype": "DT_FLOAT", "tensorShape": {"dim": [{"size": "4"}]}}}}}, {"name": "ConstantFolding/Postprocessor/Decode/truediv_recip", "op": "Const", "attr": {"dtype": {"type": "DT_FLOAT"}, "value": {"tensor": {"dtype": "DT_FLOAT", "tensorShape": {}}}}}, {"name": "ConstantFolding/Postprocessor/Decode/truediv_2_recip", "op": "Const", "attr": {"value": {"tensor": {"dtype": "DT_FLOAT", "tensorShape": {}}}, "dtype": {"type": "DT_FLOAT"}}}, {"name": "MultipleGridAnchorGenerator/Reshape", "op": "Const", "attr": {"dtype": {"type": "DT_FLOAT"}, "value": {"tensor": {"dtype": "DT_FLOAT", "tensorShape": {"dim": [{"size": "1083"}, {"size": "2"}]}}}}}, {"name": "MultipleGridAnchorGenerator/truediv_14", "op": "Const", "attr": {"value": {"tensor": {"dtype": "DT_FLOAT", "tensorShape": {"dim": [{"size": "3"}]}}}, "dtype": {"type": "DT_FLOAT"}}}, {"name": "MultipleGridAnchorGenerator/mul_15", "op": "Const", "attr": {"value": {"tensor": {"dtype": "DT_FLOAT", "tensorShape": {"dim": [{"size": "3"}]}}}, "dtype": {"type": "DT_FLOAT"}}}, {"name": "MultipleGridAnchorGenerator/Meshgrid_2/ExpandedShape/concat", "op": "Const", "attr": {"dtype": {"type": "DT_INT32"}, "value": {"tensor": {"dtype": "DT_INT32", "tensorShape": {"dim": [{"size": "3"}]}}}}}, {"name": "MultipleGridAnchorGenerator/Meshgrid_2/ExpandedShape_1/concat", "op": "Const", "attr": {"value": {"tensor": {"dtype": "DT_INT32", "tensorShape": {"dim": [{"size": "3"}]}}}, "dtype": {"type": "DT_INT32"}}}, {"name": "MultipleGridAnchorGenerator/Reshape_2", "op": "Const", "attr": {"value": {"tensor": {"dtype": "DT_FLOAT", "tensorShape": {"dim": [{"size": "600"}, {"size": "2"}]}}}, "dtype": {"type": "DT_FLOAT"}}}, {"name": "MultipleGridAnchorGenerator/truediv_15", "op": "Const", "attr": {"value": {"tensor": {"dtype": "DT_FLOAT", "tensorShape": {"dim": [{"size": "6"}]}}}, "dtype": {"type": "DT_FLOAT"}}}, {"name": "MultipleGridAnchorGenerator/mul_22", "op": "Const", "attr": {"value": {"tensor": {"dtype": "DT_FLOAT", "tensorShape": {"dim": [{"size": "6"}]}}}, "dtype": {"type": "DT_FLOAT"}}}, {"name": "MultipleGridAnchorGenerator/Meshgrid_5/ExpandedShape_1/concat", "op": "Const", "attr": {"value": {"tensor": {"dtype": "DT_INT32", "tensorShape": {"dim": [{"size": "3"}]}}}, "dtype": {"type": "DT_INT32"}}}, {"name": "MultipleGridAnchorGenerator/Reshape_4", "op": "Const", "attr": {"value": {"tensor": {"dtype": "DT_FLOAT", "tensorShape": {"dim": [{"size": "150"}, {"size": "2"}]}}}, "dtype": {"type": "DT_FLOAT"}}}, {"name": "MultipleGridAnchorGenerator/truediv_16", "op": "Const", "attr": {"dtype": {"type": "DT_FLOAT"}, "value": {"tensor": {"dtype": "DT_FLOAT", "tensorShape": {"dim": [{"size": "6"}]}}}}}, {"name": "MultipleGridAnchorGenerator/mul_29", "op": "Const", "attr": {"value": {"tensor": {"dtype": "DT_FLOAT", "tensorShape": {"dim": [{"size": "6"}]}}}, "dtype": {"type": "DT_FLOAT"}}}, {"name": "MultipleGridAnchorGenerator/Meshgrid_8/ExpandedShape_1/concat", "op": "Const", "attr": {"value": {"tensor": {"dtype": "DT_INT32", "tensorShape": {"dim": [{"size": "3"}]}}}, "dtype": {"type": "DT_INT32"}}}, {"name": "MultipleGridAnchorGenerator/Reshape_6", "op": "Const", "attr": {"value": {"tensor": {"dtype": "DT_FLOAT", "tensorShape": {"dim": [{"size": "54"}, {"size": "2"}]}}}, "dtype": {"type": "DT_FLOAT"}}}, {"name": "MultipleGridAnchorGenerator/truediv_17", "op": "Const", "attr": {"value": {"tensor": {"dtype": "DT_FLOAT", "tensorShape": {"dim": [{"size": "6"}]}}}, "dtype": {"type": "DT_FLOAT"}}}, {"name": "MultipleGridAnchorGenerator/mul_36", "op": "Const", "attr": {"value": {"tensor": {"dtype": "DT_FLOAT", "tensorShape": {"dim": [{"size": "6"}]}}}, "dtype": {"type": "DT_FLOAT"}}}, {"name": "MultipleGridAnchorGenerator/Meshgrid_11/ExpandedShape_1/concat", "op": "Const", "attr": {"dtype": {"type": "DT_INT32"}, "value": {"tensor": {"dtype": "DT_INT32", "tensorShape": {"dim": [{"size": "3"}]}}}}}, {"name": "MultipleGridAnchorGenerator/Reshape_8", "op": "Const", "attr": {"value": {"tensor": {"dtype": "DT_FLOAT", "tensorShape": {"dim": [{"size": "24"}, {"size": "2"}]}}}, "dtype": {"type": "DT_FLOAT"}}}, {"name": "MultipleGridAnchorGenerator/truediv_18", "op": "Const", "attr": {"value": {"tensor": {"dtype": "DT_FLOAT", "tensorShape": {"dim": [{"size": "6"}]}}}, "dtype": {"type": "DT_FLOAT"}}}, {"name": "MultipleGridAnchorGenerator/mul_43", "op": "Const", "attr": {"value": {"tensor": {"dtype": "DT_FLOAT", "tensorShape": {"dim": [{"size": "6"}]}}}, "dtype": {"type": "DT_FLOAT"}}}, {"name": "MultipleGridAnchorGenerator/Meshgrid_14/ExpandedShape_1/concat", "op": "Const", "attr": {"value": {"tensor": {"dtype": "DT_INT32", "tensorShape": {"dim": [{"size": "3"}]}}}, "dtype": {"type": "DT_INT32"}}}, {"name": "MultipleGridAnchorGenerator/Reshape_10", "op": "Const", "attr": {"value": {"tensor": {"dtype": "DT_FLOAT", "tensorShape": {"dim": [{"size": "6"}, {"size": "2"}]}}}, "dtype": {"type": "DT_FLOAT"}}}, {"name": "MultipleGridAnchorGenerator/truediv_19", "op": "Const", "attr": {"dtype": {"type": "DT_FLOAT"}, "value": {"tensor": {"dtype": "DT_FLOAT", "tensorShape": {"dim": [{"size": "6"}]}}}}}, {"name": "MultipleGridAnchorGenerator/mul_50", "op": "Const", "attr": {"dtype": {"type": "DT_FLOAT"}, "value": {"tensor": {"dtype": "DT_FLOAT", "tensorShape": {"dim": [{"size": "6"}]}}}}}, {"name": "MultipleGridAnchorGenerator/Meshgrid_5/ExpandedShape/concat", "op": "Const", "attr": {"value": {"tensor": {"dtype": "DT_INT32", "tensorShape": {"dim": [{"size": "3"}]}}}, "dtype": {"type": "DT_INT32"}}}, {"name": "MultipleGridAnchorGenerator/Reshape_1/shape", "op": "Const", "attr": {"value": {"tensor": {"dtype": "DT_INT32", "tensorShape": {"dim": [{"size": "2"}]}}}, "dtype": {"type": "DT_INT32"}}}, {"name": "MultipleGridAnchorGenerator/mul_19/x", "op": "Const", "attr": {"value": {"tensor": {"dtype": "DT_FLOAT", "tensorShape": {}}}, "dtype": {"type": "DT_FLOAT"}}}, {"name": "Postprocessor/Reshape_1/shape", "op": "Const", "attr": {"dtype": {"type": "DT_INT32"}, "value": {"tensor": {"dtype": "DT_INT32", "tensorShape": {"dim": [{"size": "2"}]}}}}}, {"name": "Postprocessor/Decode/transpose/perm", "op": "Const", "attr": {"value": {"tensor": {"dtype": "DT_INT32", "tensorShape": {"dim": [{"size": "2"}]}}}, "dtype": {"type": "DT_INT32"}}}, {"name": "BoxPredictor_0/BoxEncodingPredictor/weights", "op": "Const", "attr": {"value": {"tensor": {"dtype": "DT_FLOAT", "tensorShape": {"dim": [{"size": "1"}, {"size": "1"}, {"size": "512"}, {"size": "12"}]}}}, "dtype": {"type": "DT_FLOAT"}}}, {"name": "BoxPredictor_0/stack_1/1", "op": "Const", "attr": {"dtype": {"type": "DT_INT32"}, "value": {"tensor": {"dtype": "DT_INT32", "tensorShape": {}}}}}, {"name": "BoxPredictor_1/BoxEncodingPredictor/weights", "op": "Const", "attr": {"dtype": {"type": "DT_FLOAT"}, "value": {"tensor": {"dtype": "DT_FLOAT", "tensorShape": {"dim": [{"size": "1"}, {"size": "1"}, {"size": "1024"}, {"size": "24"}]}}}}}, {"name": "BoxPredictor_1/BoxEncodingPredictor/biases", "op": "Const", "attr": {"value": {"tensor": {"dtype": "DT_FLOAT", "tensorShape": {"dim": [{"size": "24"}]}}}, "dtype": {"type": "DT_FLOAT"}}}, {"name": "BoxPredictor_1/stack_1/1", "op": "Const", "attr": {"value": {"tensor": {"dtype": "DT_INT32", "tensorShape": {}}}, "dtype": {"type": "DT_INT32"}}}, {"name": "BoxPredictor_2/BoxEncodingPredictor/weights", "op": "Const", "attr": {"value": {"tensor": {"dtype": "DT_FLOAT", "tensorShape": {"dim": [{"size": "1"}, {"size": "1"}, {"size": "512"}, {"size": "24"}]}}}, "dtype": {"type": "DT_FLOAT"}}}, {"name": "BoxPredictor_2/BoxEncodingPredictor/biases", "op": "Const", "attr": {"dtype": {"type": "DT_FLOAT"}, "value": {"tensor": {"dtype": "DT_FLOAT", "tensorShape": {"dim": [{"size": "24"}]}}}}}, {"name": "BoxPredictor_2/stack_1/1", "op": "Const", "attr": {"value": {"tensor": {"dtype": "DT_INT32", "tensorShape": {}}}, "dtype": {"type": "DT_INT32"}}}, {"name": "BoxPredictor_3/BoxEncodingPredictor/weights", "op": "Const", "attr": {"dtype": {"type": "DT_FLOAT"}, "value": {"tensor": {"dtype": "DT_FLOAT", "tensorShape": {"dim": [{"size": "1"}, {"size": "1"}, {"size": "256"}, {"size": "24"}]}}}}}, {"name": "BoxPredictor_3/BoxEncodingPredictor/biases", "op": "Const", "attr": {"value": {"tensor": {"dtype": "DT_FLOAT", "tensorShape": {"dim": [{"size": "24"}]}}}, "dtype": {"type": "DT_FLOAT"}}}, {"name": "BoxPredictor_3/stack_1/1", "op": "Const", "attr": {"dtype": {"type": "DT_INT32"}, "value": {"tensor": {"dtype": "DT_INT32", "tensorShape": {}}}}}, {"name": "BoxPredictor_4/BoxEncodingPredictor/weights", "op": "Const", "attr": {"dtype": {"type": "DT_FLOAT"}, "value": {"tensor": {"dtype": "DT_FLOAT", "tensorShape": {"dim": [{"size": "1"}, {"size": "1"}, {"size": "256"}, {"size": "24"}]}}}}}, {"name": "BoxPredictor_4/BoxEncodingPredictor/biases", "op": "Const", "attr": {"dtype": {"type": "DT_FLOAT"}, "value": {"tensor": {"dtype": "DT_FLOAT", "tensorShape": {"dim": [{"size": "24"}]}}}}}, {"name": "BoxPredictor_4/stack_1/1", "op": "Const", "attr": {"dtype": {"type": "DT_INT32"}, "value": {"tensor": {"dtype": "DT_INT32", "tensorShape": {}}}}}, {"name": "BoxPredictor_5/BoxEncodingPredictor/weights", "op": "Const", "attr": {"value": {"tensor": {"dtype": "DT_FLOAT", "tensorShape": {"dim": [{"size": "1"}, {"size": "1"}, {"size": "128"}, {"size": "24"}]}}}, "dtype": {"type": "DT_FLOAT"}}}, {"name": "BoxPredictor_5/BoxEncodingPredictor/biases", "op": "Const", "attr": {"dtype": {"type": "DT_FLOAT"}, "value": {"tensor": {"dtype": "DT_FLOAT", "tensorShape": {"dim": [{"size": "24"}]}}}}}, {"name": "FeatureExtractor/MobilenetV1/Conv2d_1_depthwise/depthwise_weights", "op": "Const", "attr": {"value": {"tensor": {"dtype": "DT_FLOAT", "tensorShape": {"dim": [{"size": "3"}, {"size": "3"}, {"size": "32"}, {"size": "1"}]}}}, "dtype": {"type": "DT_FLOAT"}}}, {"name": "FeatureExtractor/MobilenetV1/Conv2d_2_depthwise/depthwise_weights", "op": "Const", "attr": {"value": {"tensor": {"dtype": "DT_FLOAT", "tensorShape": {"dim": [{"size": "3"}, {"size": "3"}, {"size": "64"}, {"size": "1"}]}}}, "dtype": {"type": "DT_FLOAT"}}}, {"name": "FeatureExtractor/MobilenetV1/Conv2d_3_depthwise/depthwise_weights", "op": "Const", "attr": {"value": {"tensor": {"dtype": "DT_FLOAT", "tensorShape": {"dim": [{"size": "3"}, {"size": "3"}, {"size": "128"}, {"size": "1"}]}}}, "dtype": {"type": "DT_FLOAT"}}}, {"name": "FeatureExtractor/MobilenetV1/Conv2d_4_depthwise/depthwise_weights", "op": "Const", "attr": {"value": {"tensor": {"dtype": "DT_FLOAT", "tensorShape": {"dim": [{"size": "3"}, {"size": "3"}, {"size": "128"}, {"size": "1"}]}}}, "dtype": {"type": "DT_FLOAT"}}}, {"name": "FeatureExtractor/MobilenetV1/Conv2d_5_depthwise/depthwise_weights", "op": "Const", "attr": {"value": {"tensor": {"dtype": "DT_FLOAT", "tensorShape": {"dim": [{"size": "3"}, {"size": "3"}, {"size": "256"}, {"size": "1"}]}}}, "dtype": {"type": "DT_FLOAT"}}}, {"name": "FeatureExtractor/MobilenetV1/Conv2d_6_depthwise/depthwise_weights", "op": "Const", "attr": {"dtype": {"type": "DT_FLOAT"}, "value": {"tensor": {"dtype": "DT_FLOAT", "tensorShape": {"dim": [{"size": "3"}, {"size": "3"}, {"size": "256"}, {"size": "1"}]}}}}}, {"name": "FeatureExtractor/MobilenetV1/Conv2d_7_depthwise/depthwise_weights", "op": "Const", "attr": {"value": {"tensor": {"dtype": "DT_FLOAT", "tensorShape": {"dim": [{"size": "3"}, {"size": "3"}, {"size": "512"}, {"size": "1"}]}}}, "dtype": {"type": "DT_FLOAT"}}}, {"name": "FeatureExtractor/MobilenetV1/Conv2d_8_depthwise/depthwise_weights", "op": "Const", "attr": {"dtype": {"type": "DT_FLOAT"}, "value": {"tensor": {"dtype": "DT_FLOAT", "tensorShape": {"dim": [{"size": "3"}, {"size": "3"}, {"size": "512"}, {"size": "1"}]}}}}}, {"name": "FeatureExtractor/MobilenetV1/Conv2d_9_depthwise/depthwise_weights", "op": "Const", "attr": {"value": {"tensor": {"dtype": "DT_FLOAT", "tensorShape": {"dim": [{"size": "3"}, {"size": "3"}, {"size": "512"}, {"size": "1"}]}}}, "dtype": {"type": "DT_FLOAT"}}}, {"name": "FeatureExtractor/MobilenetV1/Conv2d_10_depthwise/depthwise_weights", "op": "Const", "attr": {"value": {"tensor": {"dtype": "DT_FLOAT", "tensorShape": {"dim": [{"size": "3"}, {"size": "3"}, {"size": "512"}, {"size": "1"}]}}}, "dtype": {"type": "DT_FLOAT"}}}, {"name": "FeatureExtractor/MobilenetV1/Conv2d_11_depthwise/depthwise_weights", "op": "Const", "attr": {"value": {"tensor": {"dtype": "DT_FLOAT", "tensorShape": {"dim": [{"size": "3"}, {"size": "3"}, {"size": "512"}, {"size": "1"}]}}}, "dtype": {"type": "DT_FLOAT"}}}, {"name": "FeatureExtractor/MobilenetV1/Conv2d_12_depthwise/depthwise_weights", "op": "Const", "attr": {"value": {"tensor": {"dtype": "DT_FLOAT", "tensorShape": {"dim": [{"size": "3"}, {"size": "3"}, {"size": "512"}, {"size": "1"}]}}}, "dtype": {"type": "DT_FLOAT"}}}, {"name": "FeatureExtractor/MobilenetV1/Conv2d_13_depthwise/depthwise_weights", "op": "Const", "attr": {"value": {"tensor": {"dtype": "DT_FLOAT", "tensorShape": {"dim": [{"size": "3"}, {"size": "3"}, {"size": "1024"}, {"size": "1"}]}}}, "dtype": {"type": "DT_FLOAT"}}}, {"name": "Postprocessor/BatchMultiClassNonMaxSuppression/map/TensorArrayStack/range/start", "op": "Const", "attr": {"dtype": {"type": "DT_INT32"}, "value": {"tensor": {"dtype": "DT_INT32", "tensorShape": {}}}}}, {"name": "image_tensor", "op": "Placeholder", "attr": {"dtype": {"type": "DT_UINT8"}, "shape": {"shape": {"dim": [{"size": "-1"}, {"size": "-1"}, {"size": "-1"}, {"size": "3"}]}}}}, {"name": "Preprocessor/mul/x", "op": "Const", "attr": {"value": {"tensor": {"dtype": "DT_FLOAT", "tensorShape": {}}}, "dtype": {"type": "DT_FLOAT"}}}, {"name": "add_6/y", "op": "Const", "attr": {"value": {"tensor": {"dtype": "DT_FLOAT", "tensorShape": {}}}, "dtype": {"type": "DT_FLOAT"}}}, {"name": "strided_slice_6/stack_1", "op": "Const", "attr": {"dtype": {"type": "DT_INT32"}, "value": {"tensor": {"dtype": "DT_INT32", "tensorShape": {"dim": [{"size": "1"}]}}}}}, {"name": "strided_slice_7/stack_1", "op": "Const", "attr": {"value": {"tensor": {"dtype": "DT_INT32", "tensorShape": {"dim": [{"size": "1"}]}}}, "dtype": {"type": "DT_INT32"}}}, {"name": "BoxPredictor_5/stack_1/1", "op": "Const", "attr": {"value": {"tensor": {"dtype": "DT_INT32", "tensorShape": {}}}, "dtype": {"type": "DT_INT32"}}}, {"name": "Postprocessor/BatchMultiClassNonMaxSuppression/map/TensorArrayStack/range/delta", "op": "Const", "attr": {"value": {"tensor": {"dtype": "DT_INT32", "tensorShape": {}}}, "dtype": {"type": "DT_INT32"}}}, {"name": "Postprocessor/BatchMultiClassNonMaxSuppression/mul/y", "op": "Const", "attr": {"value": {"tensor": {"dtype": "DT_INT32", "tensorShape": {}}}, "dtype": {"type": "DT_INT32"}}}, {"name": "BoxPredictor_0/stack/3", "op": "Const", "attr": {"value": {"tensor": {"dtype": "DT_INT32", "tensorShape": {}}}, "dtype": {"type": "DT_INT32"}}}, {"name": "BoxPredictor_0/stack_1/2", "op": "Const", "attr": {"value": {"tensor": {"dtype": "DT_INT32", "tensorShape": {}}}, "dtype": {"type": "DT_INT32"}}}, {"name": "Postprocessor/BatchMultiClassNonMaxSuppression/map/TensorArrayUnstack_1/strided_slice/stack", "op": "Const", "attr": {"value": {"tensor": {"dtype": "DT_INT32", "tensorShape": {"dim": [{"size": "1"}]}}}, "dtype": {"type": "DT_INT32"}}}, {"name": "Postprocessor/BatchMultiClassNonMaxSuppression/map/TensorArrayUnstack_1/strided_slice/stack_1", "op": "Const", "attr": {"value": {"tensor": {"dtype": "DT_INT32", "tensorShape": {"dim": [{"size": "1"}]}}}, "dtype": {"type": "DT_INT32"}}}, {"name": "Postprocessor/BatchMultiClassNonMaxSuppression/map/while/MultiClassNonMaxSuppression/ClipToWindow/unstack/Enter", "op": "Enter", "input": ["Postprocessor/Const"], "attr": {"T": {"type": "DT_FLOAT"}, "is_constant": {"b": true}, "parallel_iterations": {"i": "32"}, "frame_name": {"s": "UG9zdHByb2Nlc3Nvci9CYXRjaE11bHRpQ2xhc3NOb25NYXhTdXBwcmVzc2lvbi9tYXAvd2hpbGUvd2hpbGVfY29udGV4dA=="}}}, {"name": "Postprocessor/BatchMultiClassNonMaxSuppression/map/while/Enter_1", "op": "Enter", "input": ["Postprocessor/BatchMultiClassNonMaxSuppression/map/TensorArrayStack/range/start"], "attr": {"T": {"type": "DT_INT32"}, "is_constant": {"b": false}, "parallel_iterations": {"i": "32"}, "frame_name": {"s": "UG9zdHByb2Nlc3Nvci9CYXRjaE11bHRpQ2xhc3NOb25NYXhTdXBwcmVzc2lvbi9tYXAvd2hpbGUvd2hpbGVfY29udGV4dA=="}}}, {"name": "Postprocessor/BatchMultiClassNonMaxSuppression/map/while/Enter", "op": "Enter", "input": ["Postprocessor/BatchMultiClassNonMaxSuppression/map/TensorArrayStack/range/start"], "attr": {"T": {"type": "DT_INT32"}, "is_constant": {"b": false}, "parallel_iterations": {"i": "32"}, "frame_name": {"s": "UG9zdHByb2Nlc3Nvci9CYXRjaE11bHRpQ2xhc3NOb25NYXhTdXBwcmVzc2lvbi9tYXAvd2hpbGUvd2hpbGVfY29udGV4dA=="}}}, {"name": "Preprocessor/map/while/Enter_1", "op": "Enter", "input": ["Postprocessor/BatchMultiClassNonMaxSuppression/map/TensorArrayStack/range/start"], "attr": {"T": {"type": "DT_INT32"}, "is_constant": {"b": false}, "parallel_iterations": {"i": "10"}, "frame_name": {"s": "UHJlcHJvY2Vzc29yL21hcC93aGlsZS93aGlsZV9jb250ZXh0"}}}, {"name": "Preprocessor/map/while/Enter", "op": "Enter", "input": ["Postprocessor/BatchMultiClassNonMaxSuppression/map/TensorArrayStack/range/start"], "attr": {"T": {"type": "DT_INT32"}, "is_constant": {"b": false}, "parallel_iterations": {"i": "10"}, "frame_name": {"s": "UHJlcHJvY2Vzc29yL21hcC93aGlsZS93aGlsZV9jb250ZXh0"}}}, {"name": "ToFloat", "op": "Cast", "input": ["image_tensor"], "attr": {"SrcT": {"type": "DT_UINT8"}, "Truncate": {"b": false}, "DstT": {"type": "DT_FLOAT"}}}, {"name": "Postprocessor/BatchMultiClassNonMaxSuppression/map/while/Merge_1", "op": "Merge", "input": ["Postprocessor/BatchMultiClassNonMaxSuppression/map/while/Enter_1", "Postprocessor/BatchMultiClassNonMaxSuppression/map/while/NextIteration_1"], "attr": {"T": {"type": "DT_INT32"}, "N": {"i": "2"}}}, {"name": "Postprocessor/BatchMultiClassNonMaxSuppression/map/while/Merge", "op": "Merge", "input": ["Postprocessor/BatchMultiClassNonMaxSuppression/map/while/Enter", "Postprocessor/BatchMultiClassNonMaxSuppression/map/while/NextIteration"], "attr": {"N": {"i": "2"}, "T": {"type": "DT_INT32"}}}, {"name": "Preprocessor/map/while/Merge_1", "op": "Merge", "input": ["Preprocessor/map/while/Enter_1", "Preprocessor/map/while/NextIteration_1"], "attr": {"T": {"type": "DT_INT32"}, "N": {"i": "2"}}}, {"name": "Preprocessor/map/while/Merge", "op": "Merge", "input": ["Preprocessor/map/while/Enter", "Preprocessor/map/while/NextIteration"], "attr": {"N": {"i": "2"}, "T": {"type": "DT_INT32"}}}, {"name": "Preprocessor/map/TensorArrayUnstack/Shape", "op": "Shape", "input": ["ToFloat"], "attr": {"T": {"type": "DT_FLOAT"}, "out_type": {"type": "DT_INT32"}}}, {"name": "Preprocessor/map/TensorArrayUnstack/strided_slice", "op": "StridedSlice", "input": ["Preprocessor/map/TensorArrayUnstack/Shape", "Postprocessor/BatchMultiClassNonMaxSuppression/map/TensorArrayUnstack_1/strided_slice/stack", "Postprocessor/BatchMultiClassNonMaxSuppression/map/TensorArrayUnstack_1/strided_slice/stack_1", "Postprocessor/BatchMultiClassNonMaxSuppression/map/TensorArrayUnstack_1/strided_slice/stack_1"], "attr": {"Index": {"type": "DT_INT32"}, "T": {"type": "DT_INT32"}, "shrink_axis_mask": {"i": "1"}, "begin_mask": {"i": "0"}, "ellipsis_mask": {"i": "0"}, "new_axis_mask": {"i": "0"}, "end_mask": {"i": "0"}}}, {"name": "Preprocessor/map/TensorArray_1", "op": "TensorArrayV3", "input": ["Preprocessor/map/TensorArrayUnstack/strided_slice"], "attr": {"tensor_array_name": {"s": ""}, "dtype": {"type": "DT_FLOAT"}, "element_shape": {"shape": {"unknownRank": true}}, "dynamic_size": {"b": false}, "clear_after_read": {"b": true}, "identical_element_shapes": {"b": true}}}, {"name": "Preprocessor/map/TensorArrayUnstack/range", "op": "Range", "input": ["Postprocessor/BatchMultiClassNonMaxSuppression/map/TensorArrayStack/range/start", "Preprocessor/map/TensorArrayUnstack/strided_slice", "Postprocessor/BatchMultiClassNonMaxSuppression/map/TensorArrayStack/range/delta"], "attr": {"Tidx": {"type": "DT_INT32"}}}, {"name": "Preprocessor/map/TensorArray", "op": "TensorArrayV3", "input": ["Preprocessor/map/TensorArrayUnstack/strided_slice"], "attr": {"identical_element_shapes": {"b": true}, "tensor_array_name": {"s": ""}, "dtype": {"type": "DT_FLOAT"}, "element_shape": {"shape": {"unknownRank": true}}, "clear_after_read": {"b": true}, "dynamic_size": {"b": false}}}, {"name": "Preprocessor/map/while/Less/Enter", "op": "Enter", "input": ["Preprocessor/map/TensorArrayUnstack/strided_slice"], "attr": {"T": {"type": "DT_INT32"}, "is_constant": {"b": true}, "parallel_iterations": {"i": "10"}, "frame_name": {"s": "UHJlcHJvY2Vzc29yL21hcC93aGlsZS93aGlsZV9jb250ZXh0"}}}, {"name": "Preprocessor/map/while/TensorArrayWrite/TensorArrayWriteV3/Enter", "op": "Enter", "input": ["Preprocessor/map/TensorArray_1"], "attr": {"parallel_iterations": {"i": "10"}, "frame_name": {"s": "UHJlcHJvY2Vzc29yL21hcC93aGlsZS93aGlsZV9jb250ZXh0"}, "T": {"type": "DT_RESOURCE"}, "is_constant": {"b": true}}}, {"name": "Preprocessor/map/while/Enter_2", "op": "Enter", "input": ["Preprocessor/map/TensorArray_1:1"], "attr": {"T": {"type": "DT_FLOAT"}, "is_constant": {"b": false}, "parallel_iterations": {"i": "10"}, "frame_name": {"s": "UHJlcHJvY2Vzc29yL21hcC93aGlsZS93aGlsZV9jb250ZXh0"}}}, {"name": "Preprocessor/map/while/TensorArrayReadV3/Enter", "op": "Enter", "input": ["Preprocessor/map/TensorArray"], "attr": {"T": {"type": "DT_RESOURCE"}, "is_constant": {"b": true}, "parallel_iterations": {"i": "10"}, "frame_name": {"s": "UHJlcHJvY2Vzc29yL21hcC93aGlsZS93aGlsZV9jb250ZXh0"}}}, {"name": "Preprocessor/map/TensorArrayUnstack/TensorArrayScatter/TensorArrayScatterV3", "op": "TensorArrayScatterV3", "input": ["Preprocessor/map/TensorArray", "Preprocessor/map/TensorArrayUnstack/range", "ToFloat", "Preprocessor/map/TensorArray:1"], "attr": {"T": {"type": "DT_FLOAT"}}}, {"name": "Preprocessor/map/while/Less", "op": "Less", "input": ["Preprocessor/map/while/Merge", "Preprocessor/map/while/Less/Enter"], "attr": {"T": {"type": "DT_INT32"}}}, {"name": "Preprocessor/map/while/Less_1", "op": "Less", "input": ["Preprocessor/map/while/Merge_1", "Preprocessor/map/while/Less/Enter"], "attr": {"T": {"type": "DT_INT32"}}}, {"name": "Preprocessor/map/while/Merge_2", "op": "Merge", "input": ["Preprocessor/map/while/Enter_2", "Preprocessor/map/while/NextIteration_2"], "attr": {"T": {"type": "DT_FLOAT"}, "N": {"i": "2"}}}, {"name": "Preprocessor/map/while/TensorArrayReadV3/Enter_1", "op": "Enter", "input": ["Preprocessor/map/TensorArrayUnstack/TensorArrayScatter/TensorArrayScatterV3"], "attr": {"T": {"type": "DT_FLOAT"}, "is_constant": {"b": true}, "parallel_iterations": {"i": "10"}, "frame_name": {"s": "UHJlcHJvY2Vzc29yL21hcC93aGlsZS93aGlsZV9jb250ZXh0"}}}, {"name": "Preprocessor/map/while/LogicalAnd", "op": "LogicalAnd", "input": ["Preprocessor/map/while/Less", "Preprocessor/map/while/Less_1"]}, {"name": "Preprocessor/map/while/LoopCond", "op": "LoopCond", "input": ["Preprocessor/map/while/LogicalAnd"]}, {"name": "Preprocessor/map/while/Switch_1", "op": "Switch", "input": ["Preprocessor/map/while/Merge_1", "Preprocessor/map/while/LoopCond"], "attr": {"T": {"type": "DT_INT32"}}}, {"name": "Preprocessor/map/while/Switch", "op": "Switch", "input": ["Preprocessor/map/while/Merge", "Preprocessor/map/while/LoopCond"], "attr": {"T": {"type": "DT_INT32"}}}, {"name": "Preprocessor/map/while/Switch_2", "op": "Switch", "input": ["Preprocessor/map/while/Merge_2", "Preprocessor/map/while/LoopCond"], "attr": {"T": {"type": "DT_FLOAT"}}}, {"name": "Preprocessor/map/while/TensorArrayReadV3", "op": "TensorArrayReadV3", "input": ["Preprocessor/map/while/TensorArrayReadV3/Enter", "Preprocessor/map/while/Switch_1:1", "Preprocessor/map/while/TensorArrayReadV3/Enter_1"], "attr": {"dtype": {"type": "DT_FLOAT"}}}, {"name": "Preprocessor/map/while/Identity", "op": "Identity", "input": ["Preprocessor/map/while/Switch:1"], "attr": {"T": {"type": "DT_INT32"}}}, {"name": "Preprocessor/map/while/Exit_2", "op": "Exit", "input": ["Preprocessor/map/while/Switch_2"], "attr": {"T": {"type": "DT_FLOAT"}}}, {"name": "Preprocessor/map/while/ResizeImage/resize/ExpandDims/dim", "op": "Const", "input": ["^Preprocessor/map/while/Identity"], "attr": {"value": {"tensor": {"dtype": "DT_INT32", "tensorShape": {}}}, "dtype": {"type": "DT_INT32"}}}, {"name": "Preprocessor/map/while/ResizeImage/resize/size", "op": "Const", "input": ["^Preprocessor/map/while/Identity"], "attr": {"dtype": {"type": "DT_INT32"}, "value": {"tensor": {"dtype": "DT_INT32", "tensorShape": {"dim": [{"size": "2"}]}}}}}, {"name": "Preprocessor/map/while/add/y", "op": "Const", "input": ["^Preprocessor/map/while/Identity"], "attr": {"dtype": {"type": "DT_INT32"}, "value": {"tensor": {"dtype": "DT_INT32", "tensorShape": {}}}}}, {"name": "Preprocessor/map/TensorArrayStack/TensorArraySizeV3", "op": "TensorArraySizeV3", "input": ["Preprocessor/map/TensorArray_1", "Preprocessor/map/while/Exit_2"]}, {"name": "Preprocessor/map/while/ResizeImage/resize/ExpandDims", "op": "ExpandDims", "input": ["Preprocessor/map/while/TensorArrayReadV3", "Preprocessor/map/while/ResizeImage/resize/ExpandDims/dim"], "attr": {"Tdim": {"type": "DT_INT32"}, "T": {"type": "DT_FLOAT"}}}, {"name": "Preprocessor/map/while/add", "op": "AddV2", "input": ["Preprocessor/map/while/Identity", "Preprocessor/map/while/add/y"], "attr": {"T": {"type": "DT_INT32"}}}, {"name": "Preprocessor/map/while/add_1", "op": "AddV2", "input": ["Preprocessor/map/while/Switch_1:1", "Preprocessor/map/while/add/y"], "attr": {"T": {"type": "DT_INT32"}}}, {"name": "Preprocessor/map/TensorArrayStack/range", "op": "Range", "input": ["Postprocessor/BatchMultiClassNonMaxSuppression/map/TensorArrayStack/range/start", "Preprocessor/map/TensorArrayStack/TensorArraySizeV3", "Postprocessor/BatchMultiClassNonMaxSuppression/map/TensorArrayStack/range/delta"], "attr": {"Tidx": {"type": "DT_INT32"}}}, {"name": "Preprocessor/map/while/ResizeImage/resize/ResizeBilinear", "op": "ResizeBilinear", "input": ["Preprocessor/map/while/ResizeImage/resize/ExpandDims", "Preprocessor/map/while/ResizeImage/resize/size"], "attr": {"align_corners": {"b": false}, "half_pixel_centers": {"b": false}, "T": {"type": "DT_FLOAT"}}}, {"name": "Preprocessor/map/while/NextIteration", "op": "NextIteration", "input": ["Preprocessor/map/while/add"], "attr": {"T": {"type": "DT_INT32"}}}, {"name": "Preprocessor/map/while/NextIteration_1", "op": "NextIteration", "input": ["Preprocessor/map/while/add_1"], "attr": {"T": {"type": "DT_INT32"}}}, {"name": "Preprocessor/map/TensorArrayStack/TensorArrayGatherV3", "op": "TensorArrayGatherV3", "input": ["Preprocessor/map/TensorArray_1", "Preprocessor/map/TensorArrayStack/range", "Preprocessor/map/while/Exit_2"], "attr": {"element_shape": {"shape": {"dim": [{"size": "300"}, {"size": "300"}, {"size": "3"}]}}, "dtype": {"type": "DT_FLOAT"}}}, {"name": "Preprocessor/map/while/ResizeImage/resize/Squeeze", "op": "Squeeze", "input": ["Preprocessor/map/while/ResizeImage/resize/ResizeBilinear"], "attr": {"squeeze_dims": {"list": {"i": ["0"]}}, "T": {"type": "DT_FLOAT"}}}, {"name": "Preprocessor/mul", "op": "Mul", "input": ["Preprocessor/map/TensorArrayStack/TensorArrayGatherV3", "Preprocessor/mul/x"], "attr": {"T": {"type": "DT_FLOAT"}}}, {"name": "Preprocessor/map/while/TensorArrayWrite/TensorArrayWriteV3", "op": "TensorArrayWriteV3", "input": ["Preprocessor/map/while/TensorArrayWrite/TensorArrayWriteV3/Enter", "Preprocessor/map/while/Switch_1:1", "Preprocessor/map/while/ResizeImage/resize/Squeeze", "Preprocessor/map/while/Switch_2:1"], "attr": {"T": {"type": "DT_FLOAT"}}}, {"name": "Preprocessor/sub", "op": "Sub", "input": ["Preprocessor/mul", "add_6/y"], "attr": {"T": {"type": "DT_FLOAT"}}}, {"name": "Preprocessor/map/while/NextIteration_2", "op": "NextIteration", "input": ["Preprocessor/map/while/TensorArrayWrite/TensorArrayWriteV3"], "attr": {"T": {"type": "DT_FLOAT"}}}, {"name": "Shape_6", "op": "Shape", "input": ["Preprocessor/sub"], "attr": {"T": {"type": "DT_FLOAT"}, "out_type": {"type": "DT_INT32"}}}, {"name": "strided_slice_6", "op": "StridedSlice", "input": ["Shape_6", "Postprocessor/BatchMultiClassNonMaxSuppression/map/TensorArrayUnstack_1/strided_slice/stack_1", "strided_slice_6/stack_1", "Postprocessor/BatchMultiClassNonMaxSuppression/map/TensorArrayUnstack_1/strided_slice/stack_1"], "attr": {"Index": {"type": "DT_INT32"}, "T": {"type": "DT_INT32"}, "shrink_axis_mask": {"i": "1"}, "ellipsis_mask": {"i": "0"}, "begin_mask": {"i": "0"}, "new_axis_mask": {"i": "0"}, "end_mask": {"i": "0"}}}, {"name": "strided_slice_7", "op": "StridedSlice", "input": ["Shape_6", "strided_slice_6/stack_1", "strided_slice_7/stack_1", "Postprocessor/BatchMultiClassNonMaxSuppression/map/TensorArrayUnstack_1/strided_slice/stack_1"], "attr": {"begin_mask": {"i": "0"}, "ellipsis_mask": {"i": "0"}, "new_axis_mask": {"i": "0"}, "end_mask": {"i": "0"}, "Index": {"type": "DT_INT32"}, "T": {"type": "DT_INT32"}, "shrink_axis_mask": {"i": "1"}}}, {"name": "MultipleGridAnchorGenerator/ToFloat", "op": "Cast", "input": ["strided_slice_6"], "attr": {"SrcT": {"type": "DT_INT32"}, "Truncate": {"b": false}, "DstT": {"type": "DT_FLOAT"}}}, {"name": "MultipleGridAnchorGenerator/ToFloat_1", "op": "Cast", "input": ["strided_slice_7"], "attr": {"Truncate": {"b": false}, "DstT": {"type": "DT_FLOAT"}, "SrcT": {"type": "DT_INT32"}}}, {"name": "FeatureExtractor/LogicalAnd", "op": "NoOp", "input": ["^strided_slice_6", "^strided_slice_7"]}, {"name": "MultipleGridAnchorGenerator/Minimum", "op": "Minimum", "input": ["MultipleGridAnchorGenerator/ToFloat", "MultipleGridAnchorGenerator/ToFloat_1"], "attr": {"T": {"type": "DT_FLOAT"}}}, {"name": "FeatureExtractor/MobilenetV1/MobilenetV1/Conv2d_13_depthwise/BatchNorm/batchnorm_1/mul", "op": "Const", "input": ["^FeatureExtractor/LogicalAnd"], "attr": {"value": {"tensor": {"dtype": "DT_FLOAT", "tensorShape": {"dim": [{"size": "1024"}]}}}, "dtype": {"type": "DT_FLOAT"}}}, {"name": "FeatureExtractor/MobilenetV1/MobilenetV1/Conv2d_12_depthwise/BatchNorm/batchnorm_1/mul", "op": "Const", "input": ["^FeatureExtractor/LogicalAnd"], "attr": {"value": {"tensor": {"dtype": "DT_FLOAT", "tensorShape": {"dim": [{"size": "512"}]}}}, "dtype": {"type": "DT_FLOAT"}}}, {"name": "FeatureExtractor/MobilenetV1/MobilenetV1/Conv2d_11_depthwise/BatchNorm/batchnorm_1/mul", "op": "Const", "input": ["^FeatureExtractor/LogicalAnd"], "attr": {"value": {"tensor": {"dtype": "DT_FLOAT", "tensorShape": {"dim": [{"size": "512"}]}}}, "dtype": {"type": "DT_FLOAT"}}}, {"name": "FeatureExtractor/MobilenetV1/MobilenetV1/Conv2d_10_depthwise/BatchNorm/batchnorm_1/mul", "op": "Const", "input": ["^FeatureExtractor/LogicalAnd"], "attr": {"value": {"tensor": {"dtype": "DT_FLOAT", "tensorShape": {"dim": [{"size": "512"}]}}}, "dtype": {"type": "DT_FLOAT"}}}, {"name": "FeatureExtractor/MobilenetV1/MobilenetV1/Conv2d_9_depthwise/BatchNorm/batchnorm_1/mul", "op": "Const", "input": ["^FeatureExtractor/LogicalAnd"], "attr": {"dtype": {"type": "DT_FLOAT"}, "value": {"tensor": {"dtype": "DT_FLOAT", "tensorShape": {"dim": [{"size": "512"}]}}}}}, {"name": "FeatureExtractor/MobilenetV1/MobilenetV1/Conv2d_8_depthwise/BatchNorm/batchnorm_1/mul", "op": "Const", "input": ["^FeatureExtractor/LogicalAnd"], "attr": {"value": {"tensor": {"dtype": "DT_FLOAT", "tensorShape": {"dim": [{"size": "512"}]}}}, "dtype": {"type": "DT_FLOAT"}}}, {"name": "FeatureExtractor/MobilenetV1/MobilenetV1/Conv2d_7_depthwise/BatchNorm/batchnorm_1/mul", "op": "Const", "input": ["^FeatureExtractor/LogicalAnd"], "attr": {"value": {"tensor": {"dtype": "DT_FLOAT", "tensorShape": {"dim": [{"size": "512"}]}}}, "dtype": {"type": "DT_FLOAT"}}}, {"name": "FeatureExtractor/MobilenetV1/MobilenetV1/Conv2d_6_depthwise/BatchNorm/batchnorm_1/mul", "op": "Const", "input": ["^FeatureExtractor/LogicalAnd"], "attr": {"value": {"tensor": {"dtype": "DT_FLOAT", "tensorShape": {"dim": [{"size": "256"}]}}}, "dtype": {"type": "DT_FLOAT"}}}, {"name": "FeatureExtractor/MobilenetV1/MobilenetV1/Conv2d_5_depthwise/BatchNorm/batchnorm_1/mul", "op": "Const", "input": ["^FeatureExtractor/LogicalAnd"], "attr": {"value": {"tensor": {"dtype": "DT_FLOAT", "tensorShape": {"dim": [{"size": "256"}]}}}, "dtype": {"type": "DT_FLOAT"}}}, {"name": "FeatureExtractor/MobilenetV1/MobilenetV1/Conv2d_4_depthwise/BatchNorm/batchnorm_1/mul", "op": "Const", "input": ["^FeatureExtractor/LogicalAnd"], "attr": {"dtype": {"type": "DT_FLOAT"}, "value": {"tensor": {"dtype": "DT_FLOAT", "tensorShape": {"dim": [{"size": "128"}]}}}}}, {"name": "FeatureExtractor/MobilenetV1/MobilenetV1/Conv2d_3_depthwise/BatchNorm/batchnorm_1/mul", "op": "Const", "input": ["^FeatureExtractor/LogicalAnd"], "attr": {"dtype": {"type": "DT_FLOAT"}, "value": {"tensor": {"dtype": "DT_FLOAT", "tensorShape": {"dim": [{"size": "128"}]}}}}}, {"name": "FeatureExtractor/MobilenetV1/MobilenetV1/Conv2d_2_depthwise/BatchNorm/batchnorm_1/mul", "op": "Const", "input": ["^FeatureExtractor/LogicalAnd"], "attr": {"value": {"tensor": {"dtype": "DT_FLOAT", "tensorShape": {"dim": [{"size": "64"}]}}}, "dtype": {"type": "DT_FLOAT"}}}, {"name": "FeatureExtractor/MobilenetV1/MobilenetV1/Conv2d_1_depthwise/BatchNorm/batchnorm_1/mul", "op": "Const", "input": ["^FeatureExtractor/LogicalAnd"], "attr": {"value": {"tensor": {"dtype": "DT_FLOAT", "tensorShape": {"dim": [{"size": "32"}]}}}, "dtype": {"type": "DT_FLOAT"}}}, {"name": "FeatureExtractor/MobilenetV1/MobilenetV1/Conv2d_0/Conv2D/merged_input", "op": "Const", "input": ["^FeatureExtractor/LogicalAnd"], "attr": {"value": {"tensor": {"dtype": "DT_FLOAT", "tensorShape": {"dim": [{"size": "3"}, {"size": "3"}, {"size": "3"}, {"size": "32"}]}}}, "dtype": {"type": "DT_FLOAT"}}}, {"name": "FeatureExtractor/MobilenetV1/MobilenetV1/Conv2d_0/BatchNorm/batchnorm_1/sub", "op": "Const", "input": ["^FeatureExtractor/LogicalAnd"], "attr": {"dtype": {"type": "DT_FLOAT"}, "value": {"tensor": {"dtype": "DT_FLOAT", "tensorShape": {"dim": [{"size": "32"}]}}}}}, {"name": "FeatureExtractor/MobilenetV1/MobilenetV1/Conv2d_1_depthwise/BatchNorm/batchnorm_1/sub", "op": "Const", "input": ["^FeatureExtractor/LogicalAnd"], "attr": {"value": {"tensor": {"dtype": "DT_FLOAT", "tensorShape": {"dim": [{"size": "32"}]}}}, "dtype": {"type": "DT_FLOAT"}}}, {"name": "FeatureExtractor/MobilenetV1/MobilenetV1/Conv2d_1_pointwise/Conv2D/merged_input", "op": "Const", "input": ["^FeatureExtractor/LogicalAnd"], "attr": {"value": {"tensor": {"dtype": "DT_FLOAT", "tensorShape": {"dim": [{"size": "1"}, {"size": "1"}, {"size": "32"}, {"size": "64"}]}}}, "dtype": {"type": "DT_FLOAT"}}}, {"name": "FeatureExtractor/MobilenetV1/MobilenetV1/Conv2d_1_pointwise/BatchNorm/batchnorm_1/sub", "op": "Const", "input": ["^FeatureExtractor/LogicalAnd"], "attr": {"value": {"tensor": {"dtype": "DT_FLOAT", "tensorShape": {"dim": [{"size": "64"}]}}}, "dtype": {"type": "DT_FLOAT"}}}, {"name": "FeatureExtractor/MobilenetV1/MobilenetV1/Conv2d_2_depthwise/BatchNorm/batchnorm_1/sub", "op": "Const", "input": ["^FeatureExtractor/LogicalAnd"], "attr": {"value": {"tensor": {"dtype": "DT_FLOAT", "tensorShape": {"dim": [{"size": "64"}]}}}, "dtype": {"type": "DT_FLOAT"}}}, {"name": "FeatureExtractor/MobilenetV1/MobilenetV1/Conv2d_2_pointwise/Conv2D/merged_input", "op": "Const", "input": ["^FeatureExtractor/LogicalAnd"], "attr": {"value": {"tensor": {"dtype": "DT_FLOAT", "tensorShape": {"dim": [{"size": "1"}, {"size": "1"}, {"size": "64"}, {"size": "128"}]}}}, "dtype": {"type": "DT_FLOAT"}}}, {"name": "FeatureExtractor/MobilenetV1/MobilenetV1/Conv2d_2_pointwise/BatchNorm/batchnorm_1/sub", "op": "Const", "input": ["^FeatureExtractor/LogicalAnd"], "attr": {"dtype": {"type": "DT_FLOAT"}, "value": {"tensor": {"dtype": "DT_FLOAT", "tensorShape": {"dim": [{"size": "128"}]}}}}}, {"name": "FeatureExtractor/MobilenetV1/MobilenetV1/Conv2d_3_depthwise/BatchNorm/batchnorm_1/sub", "op": "Const", "input": ["^FeatureExtractor/LogicalAnd"], "attr": {"value": {"tensor": {"dtype": "DT_FLOAT", "tensorShape": {"dim": [{"size": "128"}]}}}, "dtype": {"type": "DT_FLOAT"}}}, {"name": "FeatureExtractor/MobilenetV1/MobilenetV1/Conv2d_3_pointwise/Conv2D/merged_input", "op": "Const", "input": ["^FeatureExtractor/LogicalAnd"], "attr": {"value": {"tensor": {"dtype": "DT_FLOAT", "tensorShape": {"dim": [{"size": "1"}, {"size": "1"}, {"size": "128"}, {"size": "128"}]}}}, "dtype": {"type": "DT_FLOAT"}}}, {"name": "FeatureExtractor/MobilenetV1/MobilenetV1/Conv2d_3_pointwise/BatchNorm/batchnorm_1/sub", "op": "Const", "input": ["^FeatureExtractor/LogicalAnd"], "attr": {"dtype": {"type": "DT_FLOAT"}, "value": {"tensor": {"dtype": "DT_FLOAT", "tensorShape": {"dim": [{"size": "128"}]}}}}}, {"name": "FeatureExtractor/MobilenetV1/MobilenetV1/Conv2d_4_depthwise/BatchNorm/batchnorm_1/sub", "op": "Const", "input": ["^FeatureExtractor/LogicalAnd"], "attr": {"value": {"tensor": {"dtype": "DT_FLOAT", "tensorShape": {"dim": [{"size": "128"}]}}}, "dtype": {"type": "DT_FLOAT"}}}, {"name": "FeatureExtractor/MobilenetV1/MobilenetV1/Conv2d_4_pointwise/Conv2D/merged_input", "op": "Const", "input": ["^FeatureExtractor/LogicalAnd"], "attr": {"dtype": {"type": "DT_FLOAT"}, "value": {"tensor": {"dtype": "DT_FLOAT", "tensorShape": {"dim": [{"size": "1"}, {"size": "1"}, {"size": "128"}, {"size": "256"}]}}}}}, {"name": "FeatureExtractor/MobilenetV1/MobilenetV1/Conv2d_4_pointwise/BatchNorm/batchnorm_1/sub", "op": "Const", "input": ["^FeatureExtractor/LogicalAnd"], "attr": {"value": {"tensor": {"dtype": "DT_FLOAT", "tensorShape": {"dim": [{"size": "256"}]}}}, "dtype": {"type": "DT_FLOAT"}}}, {"name": "FeatureExtractor/MobilenetV1/MobilenetV1/Conv2d_5_depthwise/BatchNorm/batchnorm_1/sub", "op": "Const", "input": ["^FeatureExtractor/LogicalAnd"], "attr": {"dtype": {"type": "DT_FLOAT"}, "value": {"tensor": {"dtype": "DT_FLOAT", "tensorShape": {"dim": [{"size": "256"}]}}}}}, {"name": "FeatureExtractor/MobilenetV1/MobilenetV1/Conv2d_5_pointwise/Conv2D/merged_input", "op": "Const", "input": ["^FeatureExtractor/LogicalAnd"], "attr": {"value": {"tensor": {"dtype": "DT_FLOAT", "tensorShape": {"dim": [{"size": "1"}, {"size": "1"}, {"size": "256"}, {"size": "256"}]}}}, "dtype": {"type": "DT_FLOAT"}}}, {"name": "FeatureExtractor/MobilenetV1/MobilenetV1/Conv2d_5_pointwise/BatchNorm/batchnorm_1/sub", "op": "Const", "input": ["^FeatureExtractor/LogicalAnd"], "attr": {"value": {"tensor": {"dtype": "DT_FLOAT", "tensorShape": {"dim": [{"size": "256"}]}}}, "dtype": {"type": "DT_FLOAT"}}}, {"name": "FeatureExtractor/MobilenetV1/MobilenetV1/Conv2d_6_depthwise/BatchNorm/batchnorm_1/sub", "op": "Const", "input": ["^FeatureExtractor/LogicalAnd"], "attr": {"value": {"tensor": {"dtype": "DT_FLOAT", "tensorShape": {"dim": [{"size": "256"}]}}}, "dtype": {"type": "DT_FLOAT"}}}, {"name": "FeatureExtractor/MobilenetV1/MobilenetV1/Conv2d_6_pointwise/Conv2D/merged_input", "op": "Const", "input": ["^FeatureExtractor/LogicalAnd"], "attr": {"value": {"tensor": {"dtype": "DT_FLOAT", "tensorShape": {"dim": [{"size": "1"}, {"size": "1"}, {"size": "256"}, {"size": "512"}]}}}, "dtype": {"type": "DT_FLOAT"}}}, {"name": "FeatureExtractor/MobilenetV1/MobilenetV1/Conv2d_6_pointwise/BatchNorm/batchnorm_1/sub", "op": "Const", "input": ["^FeatureExtractor/LogicalAnd"], "attr": {"value": {"tensor": {"dtype": "DT_FLOAT", "tensorShape": {"dim": [{"size": "512"}]}}}, "dtype": {"type": "DT_FLOAT"}}}, {"name": "FeatureExtractor/MobilenetV1/MobilenetV1/Conv2d_7_depthwise/BatchNorm/batchnorm_1/sub", "op": "Const", "input": ["^FeatureExtractor/LogicalAnd"], "attr": {"value": {"tensor": {"dtype": "DT_FLOAT", "tensorShape": {"dim": [{"size": "512"}]}}}, "dtype": {"type": "DT_FLOAT"}}}, {"name": "FeatureExtractor/MobilenetV1/MobilenetV1/Conv2d_7_pointwise/Conv2D/merged_input", "op": "Const", "input": ["^FeatureExtractor/LogicalAnd"], "attr": {"dtype": {"type": "DT_FLOAT"}, "value": {"tensor": {"dtype": "DT_FLOAT", "tensorShape": {"dim": [{"size": "1"}, {"size": "1"}, {"size": "512"}, {"size": "512"}]}}}}}, {"name": "FeatureExtractor/MobilenetV1/MobilenetV1/Conv2d_7_pointwise/BatchNorm/batchnorm_1/sub", "op": "Const", "input": ["^FeatureExtractor/LogicalAnd"], "attr": {"dtype": {"type": "DT_FLOAT"}, "value": {"tensor": {"dtype": "DT_FLOAT", "tensorShape": {"dim": [{"size": "512"}]}}}}}, {"name": "FeatureExtractor/MobilenetV1/MobilenetV1/Conv2d_8_depthwise/BatchNorm/batchnorm_1/sub", "op": "Const", "input": ["^FeatureExtractor/LogicalAnd"], "attr": {"value": {"tensor": {"dtype": "DT_FLOAT", "tensorShape": {"dim": [{"size": "512"}]}}}, "dtype": {"type": "DT_FLOAT"}}}, {"name": "FeatureExtractor/MobilenetV1/MobilenetV1/Conv2d_8_pointwise/Conv2D/merged_input", "op": "Const", "input": ["^FeatureExtractor/LogicalAnd"], "attr": {"value": {"tensor": {"dtype": "DT_FLOAT", "tensorShape": {"dim": [{"size": "1"}, {"size": "1"}, {"size": "512"}, {"size": "512"}]}}}, "dtype": {"type": "DT_FLOAT"}}}, {"name": "FeatureExtractor/MobilenetV1/MobilenetV1/Conv2d_8_pointwise/BatchNorm/batchnorm_1/sub", "op": "Const", "input": ["^FeatureExtractor/LogicalAnd"], "attr": {"value": {"tensor": {"dtype": "DT_FLOAT", "tensorShape": {"dim": [{"size": "512"}]}}}, "dtype": {"type": "DT_FLOAT"}}}, {"name": "FeatureExtractor/MobilenetV1/MobilenetV1/Conv2d_9_depthwise/BatchNorm/batchnorm_1/sub", "op": "Const", "input": ["^FeatureExtractor/LogicalAnd"], "attr": {"value": {"tensor": {"dtype": "DT_FLOAT", "tensorShape": {"dim": [{"size": "512"}]}}}, "dtype": {"type": "DT_FLOAT"}}}, {"name": "FeatureExtractor/MobilenetV1/MobilenetV1/Conv2d_9_pointwise/Conv2D/merged_input", "op": "Const", "input": ["^FeatureExtractor/LogicalAnd"], "attr": {"dtype": {"type": "DT_FLOAT"}, "value": {"tensor": {"dtype": "DT_FLOAT", "tensorShape": {"dim": [{"size": "1"}, {"size": "1"}, {"size": "512"}, {"size": "512"}]}}}}}, {"name": "FeatureExtractor/MobilenetV1/MobilenetV1/Conv2d_9_pointwise/BatchNorm/batchnorm_1/sub", "op": "Const", "input": ["^FeatureExtractor/LogicalAnd"], "attr": {"value": {"tensor": {"dtype": "DT_FLOAT", "tensorShape": {"dim": [{"size": "512"}]}}}, "dtype": {"type": "DT_FLOAT"}}}, {"name": "FeatureExtractor/MobilenetV1/MobilenetV1/Conv2d_10_depthwise/BatchNorm/batchnorm_1/sub", "op": "Const", "input": ["^FeatureExtractor/LogicalAnd"], "attr": {"value": {"tensor": {"dtype": "DT_FLOAT", "tensorShape": {"dim": [{"size": "512"}]}}}, "dtype": {"type": "DT_FLOAT"}}}, {"name": "FeatureExtractor/MobilenetV1/MobilenetV1/Conv2d_10_pointwise/Conv2D/merged_input", "op": "Const", "input": ["^FeatureExtractor/LogicalAnd"], "attr": {"value": {"tensor": {"dtype": "DT_FLOAT", "tensorShape": {"dim": [{"size": "1"}, {"size": "1"}, {"size": "512"}, {"size": "512"}]}}}, "dtype": {"type": "DT_FLOAT"}}}, {"name": "FeatureExtractor/MobilenetV1/MobilenetV1/Conv2d_10_pointwise/BatchNorm/batchnorm_1/sub", "op": "Const", "input": ["^FeatureExtractor/LogicalAnd"], "attr": {"dtype": {"type": "DT_FLOAT"}, "value": {"tensor": {"dtype": "DT_FLOAT", "tensorShape": {"dim": [{"size": "512"}]}}}}}, {"name": "FeatureExtractor/MobilenetV1/MobilenetV1/Conv2d_11_depthwise/BatchNorm/batchnorm_1/sub", "op": "Const", "input": ["^FeatureExtractor/LogicalAnd"], "attr": {"value": {"tensor": {"dtype": "DT_FLOAT", "tensorShape": {"dim": [{"size": "512"}]}}}, "dtype": {"type": "DT_FLOAT"}}}, {"name": "FeatureExtractor/MobilenetV1/MobilenetV1/Conv2d_11_pointwise/Conv2D/merged_input", "op": "Const", "input": ["^FeatureExtractor/LogicalAnd"], "attr": {"value": {"tensor": {"dtype": "DT_FLOAT", "tensorShape": {"dim": [{"size": "1"}, {"size": "1"}, {"size": "512"}, {"size": "512"}]}}}, "dtype": {"type": "DT_FLOAT"}}}, {"name": "FeatureExtractor/MobilenetV1/MobilenetV1/Conv2d_11_pointwise/BatchNorm/batchnorm_1/sub", "op": "Const", "input": ["^FeatureExtractor/LogicalAnd"], "attr": {"value": {"tensor": {"dtype": "DT_FLOAT", "tensorShape": {"dim": [{"size": "512"}]}}}, "dtype": {"type": "DT_FLOAT"}}}, {"name": "FeatureExtractor/MobilenetV1/MobilenetV1/Conv2d_12_depthwise/BatchNorm/batchnorm_1/sub", "op": "Const", "input": ["^FeatureExtractor/LogicalAnd"], "attr": {"value": {"tensor": {"dtype": "DT_FLOAT", "tensorShape": {"dim": [{"size": "512"}]}}}, "dtype": {"type": "DT_FLOAT"}}}, {"name": "FeatureExtractor/MobilenetV1/MobilenetV1/Conv2d_12_pointwise/Conv2D/merged_input", "op": "Const", "input": ["^FeatureExtractor/LogicalAnd"], "attr": {"value": {"tensor": {"dtype": "DT_FLOAT", "tensorShape": {"dim": [{"size": "1"}, {"size": "1"}, {"size": "512"}, {"size": "1024"}]}}}, "dtype": {"type": "DT_FLOAT"}}}, {"name": "FeatureExtractor/MobilenetV1/MobilenetV1/Conv2d_12_pointwise/BatchNorm/batchnorm_1/sub", "op": "Const", "input": ["^FeatureExtractor/LogicalAnd"], "attr": {"value": {"tensor": {"dtype": "DT_FLOAT", "tensorShape": {"dim": [{"size": "1024"}]}}}, "dtype": {"type": "DT_FLOAT"}}}, {"name": "FeatureExtractor/MobilenetV1/MobilenetV1/Conv2d_13_depthwise/BatchNorm/batchnorm_1/sub", "op": "Const", "input": ["^FeatureExtractor/LogicalAnd"], "attr": {"value": {"tensor": {"dtype": "DT_FLOAT", "tensorShape": {"dim": [{"size": "1024"}]}}}, "dtype": {"type": "DT_FLOAT"}}}, {"name": "FeatureExtractor/MobilenetV1/MobilenetV1/Conv2d_13_pointwise/Conv2D/merged_input", "op": "Const", "input": ["^FeatureExtractor/LogicalAnd"], "attr": {"dtype": {"type": "DT_FLOAT"}, "value": {"tensor": {"dtype": "DT_FLOAT", "tensorShape": {"dim": [{"size": "1"}, {"size": "1"}, {"size": "1024"}, {"size": "1024"}]}}}}}, {"name": "FeatureExtractor/MobilenetV1/MobilenetV1/Conv2d_13_pointwise/BatchNorm/batchnorm_1/sub", "op": "Const", "input": ["^FeatureExtractor/LogicalAnd"], "attr": {"value": {"tensor": {"dtype": "DT_FLOAT", "tensorShape": {"dim": [{"size": "1024"}]}}}, "dtype": {"type": "DT_FLOAT"}}}, {"name": "FeatureExtractor/MobilenetV1/Conv2d_13_pointwise_1_Conv2d_2_1x1_256/Conv2D/merged_input", "op": "Const", "input": ["^FeatureExtractor/LogicalAnd"], "attr": {"dtype": {"type": "DT_FLOAT"}, "value": {"tensor": {"dtype": "DT_FLOAT", "tensorShape": {"dim": [{"size": "1"}, {"size": "1"}, {"size": "1024"}, {"size": "256"}]}}}}}, {"name": "FeatureExtractor/MobilenetV1/Conv2d_13_pointwise_1_Conv2d_2_1x1_256/BatchNorm/batchnorm_1/sub", "op": "Const", "input": ["^FeatureExtractor/LogicalAnd"], "attr": {"value": {"tensor": {"dtype": "DT_FLOAT", "tensorShape": {"dim": [{"size": "256"}]}}}, "dtype": {"type": "DT_FLOAT"}}}, {"name": "FeatureExtractor/MobilenetV1/Conv2d_13_pointwise_2_Conv2d_2_3x3_s2_512/Conv2D/merged_input", "op": "Const", "input": ["^FeatureExtractor/LogicalAnd"], "attr": {"value": {"tensor": {"dtype": "DT_FLOAT", "tensorShape": {"dim": [{"size": "3"}, {"size": "3"}, {"size": "256"}, {"size": "512"}]}}}, "dtype": {"type": "DT_FLOAT"}}}, {"name": "FeatureExtractor/MobilenetV1/Conv2d_13_pointwise_2_Conv2d_2_3x3_s2_512/BatchNorm/batchnorm_1/sub", "op": "Const", "input": ["^FeatureExtractor/LogicalAnd"], "attr": {"value": {"tensor": {"dtype": "DT_FLOAT", "tensorShape": {"dim": [{"size": "512"}]}}}, "dtype": {"type": "DT_FLOAT"}}}, {"name": "FeatureExtractor/MobilenetV1/Conv2d_13_pointwise_1_Conv2d_3_1x1_128/Conv2D/merged_input", "op": "Const", "input": ["^FeatureExtractor/LogicalAnd"], "attr": {"value": {"tensor": {"dtype": "DT_FLOAT", "tensorShape": {"dim": [{"size": "1"}, {"size": "1"}, {"size": "512"}, {"size": "128"}]}}}, "dtype": {"type": "DT_FLOAT"}}}, {"name": "FeatureExtractor/MobilenetV1/Conv2d_13_pointwise_1_Conv2d_3_1x1_128/BatchNorm/batchnorm_1/sub", "op": "Const", "input": ["^FeatureExtractor/LogicalAnd"], "attr": {"value": {"tensor": {"dtype": "DT_FLOAT", "tensorShape": {"dim": [{"size": "128"}]}}}, "dtype": {"type": "DT_FLOAT"}}}, {"name": "FeatureExtractor/MobilenetV1/Conv2d_13_pointwise_2_Conv2d_3_3x3_s2_256/Conv2D/merged_input", "op": "Const", "input": ["^FeatureExtractor/LogicalAnd"], "attr": {"value": {"tensor": {"dtype": "DT_FLOAT", "tensorShape": {"dim": [{"size": "3"}, {"size": "3"}, {"size": "128"}, {"size": "256"}]}}}, "dtype": {"type": "DT_FLOAT"}}}, {"name": "FeatureExtractor/MobilenetV1/Conv2d_13_pointwise_2_Conv2d_3_3x3_s2_256/BatchNorm/batchnorm_1/sub", "op": "Const", "input": ["^FeatureExtractor/LogicalAnd"], "attr": {"value": {"tensor": {"dtype": "DT_FLOAT", "tensorShape": {"dim": [{"size": "256"}]}}}, "dtype": {"type": "DT_FLOAT"}}}, {"name": "FeatureExtractor/MobilenetV1/Conv2d_13_pointwise_1_Conv2d_4_1x1_128/Conv2D/merged_input", "op": "Const", "input": ["^FeatureExtractor/LogicalAnd"], "attr": {"value": {"tensor": {"dtype": "DT_FLOAT", "tensorShape": {"dim": [{"size": "1"}, {"size": "1"}, {"size": "256"}, {"size": "128"}]}}}, "dtype": {"type": "DT_FLOAT"}}}, {"name": "FeatureExtractor/MobilenetV1/Conv2d_13_pointwise_1_Conv2d_4_1x1_128/BatchNorm/batchnorm_1/sub", "op": "Const", "input": ["^FeatureExtractor/LogicalAnd"], "attr": {"value": {"tensor": {"dtype": "DT_FLOAT", "tensorShape": {"dim": [{"size": "128"}]}}}, "dtype": {"type": "DT_FLOAT"}}}, {"name": "FeatureExtractor/MobilenetV1/Conv2d_13_pointwise_2_Conv2d_4_3x3_s2_256/Conv2D/merged_input", "op": "Const", "input": ["^FeatureExtractor/LogicalAnd"], "attr": {"value": {"tensor": {"dtype": "DT_FLOAT", "tensorShape": {"dim": [{"size": "3"}, {"size": "3"}, {"size": "128"}, {"size": "256"}]}}}, "dtype": {"type": "DT_FLOAT"}}}, {"name": "FeatureExtractor/MobilenetV1/Conv2d_13_pointwise_2_Conv2d_4_3x3_s2_256/BatchNorm/batchnorm_1/sub", "op": "Const", "input": ["^FeatureExtractor/LogicalAnd"], "attr": {"value": {"tensor": {"dtype": "DT_FLOAT", "tensorShape": {"dim": [{"size": "256"}]}}}, "dtype": {"type": "DT_FLOAT"}}}, {"name": "FeatureExtractor/MobilenetV1/Conv2d_13_pointwise_1_Conv2d_5_1x1_64/Conv2D/merged_input", "op": "Const", "input": ["^FeatureExtractor/LogicalAnd"], "attr": {"value": {"tensor": {"dtype": "DT_FLOAT", "tensorShape": {"dim": [{"size": "1"}, {"size": "1"}, {"size": "256"}, {"size": "64"}]}}}, "dtype": {"type": "DT_FLOAT"}}}, {"name": "FeatureExtractor/MobilenetV1/Conv2d_13_pointwise_1_Conv2d_5_1x1_64/BatchNorm/batchnorm_1/sub", "op": "Const", "input": ["^FeatureExtractor/LogicalAnd"], "attr": {"value": {"tensor": {"dtype": "DT_FLOAT", "tensorShape": {"dim": [{"size": "64"}]}}}, "dtype": {"type": "DT_FLOAT"}}}, {"name": "FeatureExtractor/MobilenetV1/Conv2d_13_pointwise_2_Conv2d_5_3x3_s2_128/Conv2D/merged_input", "op": "Const", "input": ["^FeatureExtractor/LogicalAnd"], "attr": {"dtype": {"type": "DT_FLOAT"}, "value": {"tensor": {"dtype": "DT_FLOAT", "tensorShape": {"dim": [{"size": "3"}, {"size": "3"}, {"size": "64"}, {"size": "128"}]}}}}}, {"name": "FeatureExtractor/MobilenetV1/Conv2d_13_pointwise_2_Conv2d_5_3x3_s2_128/BatchNorm/batchnorm_1/sub", "op": "Const", "input": ["^FeatureExtractor/LogicalAnd"], "attr": {"value": {"tensor": {"dtype": "DT_FLOAT", "tensorShape": {"dim": [{"size": "128"}]}}}, "dtype": {"type": "DT_FLOAT"}}}, {"name": "MultipleGridAnchorGenerator/truediv_12", "op": "RealDiv", "input": ["MultipleGridAnchorGenerator/Minimum", "MultipleGridAnchorGenerator/ToFloat"], "attr": {"T": {"type": "DT_FLOAT"}}}, {"name": "MultipleGridAnchorGenerator/truediv_13", "op": "RealDiv", "input": ["MultipleGridAnchorGenerator/Minimum", "MultipleGridAnchorGenerator/ToFloat_1"], "attr": {"T": {"type": "DT_FLOAT"}}}, {"name": "FeatureExtractor/MobilenetV1/MobilenetV1/Conv2d_0/BatchNorm/batchnorm_1/mul_1", "op": "Conv2D", "input": ["Preprocessor/sub", "FeatureExtractor/MobilenetV1/MobilenetV1/Conv2d_0/Conv2D/merged_input"], "device": "/device:CPU:0", "attr": {"strides": {"list": {"i": ["1", "2", "2", "1"]}}, "data_format": {"s": "TkhXQw=="}, "use_cudnn_on_gpu": {"b": true}, "explicit_paddings": {"list": {}}, "padding": {"s": "U0FNRQ=="}, "dilations": {"list": {"i": ["1", "1", "1", "1"]}}, "T": {"type": "DT_FLOAT"}}}, {"name": "MultipleGridAnchorGenerator/mul_14", "op": "Mul", "input": ["MultipleGridAnchorGenerator/truediv_12", "MultipleGridAnchorGenerator/truediv_14"], "attr": {"T": {"type": "DT_FLOAT"}}}, {"name": "MultipleGridAnchorGenerator/mul_21", "op": "Mul", "input": ["MultipleGridAnchorGenerator/truediv_12", "MultipleGridAnchorGenerator/truediv_15"], "attr": {"T": {"type": "DT_FLOAT"}}}, {"name": "MultipleGridAnchorGenerator/mul_28", "op": "Mul", "input": ["MultipleGridAnchorGenerator/truediv_12", "MultipleGridAnchorGenerator/truediv_16"], "attr": {"T": {"type": "DT_FLOAT"}}}, {"name": "MultipleGridAnchorGenerator/mul_35", "op": "Mul", "input": ["MultipleGridAnchorGenerator/truediv_12", "MultipleGridAnchorGenerator/truediv_17"], "attr": {"T": {"type": "DT_FLOAT"}}}, {"name": "MultipleGridAnchorGenerator/mul_42", "op": "Mul", "input": ["MultipleGridAnchorGenerator/truediv_12", "MultipleGridAnchorGenerator/truediv_18"], "attr": {"T": {"type": "DT_FLOAT"}}}, {"name": "MultipleGridAnchorGenerator/mul_49", "op": "Mul", "input": ["MultipleGridAnchorGenerator/truediv_12", "MultipleGridAnchorGenerator/truediv_19"], "attr": {"T": {"type": "DT_FLOAT"}}}, {"name": "MultipleGridAnchorGenerator/mul_16", "op": "Mul", "input": ["MultipleGridAnchorGenerator/mul_15", "MultipleGridAnchorGenerator/truediv_13"], "attr": {"T": {"type": "DT_FLOAT"}}}, {"name": "MultipleGridAnchorGenerator/mul_23", "op": "Mul", "input": ["MultipleGridAnchorGenerator/mul_22", "MultipleGridAnchorGenerator/truediv_13"], "attr": {"T": {"type": "DT_FLOAT"}}}, {"name": "MultipleGridAnchorGenerator/mul_30", "op": "Mul", "input": ["MultipleGridAnchorGenerator/mul_29", "MultipleGridAnchorGenerator/truediv_13"], "attr": {"T": {"type": "DT_FLOAT"}}}, {"name": "MultipleGridAnchorGenerator/mul_37", "op": "Mul", "input": ["MultipleGridAnchorGenerator/mul_36", "MultipleGridAnchorGenerator/truediv_13"], "attr": {"T": {"type": "DT_FLOAT"}}}, {"name": "MultipleGridAnchorGenerator/mul_44", "op": "Mul", "input": ["MultipleGridAnchorGenerator/mul_43", "MultipleGridAnchorGenerator/truediv_13"], "attr": {"T": {"type": "DT_FLOAT"}}}, {"name": "MultipleGridAnchorGenerator/mul_51", "op": "Mul", "input": ["MultipleGridAnchorGenerator/mul_50", "MultipleGridAnchorGenerator/truediv_13"], "attr": {"T": {"type": "DT_FLOAT"}}}, {"name": "FeatureExtractor/MobilenetV1/MobilenetV1/Conv2d_0/BatchNorm/batchnorm_1/add_1", "op": "AddV2", "input": ["FeatureExtractor/MobilenetV1/MobilenetV1/Conv2d_0/BatchNorm/batchnorm_1/mul_1", "FeatureExtractor/MobilenetV1/MobilenetV1/Conv2d_0/BatchNorm/batchnorm_1/sub"], "attr": {"T": {"type": "DT_FLOAT"}}}, {"name": "MultipleGridAnchorGenerator/Meshgrid_2/Reshape", "op": "Reshape", "input": ["MultipleGridAnchorGenerator/mul_14", "MultipleGridAnchorGenerator/Meshgrid_2/ExpandedShape/concat"], "attr": {"T": {"type": "DT_FLOAT"}, "Tshape": {"type": "DT_INT32"}}}, {"name": "MultipleGridAnchorGenerator/Meshgrid_5/Reshape", "op": "Reshape", "input": ["MultipleGridAnchorGenerator/mul_21", "MultipleGridAnchorGenerator/Meshgrid_5/ExpandedShape/concat"], "attr": {"T": {"type": "DT_FLOAT"}, "Tshape": {"type": "DT_INT32"}}}, {"name": "MultipleGridAnchorGenerator/Meshgrid_8/Reshape", "op": "Reshape", "input": ["MultipleGridAnchorGenerator/mul_28", "MultipleGridAnchorGenerator/Meshgrid_5/ExpandedShape/concat"], "attr": {"T": {"type": "DT_FLOAT"}, "Tshape": {"type": "DT_INT32"}}}, {"name": "MultipleGridAnchorGenerator/Meshgrid_11/Reshape", "op": "Reshape", "input": ["MultipleGridAnchorGenerator/mul_35", "MultipleGridAnchorGenerator/Meshgrid_5/ExpandedShape/concat"], "attr": {"T": {"type": "DT_FLOAT"}, "Tshape": {"type": "DT_INT32"}}}, {"name": "MultipleGridAnchorGenerator/Meshgrid_14/Reshape", "op": "Reshape", "input": ["MultipleGridAnchorGenerator/mul_42", "MultipleGridAnchorGenerator/Meshgrid_5/ExpandedShape/concat"], "attr": {"T": {"type": "DT_FLOAT"}, "Tshape": {"type": "DT_INT32"}}}, {"name": "MultipleGridAnchorGenerator/Meshgrid_17/Reshape", "op": "Reshape", "input": ["MultipleGridAnchorGenerator/mul_49", "MultipleGridAnchorGenerator/Meshgrid_5/ExpandedShape/concat"], "attr": {"T": {"type": "DT_FLOAT"}, "Tshape": {"type": "DT_INT32"}}}, {"name": "MultipleGridAnchorGenerator/Meshgrid_1/Reshape", "op": "Reshape", "input": ["MultipleGridAnchorGenerator/mul_16", "MultipleGridAnchorGenerator/Meshgrid_2/ExpandedShape/concat"], "attr": {"T": {"type": "DT_FLOAT"}, "Tshape": {"type": "DT_INT32"}}}, {"name": "MultipleGridAnchorGenerator/Meshgrid_4/Reshape", "op": "Reshape", "input": ["MultipleGridAnchorGenerator/mul_23", "MultipleGridAnchorGenerator/Meshgrid_5/ExpandedShape/concat"], "attr": {"T": {"type": "DT_FLOAT"}, "Tshape": {"type": "DT_INT32"}}}, {"name": "MultipleGridAnchorGenerator/Meshgrid_7/Reshape", "op": "Reshape", "input": ["MultipleGridAnchorGenerator/mul_30", "MultipleGridAnchorGenerator/Meshgrid_5/ExpandedShape/concat"], "attr": {"T": {"type": "DT_FLOAT"}, "Tshape": {"type": "DT_INT32"}}}, {"name": "MultipleGridAnchorGenerator/Meshgrid_10/Reshape", "op": "Reshape", "input": ["MultipleGridAnchorGenerator/mul_37", "MultipleGridAnchorGenerator/Meshgrid_5/ExpandedShape/concat"], "attr": {"T": {"type": "DT_FLOAT"}, "Tshape": {"type": "DT_INT32"}}}, {"name": "MultipleGridAnchorGenerator/Meshgrid_13/Reshape", "op": "Reshape", "input": ["MultipleGridAnchorGenerator/mul_44", "MultipleGridAnchorGenerator/Meshgrid_5/ExpandedShape/concat"], "attr": {"T": {"type": "DT_FLOAT"}, "Tshape": {"type": "DT_INT32"}}}, {"name": "MultipleGridAnchorGenerator/Meshgrid_16/Reshape", "op": "Reshape", "input": ["MultipleGridAnchorGenerator/mul_51", "MultipleGridAnchorGenerator/Meshgrid_5/ExpandedShape/concat"], "attr": {"T": {"type": "DT_FLOAT"}, "Tshape": {"type": "DT_INT32"}}}, {"name": "FeatureExtractor/MobilenetV1/MobilenetV1/Conv2d_0/Relu6", "op": "Relu6", "input": ["FeatureExtractor/MobilenetV1/MobilenetV1/Conv2d_0/BatchNorm/batchnorm_1/add_1"], "attr": {"T": {"type": "DT_FLOAT"}}}, {"name": "MultipleGridAnchorGenerator/Meshgrid_2/Tile", "op": "Tile", "input": ["MultipleGridAnchorGenerator/Meshgrid_2/Reshape", "MultipleGridAnchorGenerator/Meshgrid_2/ExpandedShape_1/concat"], "attr": {"Tmultiples": {"type": "DT_INT32"}, "T": {"type": "DT_FLOAT"}}}, {"name": "MultipleGridAnchorGenerator/Meshgrid_5/Tile", "op": "Tile", "input": ["MultipleGridAnchorGenerator/Meshgrid_5/Reshape", "MultipleGridAnchorGenerator/Meshgrid_5/ExpandedShape_1/concat"], "attr": {"Tmultiples": {"type": "DT_INT32"}, "T": {"type": "DT_FLOAT"}}}, {"name": "MultipleGridAnchorGenerator/Meshgrid_8/Tile", "op": "Tile", "input": ["MultipleGridAnchorGenerator/Meshgrid_8/Reshape", "MultipleGridAnchorGenerator/Meshgrid_8/ExpandedShape_1/concat"], "attr": {"Tmultiples": {"type": "DT_INT32"}, "T": {"type": "DT_FLOAT"}}}, {"name": "MultipleGridAnchorGenerator/Meshgrid_11/Tile", "op": "Tile", "input": ["MultipleGridAnchorGenerator/Meshgrid_11/Reshape", "MultipleGridAnchorGenerator/Meshgrid_11/ExpandedShape_1/concat"], "attr": {"Tmultiples": {"type": "DT_INT32"}, "T": {"type": "DT_FLOAT"}}}, {"name": "MultipleGridAnchorGenerator/Meshgrid_14/Tile", "op": "Tile", "input": ["MultipleGridAnchorGenerator/Meshgrid_14/Reshape", "MultipleGridAnchorGenerator/Meshgrid_14/ExpandedShape_1/concat"], "attr": {"T": {"type": "DT_FLOAT"}, "Tmultiples": {"type": "DT_INT32"}}}, {"name": "MultipleGridAnchorGenerator/Meshgrid_1/Tile", "op": "Tile", "input": ["MultipleGridAnchorGenerator/Meshgrid_1/Reshape", "MultipleGridAnchorGenerator/Meshgrid_2/ExpandedShape_1/concat"], "attr": {"Tmultiples": {"type": "DT_INT32"}, "T": {"type": "DT_FLOAT"}}}, {"name": "MultipleGridAnchorGenerator/Meshgrid_4/Tile", "op": "Tile", "input": ["MultipleGridAnchorGenerator/Meshgrid_4/Reshape", "MultipleGridAnchorGenerator/Meshgrid_5/ExpandedShape_1/concat"], "attr": {"Tmultiples": {"type": "DT_INT32"}, "T": {"type": "DT_FLOAT"}}}, {"name": "MultipleGridAnchorGenerator/Meshgrid_7/Tile", "op": "Tile", "input": ["MultipleGridAnchorGenerator/Meshgrid_7/Reshape", "MultipleGridAnchorGenerator/Meshgrid_8/ExpandedShape_1/concat"], "attr": {"Tmultiples": {"type": "DT_INT32"}, "T": {"type": "DT_FLOAT"}}}, {"name": "MultipleGridAnchorGenerator/Meshgrid_10/Tile", "op": "Tile", "input": ["MultipleGridAnchorGenerator/Meshgrid_10/Reshape", "MultipleGridAnchorGenerator/Meshgrid_11/ExpandedShape_1/concat"], "attr": {"Tmultiples": {"type": "DT_INT32"}, "T": {"type": "DT_FLOAT"}}}, {"name": "MultipleGridAnchorGenerator/Meshgrid_13/Tile", "op": "Tile", "input": ["MultipleGridAnchorGenerator/Meshgrid_13/Reshape", "MultipleGridAnchorGenerator/Meshgrid_14/ExpandedShape_1/concat"], "attr": {"Tmultiples": {"type": "DT_INT32"}, "T": {"type": "DT_FLOAT"}}}, {"name": "MultipleGridAnchorGenerator/stack_11", "op": "Pack", "input": ["MultipleGridAnchorGenerator/Meshgrid_17/Reshape", "MultipleGridAnchorGenerator/Meshgrid_16/Reshape"], "attr": {"T": {"type": "DT_FLOAT"}, "axis": {"i": "3"}, "N": {"i": "2"}}}, {"name": "FeatureExtractor/MobilenetV1/MobilenetV1/Conv2d_1_depthwise/depthwise", "op": "DepthwiseConv2dNative", "input": ["FeatureExtractor/MobilenetV1/MobilenetV1/Conv2d_0/Relu6", "FeatureExtractor/MobilenetV1/Conv2d_1_depthwise/depthwise_weights"], "attr": {"padding": {"s": "U0FNRQ=="}, "dilations": {"list": {"i": ["1", "1", "1", "1"]}}, "T": {"type": "DT_FLOAT"}, "data_format": {"s": "TkhXQw=="}, "strides": {"list": {"i": ["1", "1", "1", "1"]}}}}, {"name": "MultipleGridAnchorGenerator/stack_1", "op": "Pack", "input": ["MultipleGridAnchorGenerator/Meshgrid_2/Tile", "MultipleGridAnchorGenerator/Meshgrid_1/Tile"], "attr": {"T": {"type": "DT_FLOAT"}, "axis": {"i": "3"}, "N": {"i": "2"}}}, {"name": "MultipleGridAnchorGenerator/stack_3", "op": "Pack", "input": ["MultipleGridAnchorGenerator/Meshgrid_5/Tile", "MultipleGridAnchorGenerator/Meshgrid_4/Tile"], "attr": {"T": {"type": "DT_FLOAT"}, "axis": {"i": "3"}, "N": {"i": "2"}}}, {"name": "MultipleGridAnchorGenerator/stack_5", "op": "Pack", "input": ["MultipleGridAnchorGenerator/Meshgrid_8/Tile", "MultipleGridAnchorGenerator/Meshgrid_7/Tile"], "attr": {"T": {"type": "DT_FLOAT"}, "axis": {"i": "3"}, "N": {"i": "2"}}}, {"name": "MultipleGridAnchorGenerator/stack_7", "op": "Pack", "input": ["MultipleGridAnchorGenerator/Meshgrid_11/Tile", "MultipleGridAnchorGenerator/Meshgrid_10/Tile"], "attr": {"N": {"i": "2"}, "T": {"type": "DT_FLOAT"}, "axis": {"i": "3"}}}, {"name": "MultipleGridAnchorGenerator/stack_9", "op": "Pack", "input": ["MultipleGridAnchorGenerator/Meshgrid_14/Tile", "MultipleGridAnchorGenerator/Meshgrid_13/Tile"], "attr": {"T": {"type": "DT_FLOAT"}, "axis": {"i": "3"}, "N": {"i": "2"}}}, {"name": "MultipleGridAnchorGenerator/Reshape_11", "op": "Reshape", "input": ["MultipleGridAnchorGenerator/stack_11", "MultipleGridAnchorGenerator/Reshape_1/shape"], "attr": {"T": {"type": "DT_FLOAT"}, "Tshape": {"type": "DT_INT32"}}}, {"name": "FeatureExtractor/MobilenetV1/MobilenetV1/Conv2d_1_depthwise/BatchNorm/batchnorm_1/mul_1", "op": "Mul", "input": ["FeatureExtractor/MobilenetV1/MobilenetV1/Conv2d_1_depthwise/BatchNorm/batchnorm_1/mul", "FeatureExtractor/MobilenetV1/MobilenetV1/Conv2d_1_depthwise/depthwise"], "attr": {"T": {"type": "DT_FLOAT"}}}, {"name": "MultipleGridAnchorGenerator/Reshape_1", "op": "Reshape", "input": ["MultipleGridAnchorGenerator/stack_1", "MultipleGridAnchorGenerator/Reshape_1/shape"], "attr": {"T": {"type": "DT_FLOAT"}, "Tshape": {"type": "DT_INT32"}}}, {"name": "MultipleGridAnchorGenerator/Reshape_3", "op": "Reshape", "input": ["MultipleGridAnchorGenerator/stack_3", "MultipleGridAnchorGenerator/Reshape_1/shape"], "attr": {"T": {"type": "DT_FLOAT"}, "Tshape": {"type": "DT_INT32"}}}, {"name": "MultipleGridAnchorGenerator/Reshape_5", "op": "Reshape", "input": ["MultipleGridAnchorGenerator/stack_5", "MultipleGridAnchorGenerator/Reshape_1/shape"], "attr": {"T": {"type": "DT_FLOAT"}, "Tshape": {"type": "DT_INT32"}}}, {"name": "MultipleGridAnchorGenerator/Reshape_7", "op": "Reshape", "input": ["MultipleGridAnchorGenerator/stack_7", "MultipleGridAnchorGenerator/Reshape_1/shape"], "attr": {"T": {"type": "DT_FLOAT"}, "Tshape": {"type": "DT_INT32"}}}, {"name": "MultipleGridAnchorGenerator/Reshape_9", "op": "Reshape", "input": ["MultipleGridAnchorGenerator/stack_9", "MultipleGridAnchorGenerator/Reshape_1/shape"], "attr": {"T": {"type": "DT_FLOAT"}, "Tshape": {"type": "DT_INT32"}}}, {"name": "MultipleGridAnchorGenerator/mul_54", "op": "Mul", "input": ["MultipleGridAnchorGenerator/Reshape_11", "MultipleGridAnchorGenerator/mul_19/x"], "attr": {"T": {"type": "DT_FLOAT"}}}, {"name": "FeatureExtractor/MobilenetV1/MobilenetV1/Conv2d_1_depthwise/BatchNorm/batchnorm_1/add_1", "op": "AddV2", "input": ["FeatureExtractor/MobilenetV1/MobilenetV1/Conv2d_1_depthwise/BatchNorm/batchnorm_1/mul_1", "FeatureExtractor/MobilenetV1/MobilenetV1/Conv2d_1_depthwise/BatchNorm/batchnorm_1/sub"], "attr": {"T": {"type": "DT_FLOAT"}}}, {"name": "MultipleGridAnchorGenerator/mul_19", "op": "Mul", "input": ["MultipleGridAnchorGenerator/Reshape_1", "MultipleGridAnchorGenerator/mul_19/x"], "attr": {"T": {"type": "DT_FLOAT"}}}, {"name": "MultipleGridAnchorGenerator/mul_26", "op": "Mul", "input": ["MultipleGridAnchorGenerator/Reshape_3", "MultipleGridAnchorGenerator/mul_19/x"], "attr": {"T": {"type": "DT_FLOAT"}}}, {"name": "MultipleGridAnchorGenerator/mul_33", "op": "Mul", "input": ["MultipleGridAnchorGenerator/Reshape_5", "MultipleGridAnchorGenerator/mul_19/x"], "attr": {"T": {"type": "DT_FLOAT"}}}, {"name": "MultipleGridAnchorGenerator/mul_40", "op": "Mul", "input": ["MultipleGridAnchorGenerator/Reshape_7", "MultipleGridAnchorGenerator/mul_19/x"], "attr": {"T": {"type": "DT_FLOAT"}}}, {"name": "MultipleGridAnchorGenerator/mul_47", "op": "Mul", "input": ["MultipleGridAnchorGenerator/Reshape_9", "MultipleGridAnchorGenerator/mul_19/x"], "attr": {"T": {"type": "DT_FLOAT"}}}, {"name": "MultipleGridAnchorGenerator/sub_5", "op": "Sub", "input": ["MultipleGridAnchorGenerator/Reshape_10", "MultipleGridAnchorGenerator/mul_54"], "attr": {"T": {"type": "DT_FLOAT"}}}, {"name": "MultipleGridAnchorGenerator/add_17", "op": "AddV2", "input": ["MultipleGridAnchorGenerator/Reshape_10", "MultipleGridAnchorGenerator/mul_54"], "attr": {"T": {"type": "DT_FLOAT"}}}, {"name": "FeatureExtractor/MobilenetV1/MobilenetV1/Conv2d_1_depthwise/Relu6", "op": "Relu6", "input": ["FeatureExtractor/MobilenetV1/MobilenetV1/Conv2d_1_depthwise/BatchNorm/batchnorm_1/add_1"], "attr": {"T": {"type": "DT_FLOAT"}}}, {"name": "MultipleGridAnchorGenerator/sub", "op": "Sub", "input": ["MultipleGridAnchorGenerator/Reshape", "MultipleGridAnchorGenerator/mul_19"], "attr": {"T": {"type": "DT_FLOAT"}}}, {"name": "MultipleGridAnchorGenerator/add_2", "op": "AddV2", "input": ["MultipleGridAnchorGenerator/Reshape", "MultipleGridAnchorGenerator/mul_19"], "attr": {"T": {"type": "DT_FLOAT"}}}, {"name": "MultipleGridAnchorGenerator/sub_1", "op": "Sub", "input": ["MultipleGridAnchorGenerator/Reshape_2", "MultipleGridAnchorGenerator/mul_26"], "attr": {"T": {"type": "DT_FLOAT"}}}, {"name": "MultipleGridAnchorGenerator/add_5", "op": "AddV2", "input": ["MultipleGridAnchorGenerator/Reshape_2", "MultipleGridAnchorGenerator/mul_26"], "attr": {"T": {"type": "DT_FLOAT"}}}, {"name": "MultipleGridAnchorGenerator/sub_2", "op": "Sub", "input": ["MultipleGridAnchorGenerator/Reshape_4", "MultipleGridAnchorGenerator/mul_33"], "attr": {"T": {"type": "DT_FLOAT"}}}, {"name": "MultipleGridAnchorGenerator/add_8", "op": "AddV2", "input": ["MultipleGridAnchorGenerator/Reshape_4", "MultipleGridAnchorGenerator/mul_33"], "attr": {"T": {"type": "DT_FLOAT"}}}, {"name": "MultipleGridAnchorGenerator/sub_3", "op": "Sub", "input": ["MultipleGridAnchorGenerator/Reshape_6", "MultipleGridAnchorGenerator/mul_40"], "attr": {"T": {"type": "DT_FLOAT"}}}, {"name": "MultipleGridAnchorGenerator/add_11", "op": "AddV2", "input": ["MultipleGridAnchorGenerator/Reshape_6", "MultipleGridAnchorGenerator/mul_40"], "attr": {"T": {"type": "DT_FLOAT"}}}, {"name": "MultipleGridAnchorGenerator/sub_4", "op": "Sub", "input": ["MultipleGridAnchorGenerator/Reshape_8", "MultipleGridAnchorGenerator/mul_47"], "attr": {"T": {"type": "DT_FLOAT"}}}, {"name": "MultipleGridAnchorGenerator/add_14", "op": "AddV2", "input": ["MultipleGridAnchorGenerator/Reshape_8", "MultipleGridAnchorGenerator/mul_47"], "attr": {"T": {"type": "DT_FLOAT"}}}, {"name": "MultipleGridAnchorGenerator/concat_5", "op": "ConcatV2", "input": ["MultipleGridAnchorGenerator/sub_5", "MultipleGridAnchorGenerator/add_17", "Postprocessor/BatchMultiClassNonMaxSuppression/map/TensorArrayStack/range/delta"], "attr": {"N": {"i": "2"}, "Tidx": {"type": "DT_INT32"}, "T": {"type": "DT_FLOAT"}}}, {"name": "FeatureExtractor/MobilenetV1/MobilenetV1/Conv2d_1_pointwise/BatchNorm/batchnorm_1/mul_1", "op": "Conv2D", "input": ["FeatureExtractor/MobilenetV1/MobilenetV1/Conv2d_1_depthwise/Relu6", "FeatureExtractor/MobilenetV1/MobilenetV1/Conv2d_1_pointwise/Conv2D/merged_input"], "device": "/device:CPU:0", "attr": {"padding": {"s": "U0FNRQ=="}, "dilations": {"list": {"i": ["1", "1", "1", "1"]}}, "T": {"type": "DT_FLOAT"}, "data_format": {"s": "TkhXQw=="}, "strides": {"list": {"i": ["1", "1", "1", "1"]}}, "use_cudnn_on_gpu": {"b": true}, "explicit_paddings": {"list": {}}}}, {"name": "MultipleGridAnchorGenerator/concat", "op": "ConcatV2", "input": ["MultipleGridAnchorGenerator/sub", "MultipleGridAnchorGenerator/add_2", "Postprocessor/BatchMultiClassNonMaxSuppression/map/TensorArrayStack/range/delta"], "attr": {"Tidx": {"type": "DT_INT32"}, "T": {"type": "DT_FLOAT"}, "N": {"i": "2"}}}, {"name": "MultipleGridAnchorGenerator/concat_1", "op": "ConcatV2", "input": ["MultipleGridAnchorGenerator/sub_1", "MultipleGridAnchorGenerator/add_5", "Postprocessor/BatchMultiClassNonMaxSuppression/map/TensorArrayStack/range/delta"], "attr": {"T": {"type": "DT_FLOAT"}, "N": {"i": "2"}, "Tidx": {"type": "DT_INT32"}}}, {"name": "MultipleGridAnchorGenerator/concat_2", "op": "ConcatV2", "input": ["MultipleGridAnchorGenerator/sub_2", "MultipleGridAnchorGenerator/add_8", "Postprocessor/BatchMultiClassNonMaxSuppression/map/TensorArrayStack/range/delta"], "attr": {"T": {"type": "DT_FLOAT"}, "N": {"i": "2"}, "Tidx": {"type": "DT_INT32"}}}, {"name": "MultipleGridAnchorGenerator/concat_3", "op": "ConcatV2", "input": ["MultipleGridAnchorGenerator/sub_3", "MultipleGridAnchorGenerator/add_11", "Postprocessor/BatchMultiClassNonMaxSuppression/map/TensorArrayStack/range/delta"], "attr": {"T": {"type": "DT_FLOAT"}, "N": {"i": "2"}, "Tidx": {"type": "DT_INT32"}}}, {"name": "MultipleGridAnchorGenerator/concat_4", "op": "ConcatV2", "input": ["MultipleGridAnchorGenerator/sub_4", "MultipleGridAnchorGenerator/add_14", "Postprocessor/BatchMultiClassNonMaxSuppression/map/TensorArrayStack/range/delta"], "attr": {"Tidx": {"type": "DT_INT32"}, "T": {"type": "DT_FLOAT"}, "N": {"i": "2"}}}, {"name": "FeatureExtractor/MobilenetV1/MobilenetV1/Conv2d_1_pointwise/BatchNorm/batchnorm_1/add_1", "op": "AddV2", "input": ["FeatureExtractor/MobilenetV1/MobilenetV1/Conv2d_1_pointwise/BatchNorm/batchnorm_1/mul_1", "FeatureExtractor/MobilenetV1/MobilenetV1/Conv2d_1_pointwise/BatchNorm/batchnorm_1/sub"], "attr": {"T": {"type": "DT_FLOAT"}}}, {"name": "MultipleGridAnchorGenerator/Concatenate/concat", "op": "ConcatV2", "input": ["MultipleGridAnchorGenerator/concat", "MultipleGridAnchorGenerator/concat_1", "MultipleGridAnchorGenerator/concat_2", "MultipleGridAnchorGenerator/concat_3", "MultipleGridAnchorGenerator/concat_4", "MultipleGridAnchorGenerator/concat_5", "Postprocessor/BatchMultiClassNonMaxSuppression/map/TensorArrayStack/range/start"], "attr": {"N": {"i": "6"}, "Tidx": {"type": "DT_INT32"}, "T": {"type": "DT_FLOAT"}}}, {"name": "FeatureExtractor/MobilenetV1/MobilenetV1/Conv2d_1_pointwise/Relu6", "op": "Relu6", "input": ["FeatureExtractor/MobilenetV1/MobilenetV1/Conv2d_1_pointwise/BatchNorm/batchnorm_1/add_1"], "attr": {"T": {"type": "DT_FLOAT"}}}, {"name": "Postprocessor/ExpandDims", "op": "ExpandDims", "input": ["MultipleGridAnchorGenerator/Concatenate/concat", "Postprocessor/BatchMultiClassNonMaxSuppression/map/TensorArrayStack/range/start"], "attr": {"Tdim": {"type": "DT_INT32"}, "T": {"type": "DT_FLOAT"}}}, {"name": "FeatureExtractor/MobilenetV1/MobilenetV1/Conv2d_2_depthwise/depthwise", "op": "DepthwiseConv2dNative", "input": ["FeatureExtractor/MobilenetV1/MobilenetV1/Conv2d_1_pointwise/Relu6", "FeatureExtractor/MobilenetV1/Conv2d_2_depthwise/depthwise_weights"], "attr": {"dilations": {"list": {"i": ["1", "1", "1", "1"]}}, "padding": {"s": "U0FNRQ=="}, "T": {"type": "DT_FLOAT"}, "strides": {"list": {"i": ["1", "2", "2", "1"]}}, "data_format": {"s": "TkhXQw=="}}}, {"name": "FeatureExtractor/MobilenetV1/MobilenetV1/Conv2d_2_depthwise/BatchNorm/batchnorm_1/mul_1", "op": "Mul", "input": ["FeatureExtractor/MobilenetV1/MobilenetV1/Conv2d_2_depthwise/BatchNorm/batchnorm_1/mul", "FeatureExtractor/MobilenetV1/MobilenetV1/Conv2d_2_depthwise/depthwise"], "attr": {"T": {"type": "DT_FLOAT"}}}, {"name": "FeatureExtractor/MobilenetV1/MobilenetV1/Conv2d_2_depthwise/BatchNorm/batchnorm_1/add_1", "op": "AddV2", "input": ["FeatureExtractor/MobilenetV1/MobilenetV1/Conv2d_2_depthwise/BatchNorm/batchnorm_1/mul_1", "FeatureExtractor/MobilenetV1/MobilenetV1/Conv2d_2_depthwise/BatchNorm/batchnorm_1/sub"], "attr": {"T": {"type": "DT_FLOAT"}}}, {"name": "FeatureExtractor/MobilenetV1/MobilenetV1/Conv2d_2_depthwise/Relu6", "op": "Relu6", "input": ["FeatureExtractor/MobilenetV1/MobilenetV1/Conv2d_2_depthwise/BatchNorm/batchnorm_1/add_1"], "attr": {"T": {"type": "DT_FLOAT"}}}, {"name": "FeatureExtractor/MobilenetV1/MobilenetV1/Conv2d_2_pointwise/BatchNorm/batchnorm_1/mul_1", "op": "Conv2D", "input": ["FeatureExtractor/MobilenetV1/MobilenetV1/Conv2d_2_depthwise/Relu6", "FeatureExtractor/MobilenetV1/MobilenetV1/Conv2d_2_pointwise/Conv2D/merged_input"], "device": "/device:CPU:0", "attr": {"padding": {"s": "U0FNRQ=="}, "dilations": {"list": {"i": ["1", "1", "1", "1"]}}, "T": {"type": "DT_FLOAT"}, "data_format": {"s": "TkhXQw=="}, "strides": {"list": {"i": ["1", "1", "1", "1"]}}, "explicit_paddings": {"list": {}}, "use_cudnn_on_gpu": {"b": true}}}, {"name": "FeatureExtractor/MobilenetV1/MobilenetV1/Conv2d_2_pointwise/BatchNorm/batchnorm_1/add_1", "op": "AddV2", "input": ["FeatureExtractor/MobilenetV1/MobilenetV1/Conv2d_2_pointwise/BatchNorm/batchnorm_1/mul_1", "FeatureExtractor/MobilenetV1/MobilenetV1/Conv2d_2_pointwise/BatchNorm/batchnorm_1/sub"], "attr": {"T": {"type": "DT_FLOAT"}}}, {"name": "FeatureExtractor/MobilenetV1/MobilenetV1/Conv2d_2_pointwise/Relu6", "op": "Relu6", "input": ["FeatureExtractor/MobilenetV1/MobilenetV1/Conv2d_2_pointwise/BatchNorm/batchnorm_1/add_1"], "attr": {"T": {"type": "DT_FLOAT"}}}, {"name": "FeatureExtractor/MobilenetV1/MobilenetV1/Conv2d_3_depthwise/depthwise", "op": "DepthwiseConv2dNative", "input": ["FeatureExtractor/MobilenetV1/MobilenetV1/Conv2d_2_pointwise/Relu6", "FeatureExtractor/MobilenetV1/Conv2d_3_depthwise/depthwise_weights"], "attr": {"data_format": {"s": "TkhXQw=="}, "strides": {"list": {"i": ["1", "1", "1", "1"]}}, "padding": {"s": "U0FNRQ=="}, "dilations": {"list": {"i": ["1", "1", "1", "1"]}}, "T": {"type": "DT_FLOAT"}}}, {"name": "FeatureExtractor/MobilenetV1/MobilenetV1/Conv2d_3_depthwise/BatchNorm/batchnorm_1/mul_1", "op": "Mul", "input": ["FeatureExtractor/MobilenetV1/MobilenetV1/Conv2d_3_depthwise/BatchNorm/batchnorm_1/mul", "FeatureExtractor/MobilenetV1/MobilenetV1/Conv2d_3_depthwise/depthwise"], "attr": {"T": {"type": "DT_FLOAT"}}}, {"name": "FeatureExtractor/MobilenetV1/MobilenetV1/Conv2d_3_depthwise/BatchNorm/batchnorm_1/add_1", "op": "AddV2", "input": ["FeatureExtractor/MobilenetV1/MobilenetV1/Conv2d_3_depthwise/BatchNorm/batchnorm_1/mul_1", "FeatureExtractor/MobilenetV1/MobilenetV1/Conv2d_3_depthwise/BatchNorm/batchnorm_1/sub"], "attr": {"T": {"type": "DT_FLOAT"}}}, {"name": "FeatureExtractor/MobilenetV1/MobilenetV1/Conv2d_3_depthwise/Relu6", "op": "Relu6", "input": ["FeatureExtractor/MobilenetV1/MobilenetV1/Conv2d_3_depthwise/BatchNorm/batchnorm_1/add_1"], "attr": {"T": {"type": "DT_FLOAT"}}}, {"name": "FeatureExtractor/MobilenetV1/MobilenetV1/Conv2d_3_pointwise/BatchNorm/batchnorm_1/mul_1", "op": "Conv2D", "input": ["FeatureExtractor/MobilenetV1/MobilenetV1/Conv2d_3_depthwise/Relu6", "FeatureExtractor/MobilenetV1/MobilenetV1/Conv2d_3_pointwise/Conv2D/merged_input"], "device": "/device:CPU:0", "attr": {"dilations": {"list": {"i": ["1", "1", "1", "1"]}}, "T": {"type": "DT_FLOAT"}, "strides": {"list": {"i": ["1", "1", "1", "1"]}}, "data_format": {"s": "TkhXQw=="}, "explicit_paddings": {"list": {}}, "use_cudnn_on_gpu": {"b": true}, "padding": {"s": "U0FNRQ=="}}}, {"name": "FeatureExtractor/MobilenetV1/MobilenetV1/Conv2d_3_pointwise/BatchNorm/batchnorm_1/add_1", "op": "AddV2", "input": ["FeatureExtractor/MobilenetV1/MobilenetV1/Conv2d_3_pointwise/BatchNorm/batchnorm_1/mul_1", "FeatureExtractor/MobilenetV1/MobilenetV1/Conv2d_3_pointwise/BatchNorm/batchnorm_1/sub"], "attr": {"T": {"type": "DT_FLOAT"}}}, {"name": "FeatureExtractor/MobilenetV1/MobilenetV1/Conv2d_3_pointwise/Relu6", "op": "Relu6", "input": ["FeatureExtractor/MobilenetV1/MobilenetV1/Conv2d_3_pointwise/BatchNorm/batchnorm_1/add_1"], "attr": {"T": {"type": "DT_FLOAT"}}}, {"name": "FeatureExtractor/MobilenetV1/MobilenetV1/Conv2d_4_depthwise/depthwise", "op": "DepthwiseConv2dNative", "input": ["FeatureExtractor/MobilenetV1/MobilenetV1/Conv2d_3_pointwise/Relu6", "FeatureExtractor/MobilenetV1/Conv2d_4_depthwise/depthwise_weights"], "attr": {"padding": {"s": "U0FNRQ=="}, "dilations": {"list": {"i": ["1", "1", "1", "1"]}}, "T": {"type": "DT_FLOAT"}, "data_format": {"s": "TkhXQw=="}, "strides": {"list": {"i": ["1", "2", "2", "1"]}}}}, {"name": "FeatureExtractor/MobilenetV1/MobilenetV1/Conv2d_4_depthwise/BatchNorm/batchnorm_1/mul_1", "op": "Mul", "input": ["FeatureExtractor/MobilenetV1/MobilenetV1/Conv2d_4_depthwise/BatchNorm/batchnorm_1/mul", "FeatureExtractor/MobilenetV1/MobilenetV1/Conv2d_4_depthwise/depthwise"], "attr": {"T": {"type": "DT_FLOAT"}}}, {"name": "FeatureExtractor/MobilenetV1/MobilenetV1/Conv2d_4_depthwise/BatchNorm/batchnorm_1/add_1", "op": "AddV2", "input": ["FeatureExtractor/MobilenetV1/MobilenetV1/Conv2d_4_depthwise/BatchNorm/batchnorm_1/mul_1", "FeatureExtractor/MobilenetV1/MobilenetV1/Conv2d_4_depthwise/BatchNorm/batchnorm_1/sub"], "attr": {"T": {"type": "DT_FLOAT"}}}, {"name": "FeatureExtractor/MobilenetV1/MobilenetV1/Conv2d_4_depthwise/Relu6", "op": "Relu6", "input": ["FeatureExtractor/MobilenetV1/MobilenetV1/Conv2d_4_depthwise/BatchNorm/batchnorm_1/add_1"], "attr": {"T": {"type": "DT_FLOAT"}}}, {"name": "FeatureExtractor/MobilenetV1/MobilenetV1/Conv2d_4_pointwise/BatchNorm/batchnorm_1/mul_1", "op": "Conv2D", "input": ["FeatureExtractor/MobilenetV1/MobilenetV1/Conv2d_4_depthwise/Relu6", "FeatureExtractor/MobilenetV1/MobilenetV1/Conv2d_4_pointwise/Conv2D/merged_input"], "device": "/device:CPU:0", "attr": {"padding": {"s": "U0FNRQ=="}, "dilations": {"list": {"i": ["1", "1", "1", "1"]}}, "T": {"type": "DT_FLOAT"}, "data_format": {"s": "TkhXQw=="}, "strides": {"list": {"i": ["1", "1", "1", "1"]}}, "use_cudnn_on_gpu": {"b": true}, "explicit_paddings": {"list": {}}}}, {"name": "FeatureExtractor/MobilenetV1/MobilenetV1/Conv2d_4_pointwise/BatchNorm/batchnorm_1/add_1", "op": "AddV2", "input": ["FeatureExtractor/MobilenetV1/MobilenetV1/Conv2d_4_pointwise/BatchNorm/batchnorm_1/mul_1", "FeatureExtractor/MobilenetV1/MobilenetV1/Conv2d_4_pointwise/BatchNorm/batchnorm_1/sub"], "attr": {"T": {"type": "DT_FLOAT"}}}, {"name": "FeatureExtractor/MobilenetV1/MobilenetV1/Conv2d_4_pointwise/Relu6", "op": "Relu6", "input": ["FeatureExtractor/MobilenetV1/MobilenetV1/Conv2d_4_pointwise/BatchNorm/batchnorm_1/add_1"], "attr": {"T": {"type": "DT_FLOAT"}}}, {"name": "FeatureExtractor/MobilenetV1/MobilenetV1/Conv2d_5_depthwise/depthwise", "op": "DepthwiseConv2dNative", "input": ["FeatureExtractor/MobilenetV1/MobilenetV1/Conv2d_4_pointwise/Relu6", "FeatureExtractor/MobilenetV1/Conv2d_5_depthwise/depthwise_weights"], "attr": {"T": {"type": "DT_FLOAT"}, "strides": {"list": {"i": ["1", "1", "1", "1"]}}, "data_format": {"s": "TkhXQw=="}, "padding": {"s": "U0FNRQ=="}, "dilations": {"list": {"i": ["1", "1", "1", "1"]}}}}, {"name": "FeatureExtractor/MobilenetV1/MobilenetV1/Conv2d_5_depthwise/BatchNorm/batchnorm_1/mul_1", "op": "Mul", "input": ["FeatureExtractor/MobilenetV1/MobilenetV1/Conv2d_5_depthwise/BatchNorm/batchnorm_1/mul", "FeatureExtractor/MobilenetV1/MobilenetV1/Conv2d_5_depthwise/depthwise"], "attr": {"T": {"type": "DT_FLOAT"}}}, {"name": "FeatureExtractor/MobilenetV1/MobilenetV1/Conv2d_5_depthwise/BatchNorm/batchnorm_1/add_1", "op": "AddV2", "input": ["FeatureExtractor/MobilenetV1/MobilenetV1/Conv2d_5_depthwise/BatchNorm/batchnorm_1/mul_1", "FeatureExtractor/MobilenetV1/MobilenetV1/Conv2d_5_depthwise/BatchNorm/batchnorm_1/sub"], "attr": {"T": {"type": "DT_FLOAT"}}}, {"name": "FeatureExtractor/MobilenetV1/MobilenetV1/Conv2d_5_depthwise/Relu6", "op": "Relu6", "input": ["FeatureExtractor/MobilenetV1/MobilenetV1/Conv2d_5_depthwise/BatchNorm/batchnorm_1/add_1"], "attr": {"T": {"type": "DT_FLOAT"}}}, {"name": "FeatureExtractor/MobilenetV1/MobilenetV1/Conv2d_5_pointwise/BatchNorm/batchnorm_1/mul_1", "op": "Conv2D", "input": ["FeatureExtractor/MobilenetV1/MobilenetV1/Conv2d_5_depthwise/Relu6", "FeatureExtractor/MobilenetV1/MobilenetV1/Conv2d_5_pointwise/Conv2D/merged_input"], "device": "/device:CPU:0", "attr": {"dilations": {"list": {"i": ["1", "1", "1", "1"]}}, "T": {"type": "DT_FLOAT"}, "data_format": {"s": "TkhXQw=="}, "strides": {"list": {"i": ["1", "1", "1", "1"]}}, "use_cudnn_on_gpu": {"b": true}, "explicit_paddings": {"list": {}}, "padding": {"s": "U0FNRQ=="}}}, {"name": "FeatureExtractor/MobilenetV1/MobilenetV1/Conv2d_5_pointwise/BatchNorm/batchnorm_1/add_1", "op": "AddV2", "input": ["FeatureExtractor/MobilenetV1/MobilenetV1/Conv2d_5_pointwise/BatchNorm/batchnorm_1/mul_1", "FeatureExtractor/MobilenetV1/MobilenetV1/Conv2d_5_pointwise/BatchNorm/batchnorm_1/sub"], "attr": {"T": {"type": "DT_FLOAT"}}}, {"name": "FeatureExtractor/MobilenetV1/MobilenetV1/Conv2d_5_pointwise/Relu6", "op": "Relu6", "input": ["FeatureExtractor/MobilenetV1/MobilenetV1/Conv2d_5_pointwise/BatchNorm/batchnorm_1/add_1"], "attr": {"T": {"type": "DT_FLOAT"}}}, {"name": "FeatureExtractor/MobilenetV1/MobilenetV1/Conv2d_6_depthwise/depthwise", "op": "DepthwiseConv2dNative", "input": ["FeatureExtractor/MobilenetV1/MobilenetV1/Conv2d_5_pointwise/Relu6", "FeatureExtractor/MobilenetV1/Conv2d_6_depthwise/depthwise_weights"], "attr": {"T": {"type": "DT_FLOAT"}, "data_format": {"s": "TkhXQw=="}, "strides": {"list": {"i": ["1", "2", "2", "1"]}}, "dilations": {"list": {"i": ["1", "1", "1", "1"]}}, "padding": {"s": "U0FNRQ=="}}}, {"name": "FeatureExtractor/MobilenetV1/MobilenetV1/Conv2d_6_depthwise/BatchNorm/batchnorm_1/mul_1", "op": "Mul", "input": ["FeatureExtractor/MobilenetV1/MobilenetV1/Conv2d_6_depthwise/BatchNorm/batchnorm_1/mul", "FeatureExtractor/MobilenetV1/MobilenetV1/Conv2d_6_depthwise/depthwise"], "attr": {"T": {"type": "DT_FLOAT"}}}, {"name": "FeatureExtractor/MobilenetV1/MobilenetV1/Conv2d_6_depthwise/BatchNorm/batchnorm_1/add_1", "op": "AddV2", "input": ["FeatureExtractor/MobilenetV1/MobilenetV1/Conv2d_6_depthwise/BatchNorm/batchnorm_1/mul_1", "FeatureExtractor/MobilenetV1/MobilenetV1/Conv2d_6_depthwise/BatchNorm/batchnorm_1/sub"], "attr": {"T": {"type": "DT_FLOAT"}}}, {"name": "FeatureExtractor/MobilenetV1/MobilenetV1/Conv2d_6_depthwise/Relu6", "op": "Relu6", "input": ["FeatureExtractor/MobilenetV1/MobilenetV1/Conv2d_6_depthwise/BatchNorm/batchnorm_1/add_1"], "attr": {"T": {"type": "DT_FLOAT"}}}, {"name": "FeatureExtractor/MobilenetV1/MobilenetV1/Conv2d_6_pointwise/BatchNorm/batchnorm_1/mul_1", "op": "Conv2D", "input": ["FeatureExtractor/MobilenetV1/MobilenetV1/Conv2d_6_depthwise/Relu6", "FeatureExtractor/MobilenetV1/MobilenetV1/Conv2d_6_pointwise/Conv2D/merged_input"], "device": "/device:CPU:0", "attr": {"dilations": {"list": {"i": ["1", "1", "1", "1"]}}, "T": {"type": "DT_FLOAT"}, "strides": {"list": {"i": ["1", "1", "1", "1"]}}, "data_format": {"s": "TkhXQw=="}, "use_cudnn_on_gpu": {"b": true}, "explicit_paddings": {"list": {}}, "padding": {"s": "U0FNRQ=="}}}, {"name": "FeatureExtractor/MobilenetV1/MobilenetV1/Conv2d_6_pointwise/BatchNorm/batchnorm_1/add_1", "op": "AddV2", "input": ["FeatureExtractor/MobilenetV1/MobilenetV1/Conv2d_6_pointwise/BatchNorm/batchnorm_1/mul_1", "FeatureExtractor/MobilenetV1/MobilenetV1/Conv2d_6_pointwise/BatchNorm/batchnorm_1/sub"], "attr": {"T": {"type": "DT_FLOAT"}}}, {"name": "FeatureExtractor/MobilenetV1/MobilenetV1/Conv2d_6_pointwise/Relu6", "op": "Relu6", "input": ["FeatureExtractor/MobilenetV1/MobilenetV1/Conv2d_6_pointwise/BatchNorm/batchnorm_1/add_1"], "attr": {"T": {"type": "DT_FLOAT"}}}, {"name": "FeatureExtractor/MobilenetV1/MobilenetV1/Conv2d_7_depthwise/depthwise", "op": "DepthwiseConv2dNative", "input": ["FeatureExtractor/MobilenetV1/MobilenetV1/Conv2d_6_pointwise/Relu6", "FeatureExtractor/MobilenetV1/Conv2d_7_depthwise/depthwise_weights"], "attr": {"T": {"type": "DT_FLOAT"}, "data_format": {"s": "TkhXQw=="}, "strides": {"list": {"i": ["1", "1", "1", "1"]}}, "padding": {"s": "U0FNRQ=="}, "dilations": {"list": {"i": ["1", "1", "1", "1"]}}}}, {"name": "FeatureExtractor/MobilenetV1/MobilenetV1/Conv2d_7_depthwise/BatchNorm/batchnorm_1/mul_1", "op": "Mul", "input": ["FeatureExtractor/MobilenetV1/MobilenetV1/Conv2d_7_depthwise/BatchNorm/batchnorm_1/mul", "FeatureExtractor/MobilenetV1/MobilenetV1/Conv2d_7_depthwise/depthwise"], "attr": {"T": {"type": "DT_FLOAT"}}}, {"name": "FeatureExtractor/MobilenetV1/MobilenetV1/Conv2d_7_depthwise/BatchNorm/batchnorm_1/add_1", "op": "AddV2", "input": ["FeatureExtractor/MobilenetV1/MobilenetV1/Conv2d_7_depthwise/BatchNorm/batchnorm_1/mul_1", "FeatureExtractor/MobilenetV1/MobilenetV1/Conv2d_7_depthwise/BatchNorm/batchnorm_1/sub"], "attr": {"T": {"type": "DT_FLOAT"}}}, {"name": "FeatureExtractor/MobilenetV1/MobilenetV1/Conv2d_7_depthwise/Relu6", "op": "Relu6", "input": ["FeatureExtractor/MobilenetV1/MobilenetV1/Conv2d_7_depthwise/BatchNorm/batchnorm_1/add_1"], "attr": {"T": {"type": "DT_FLOAT"}}}, {"name": "FeatureExtractor/MobilenetV1/MobilenetV1/Conv2d_7_pointwise/BatchNorm/batchnorm_1/mul_1", "op": "Conv2D", "input": ["FeatureExtractor/MobilenetV1/MobilenetV1/Conv2d_7_depthwise/Relu6", "FeatureExtractor/MobilenetV1/MobilenetV1/Conv2d_7_pointwise/Conv2D/merged_input"], "device": "/device:CPU:0", "attr": {"T": {"type": "DT_FLOAT"}, "data_format": {"s": "TkhXQw=="}, "strides": {"list": {"i": ["1", "1", "1", "1"]}}, "use_cudnn_on_gpu": {"b": true}, "explicit_paddings": {"list": {}}, "padding": {"s": "U0FNRQ=="}, "dilations": {"list": {"i": ["1", "1", "1", "1"]}}}}, {"name": "FeatureExtractor/MobilenetV1/MobilenetV1/Conv2d_7_pointwise/BatchNorm/batchnorm_1/add_1", "op": "AddV2", "input": ["FeatureExtractor/MobilenetV1/MobilenetV1/Conv2d_7_pointwise/BatchNorm/batchnorm_1/mul_1", "FeatureExtractor/MobilenetV1/MobilenetV1/Conv2d_7_pointwise/BatchNorm/batchnorm_1/sub"], "attr": {"T": {"type": "DT_FLOAT"}}}, {"name": "FeatureExtractor/MobilenetV1/MobilenetV1/Conv2d_7_pointwise/Relu6", "op": "Relu6", "input": ["FeatureExtractor/MobilenetV1/MobilenetV1/Conv2d_7_pointwise/BatchNorm/batchnorm_1/add_1"], "attr": {"T": {"type": "DT_FLOAT"}}}, {"name": "FeatureExtractor/MobilenetV1/MobilenetV1/Conv2d_8_depthwise/depthwise", "op": "DepthwiseConv2dNative", "input": ["FeatureExtractor/MobilenetV1/MobilenetV1/Conv2d_7_pointwise/Relu6", "FeatureExtractor/MobilenetV1/Conv2d_8_depthwise/depthwise_weights"], "attr": {"T": {"type": "DT_FLOAT"}, "strides": {"list": {"i": ["1", "1", "1", "1"]}}, "data_format": {"s": "TkhXQw=="}, "dilations": {"list": {"i": ["1", "1", "1", "1"]}}, "padding": {"s": "U0FNRQ=="}}}, {"name": "FeatureExtractor/MobilenetV1/MobilenetV1/Conv2d_8_depthwise/BatchNorm/batchnorm_1/mul_1", "op": "Mul", "input": ["FeatureExtractor/MobilenetV1/MobilenetV1/Conv2d_8_depthwise/BatchNorm/batchnorm_1/mul", "FeatureExtractor/MobilenetV1/MobilenetV1/Conv2d_8_depthwise/depthwise"], "attr": {"T": {"type": "DT_FLOAT"}}}, {"name": "FeatureExtractor/MobilenetV1/MobilenetV1/Conv2d_8_depthwise/BatchNorm/batchnorm_1/add_1", "op": "AddV2", "input": ["FeatureExtractor/MobilenetV1/MobilenetV1/Conv2d_8_depthwise/BatchNorm/batchnorm_1/mul_1", "FeatureExtractor/MobilenetV1/MobilenetV1/Conv2d_8_depthwise/BatchNorm/batchnorm_1/sub"], "attr": {"T": {"type": "DT_FLOAT"}}}, {"name": "FeatureExtractor/MobilenetV1/MobilenetV1/Conv2d_8_depthwise/Relu6", "op": "Relu6", "input": ["FeatureExtractor/MobilenetV1/MobilenetV1/Conv2d_8_depthwise/BatchNorm/batchnorm_1/add_1"], "attr": {"T": {"type": "DT_FLOAT"}}}, {"name": "FeatureExtractor/MobilenetV1/MobilenetV1/Conv2d_8_pointwise/BatchNorm/batchnorm_1/mul_1", "op": "Conv2D", "input": ["FeatureExtractor/MobilenetV1/MobilenetV1/Conv2d_8_depthwise/Relu6", "FeatureExtractor/MobilenetV1/MobilenetV1/Conv2d_8_pointwise/Conv2D/merged_input"], "device": "/device:CPU:0", "attr": {"dilations": {"list": {"i": ["1", "1", "1", "1"]}}, "T": {"type": "DT_FLOAT"}, "data_format": {"s": "TkhXQw=="}, "strides": {"list": {"i": ["1", "1", "1", "1"]}}, "use_cudnn_on_gpu": {"b": true}, "explicit_paddings": {"list": {}}, "padding": {"s": "U0FNRQ=="}}}, {"name": "FeatureExtractor/MobilenetV1/MobilenetV1/Conv2d_8_pointwise/BatchNorm/batchnorm_1/add_1", "op": "AddV2", "input": ["FeatureExtractor/MobilenetV1/MobilenetV1/Conv2d_8_pointwise/BatchNorm/batchnorm_1/mul_1", "FeatureExtractor/MobilenetV1/MobilenetV1/Conv2d_8_pointwise/BatchNorm/batchnorm_1/sub"], "attr": {"T": {"type": "DT_FLOAT"}}}, {"name": "FeatureExtractor/MobilenetV1/MobilenetV1/Conv2d_8_pointwise/Relu6", "op": "Relu6", "input": ["FeatureExtractor/MobilenetV1/MobilenetV1/Conv2d_8_pointwise/BatchNorm/batchnorm_1/add_1"], "attr": {"T": {"type": "DT_FLOAT"}}}, {"name": "FeatureExtractor/MobilenetV1/MobilenetV1/Conv2d_9_depthwise/depthwise", "op": "DepthwiseConv2dNative", "input": ["FeatureExtractor/MobilenetV1/MobilenetV1/Conv2d_8_pointwise/Relu6", "FeatureExtractor/MobilenetV1/Conv2d_9_depthwise/depthwise_weights"], "attr": {"dilations": {"list": {"i": ["1", "1", "1", "1"]}}, "padding": {"s": "U0FNRQ=="}, "T": {"type": "DT_FLOAT"}, "strides": {"list": {"i": ["1", "1", "1", "1"]}}, "data_format": {"s": "TkhXQw=="}}}, {"name": "FeatureExtractor/MobilenetV1/MobilenetV1/Conv2d_9_depthwise/BatchNorm/batchnorm_1/mul_1", "op": "Mul", "input": ["FeatureExtractor/MobilenetV1/MobilenetV1/Conv2d_9_depthwise/BatchNorm/batchnorm_1/mul", "FeatureExtractor/MobilenetV1/MobilenetV1/Conv2d_9_depthwise/depthwise"], "attr": {"T": {"type": "DT_FLOAT"}}}, {"name": "FeatureExtractor/MobilenetV1/MobilenetV1/Conv2d_9_depthwise/BatchNorm/batchnorm_1/add_1", "op": "AddV2", "input": ["FeatureExtractor/MobilenetV1/MobilenetV1/Conv2d_9_depthwise/BatchNorm/batchnorm_1/mul_1", "FeatureExtractor/MobilenetV1/MobilenetV1/Conv2d_9_depthwise/BatchNorm/batchnorm_1/sub"], "attr": {"T": {"type": "DT_FLOAT"}}}, {"name": "FeatureExtractor/MobilenetV1/MobilenetV1/Conv2d_9_depthwise/Relu6", "op": "Relu6", "input": ["FeatureExtractor/MobilenetV1/MobilenetV1/Conv2d_9_depthwise/BatchNorm/batchnorm_1/add_1"], "attr": {"T": {"type": "DT_FLOAT"}}}, {"name": "FeatureExtractor/MobilenetV1/MobilenetV1/Conv2d_9_pointwise/BatchNorm/batchnorm_1/mul_1", "op": "Conv2D", "input": ["FeatureExtractor/MobilenetV1/MobilenetV1/Conv2d_9_depthwise/Relu6", "FeatureExtractor/MobilenetV1/MobilenetV1/Conv2d_9_pointwise/Conv2D/merged_input"], "device": "/device:CPU:0", "attr": {"strides": {"list": {"i": ["1", "1", "1", "1"]}}, "data_format": {"s": "TkhXQw=="}, "use_cudnn_on_gpu": {"b": true}, "explicit_paddings": {"list": {}}, "padding": {"s": "U0FNRQ=="}, "dilations": {"list": {"i": ["1", "1", "1", "1"]}}, "T": {"type": "DT_FLOAT"}}}, {"name": "FeatureExtractor/MobilenetV1/MobilenetV1/Conv2d_9_pointwise/BatchNorm/batchnorm_1/add_1", "op": "AddV2", "input": ["FeatureExtractor/MobilenetV1/MobilenetV1/Conv2d_9_pointwise/BatchNorm/batchnorm_1/mul_1", "FeatureExtractor/MobilenetV1/MobilenetV1/Conv2d_9_pointwise/BatchNorm/batchnorm_1/sub"], "attr": {"T": {"type": "DT_FLOAT"}}}, {"name": "FeatureExtractor/MobilenetV1/MobilenetV1/Conv2d_9_pointwise/Relu6", "op": "Relu6", "input": ["FeatureExtractor/MobilenetV1/MobilenetV1/Conv2d_9_pointwise/BatchNorm/batchnorm_1/add_1"], "attr": {"T": {"type": "DT_FLOAT"}}}, {"name": "FeatureExtractor/MobilenetV1/MobilenetV1/Conv2d_10_depthwise/depthwise", "op": "DepthwiseConv2dNative", "input": ["FeatureExtractor/MobilenetV1/MobilenetV1/Conv2d_9_pointwise/Relu6", "FeatureExtractor/MobilenetV1/Conv2d_10_depthwise/depthwise_weights"], "attr": {"padding": {"s": "U0FNRQ=="}, "dilations": {"list": {"i": ["1", "1", "1", "1"]}}, "T": {"type": "DT_FLOAT"}, "strides": {"list": {"i": ["1", "1", "1", "1"]}}, "data_format": {"s": "TkhXQw=="}}}, {"name": "FeatureExtractor/MobilenetV1/MobilenetV1/Conv2d_10_depthwise/BatchNorm/batchnorm_1/mul_1", "op": "Mul", "input": ["FeatureExtractor/MobilenetV1/MobilenetV1/Conv2d_10_depthwise/BatchNorm/batchnorm_1/mul", "FeatureExtractor/MobilenetV1/MobilenetV1/Conv2d_10_depthwise/depthwise"], "attr": {"T": {"type": "DT_FLOAT"}}}, {"name": "FeatureExtractor/MobilenetV1/MobilenetV1/Conv2d_10_depthwise/BatchNorm/batchnorm_1/add_1", "op": "AddV2", "input": ["FeatureExtractor/MobilenetV1/MobilenetV1/Conv2d_10_depthwise/BatchNorm/batchnorm_1/mul_1", "FeatureExtractor/MobilenetV1/MobilenetV1/Conv2d_10_depthwise/BatchNorm/batchnorm_1/sub"], "attr": {"T": {"type": "DT_FLOAT"}}}, {"name": "FeatureExtractor/MobilenetV1/MobilenetV1/Conv2d_10_depthwise/Relu6", "op": "Relu6", "input": ["FeatureExtractor/MobilenetV1/MobilenetV1/Conv2d_10_depthwise/BatchNorm/batchnorm_1/add_1"], "attr": {"T": {"type": "DT_FLOAT"}}}, {"name": "FeatureExtractor/MobilenetV1/MobilenetV1/Conv2d_10_pointwise/BatchNorm/batchnorm_1/mul_1", "op": "Conv2D", "input": ["FeatureExtractor/MobilenetV1/MobilenetV1/Conv2d_10_depthwise/Relu6", "FeatureExtractor/MobilenetV1/MobilenetV1/Conv2d_10_pointwise/Conv2D/merged_input"], "device": "/device:CPU:0", "attr": {"dilations": {"list": {"i": ["1", "1", "1", "1"]}}, "T": {"type": "DT_FLOAT"}, "strides": {"list": {"i": ["1", "1", "1", "1"]}}, "data_format": {"s": "TkhXQw=="}, "explicit_paddings": {"list": {}}, "use_cudnn_on_gpu": {"b": true}, "padding": {"s": "U0FNRQ=="}}}, {"name": "FeatureExtractor/MobilenetV1/MobilenetV1/Conv2d_10_pointwise/BatchNorm/batchnorm_1/add_1", "op": "AddV2", "input": ["FeatureExtractor/MobilenetV1/MobilenetV1/Conv2d_10_pointwise/BatchNorm/batchnorm_1/mul_1", "FeatureExtractor/MobilenetV1/MobilenetV1/Conv2d_10_pointwise/BatchNorm/batchnorm_1/sub"], "attr": {"T": {"type": "DT_FLOAT"}}}, {"name": "FeatureExtractor/MobilenetV1/MobilenetV1/Conv2d_10_pointwise/Relu6", "op": "Relu6", "input": ["FeatureExtractor/MobilenetV1/MobilenetV1/Conv2d_10_pointwise/BatchNorm/batchnorm_1/add_1"], "attr": {"T": {"type": "DT_FLOAT"}}}, {"name": "FeatureExtractor/MobilenetV1/MobilenetV1/Conv2d_11_depthwise/depthwise", "op": "DepthwiseConv2dNative", "input": ["FeatureExtractor/MobilenetV1/MobilenetV1/Conv2d_10_pointwise/Relu6", "FeatureExtractor/MobilenetV1/Conv2d_11_depthwise/depthwise_weights"], "attr": {"T": {"type": "DT_FLOAT"}, "data_format": {"s": "TkhXQw=="}, "strides": {"list": {"i": ["1", "1", "1", "1"]}}, "padding": {"s": "U0FNRQ=="}, "dilations": {"list": {"i": ["1", "1", "1", "1"]}}}}, {"name": "FeatureExtractor/MobilenetV1/MobilenetV1/Conv2d_11_depthwise/BatchNorm/batchnorm_1/mul_1", "op": "Mul", "input": ["FeatureExtractor/MobilenetV1/MobilenetV1/Conv2d_11_depthwise/BatchNorm/batchnorm_1/mul", "FeatureExtractor/MobilenetV1/MobilenetV1/Conv2d_11_depthwise/depthwise"], "attr": {"T": {"type": "DT_FLOAT"}}}, {"name": "FeatureExtractor/MobilenetV1/MobilenetV1/Conv2d_11_depthwise/BatchNorm/batchnorm_1/add_1", "op": "AddV2", "input": ["FeatureExtractor/MobilenetV1/MobilenetV1/Conv2d_11_depthwise/BatchNorm/batchnorm_1/mul_1", "FeatureExtractor/MobilenetV1/MobilenetV1/Conv2d_11_depthwise/BatchNorm/batchnorm_1/sub"], "attr": {"T": {"type": "DT_FLOAT"}}}, {"name": "FeatureExtractor/MobilenetV1/MobilenetV1/Conv2d_11_depthwise/Relu6", "op": "Relu6", "input": ["FeatureExtractor/MobilenetV1/MobilenetV1/Conv2d_11_depthwise/BatchNorm/batchnorm_1/add_1"], "attr": {"T": {"type": "DT_FLOAT"}}}, {"name": "FeatureExtractor/MobilenetV1/MobilenetV1/Conv2d_11_pointwise/BatchNorm/batchnorm_1/mul_1", "op": "Conv2D", "input": ["FeatureExtractor/MobilenetV1/MobilenetV1/Conv2d_11_depthwise/Relu6", "FeatureExtractor/MobilenetV1/MobilenetV1/Conv2d_11_pointwise/Conv2D/merged_input"], "device": "/device:CPU:0", "attr": {"dilations": {"list": {"i": ["1", "1", "1", "1"]}}, "T": {"type": "DT_FLOAT"}, "data_format": {"s": "TkhXQw=="}, "strides": {"list": {"i": ["1", "1", "1", "1"]}}, "use_cudnn_on_gpu": {"b": true}, "explicit_paddings": {"list": {}}, "padding": {"s": "U0FNRQ=="}}}, {"name": "FeatureExtractor/MobilenetV1/MobilenetV1/Conv2d_11_pointwise/BatchNorm/batchnorm_1/add_1", "op": "AddV2", "input": ["FeatureExtractor/MobilenetV1/MobilenetV1/Conv2d_11_pointwise/BatchNorm/batchnorm_1/mul_1", "FeatureExtractor/MobilenetV1/MobilenetV1/Conv2d_11_pointwise/BatchNorm/batchnorm_1/sub"], "attr": {"T": {"type": "DT_FLOAT"}}}, {"name": "FeatureExtractor/MobilenetV1/MobilenetV1/Conv2d_11_pointwise/Relu6", "op": "Relu6", "input": ["FeatureExtractor/MobilenetV1/MobilenetV1/Conv2d_11_pointwise/BatchNorm/batchnorm_1/add_1"], "attr": {"T": {"type": "DT_FLOAT"}}}, {"name": "BoxPredictor_0/ClassPredictor/BiasAdd", "op": "_FusedConv2D", "input": ["FeatureExtractor/MobilenetV1/MobilenetV1/Conv2d_11_pointwise/Relu6", "BoxPredictor_0/ClassPredictor/weights", "BoxPredictor_0/ClassPredictor/biases"], "device": "/device:CPU:0", "attr": {"num_args": {"i": "1"}, "epsilon": {"f": 0.0}, "padding": {"s": "U0FNRQ=="}, "fused_ops": {"list": {"s": ["Qmlhc0FkZA=="]}}, "dilations": {"list": {"i": ["1", "1", "1", "1"]}}, "T": {"type": "DT_FLOAT"}, "strides": {"list": {"i": ["1", "1", "1", "1"]}}, "data_format": {"s": "TkhXQw=="}, "use_cudnn_on_gpu": {"b": true}, "explicit_paddings": {"list": {}}}}, {"name": "BoxPredictor_0/BoxEncodingPredictor/Conv2D", "op": "Conv2D", "input": ["FeatureExtractor/MobilenetV1/MobilenetV1/Conv2d_11_pointwise/Relu6", "BoxPredictor_0/BoxEncodingPredictor/weights"], "device": "/device:CPU:0", "attr": {"T": {"type": "DT_FLOAT"}, "strides": {"list": {"i": ["1", "1", "1", "1"]}}, "data_format": {"s": "TkhXQw=="}, "use_cudnn_on_gpu": {"b": true}, "explicit_paddings": {"list": {}}, "padding": {"s": "U0FNRQ=="}, "dilations": {"list": {"i": ["1", "1", "1", "1"]}}}}, {"name": "BoxPredictor_0/Shape", "op": "Shape", "input": ["FeatureExtractor/MobilenetV1/MobilenetV1/Conv2d_11_pointwise/Relu6"], "attr": {"T": {"type": "DT_FLOAT"}, "out_type": {"type": "DT_INT32"}}}, {"name": "FeatureExtractor/MobilenetV1/MobilenetV1/Conv2d_12_depthwise/depthwise", "op": "DepthwiseConv2dNative", "input": ["FeatureExtractor/MobilenetV1/MobilenetV1/Conv2d_11_pointwise/Relu6", "FeatureExtractor/MobilenetV1/Conv2d_12_depthwise/depthwise_weights"], "attr": {"padding": {"s": "U0FNRQ=="}, "dilations": {"list": {"i": ["1", "1", "1", "1"]}}, "T": {"type": "DT_FLOAT"}, "strides": {"list": {"i": ["1", "2", "2", "1"]}}, "data_format": {"s": "TkhXQw=="}}}, {"name": "BoxPredictor_0/strided_slice", "op": "StridedSlice", "input": ["BoxPredictor_0/Shape", "Postprocessor/BatchMultiClassNonMaxSuppression/map/TensorArrayUnstack_1/strided_slice/stack", "Postprocessor/BatchMultiClassNonMaxSuppression/map/TensorArrayUnstack_1/strided_slice/stack_1", "Postprocessor/BatchMultiClassNonMaxSuppression/map/TensorArrayUnstack_1/strided_slice/stack_1"], "attr": {"shrink_axis_mask": {"i": "1"}, "ellipsis_mask": {"i": "0"}, "begin_mask": {"i": "0"}, "new_axis_mask": {"i": "0"}, "end_mask": {"i": "0"}, "T": {"type": "DT_INT32"}, "Index": {"type": "DT_INT32"}}}, {"name": "FeatureExtractor/MobilenetV1/MobilenetV1/Conv2d_12_depthwise/BatchNorm/batchnorm_1/mul_1", "op": "Mul", "input": ["FeatureExtractor/MobilenetV1/MobilenetV1/Conv2d_12_depthwise/BatchNorm/batchnorm_1/mul", "FeatureExtractor/MobilenetV1/MobilenetV1/Conv2d_12_depthwise/depthwise"], "attr": {"T": {"type": "DT_FLOAT"}}}, {"name": "BoxPredictor_0/stack_1", "op": "Pack", "input": ["BoxPredictor_0/strided_slice", "BoxPredictor_0/stack_1/1", "BoxPredictor_0/stack_1/2"], "attr": {"N": {"i": "3"}, "T": {"type": "DT_INT32"}, "axis": {"i": "0"}}}, {"name": "BoxPredictor_0/stack", "op": "Pack", "input": ["BoxPredictor_0/strided_slice", "BoxPredictor_0/stack_1/1", "Postprocessor/BatchMultiClassNonMaxSuppression/map/TensorArrayStack/range/delta", "BoxPredictor_0/stack/3"], "attr": {"N": {"i": "4"}, "T": {"type": "DT_INT32"}, "axis": {"i": "0"}}}, {"name": "FeatureExtractor/MobilenetV1/MobilenetV1/Conv2d_12_depthwise/BatchNorm/batchnorm_1/add_1", "op": "AddV2", "input": ["FeatureExtractor/MobilenetV1/MobilenetV1/Conv2d_12_depthwise/BatchNorm/batchnorm_1/mul_1", "FeatureExtractor/MobilenetV1/MobilenetV1/Conv2d_12_depthwise/BatchNorm/batchnorm_1/sub"], "attr": {"T": {"type": "DT_FLOAT"}}}, {"name": "BoxPredictor_0/Reshape_1", "op": "Reshape", "input": ["BoxPredictor_0/ClassPredictor/BiasAdd", "BoxPredictor_0/stack_1"], "attr": {"T": {"type": "DT_FLOAT"}, "Tshape": {"type": "DT_INT32"}}}, {"name": "BoxPredictor_0/Reshape", "op": "Reshape", "input": ["BoxPredictor_0/BoxEncodingPredictor/Conv2D", "BoxPredictor_0/stack"], "attr": {"T": {"type": "DT_FLOAT"}, "Tshape": {"type": "DT_INT32"}}}, {"name": "FeatureExtractor/MobilenetV1/MobilenetV1/Conv2d_12_depthwise/Relu6", "op": "Relu6", "input": ["FeatureExtractor/MobilenetV1/MobilenetV1/Conv2d_12_depthwise/BatchNorm/batchnorm_1/add_1"], "attr": {"T": {"type": "DT_FLOAT"}}}, {"name": "Squeeze", "op": "Squeeze", "input": ["BoxPredictor_0/Reshape"], "attr": {"squeeze_dims": {"list": {"i": ["2"]}}, "T": {"type": "DT_FLOAT"}}}, {"name": "FeatureExtractor/MobilenetV1/MobilenetV1/Conv2d_12_pointwise/BatchNorm/batchnorm_1/mul_1", "op": "Conv2D", "input": ["FeatureExtractor/MobilenetV1/MobilenetV1/Conv2d_12_depthwise/Relu6", "FeatureExtractor/MobilenetV1/MobilenetV1/Conv2d_12_pointwise/Conv2D/merged_input"], "device": "/device:CPU:0", "attr": {"dilations": {"list": {"i": ["1", "1", "1", "1"]}}, "T": {"type": "DT_FLOAT"}, "strides": {"list": {"i": ["1", "1", "1", "1"]}}, "data_format": {"s": "TkhXQw=="}, "use_cudnn_on_gpu": {"b": true}, "explicit_paddings": {"list": {}}, "padding": {"s": "U0FNRQ=="}}}, {"name": "FeatureExtractor/MobilenetV1/MobilenetV1/Conv2d_12_pointwise/BatchNorm/batchnorm_1/add_1", "op": "AddV2", "input": ["FeatureExtractor/MobilenetV1/MobilenetV1/Conv2d_12_pointwise/BatchNorm/batchnorm_1/mul_1", "FeatureExtractor/MobilenetV1/MobilenetV1/Conv2d_12_pointwise/BatchNorm/batchnorm_1/sub"], "attr": {"T": {"type": "DT_FLOAT"}}}, {"name": "FeatureExtractor/MobilenetV1/MobilenetV1/Conv2d_12_pointwise/Relu6", "op": "Relu6", "input": ["FeatureExtractor/MobilenetV1/MobilenetV1/Conv2d_12_pointwise/BatchNorm/batchnorm_1/add_1"], "attr": {"T": {"type": "DT_FLOAT"}}}, {"name": "FeatureExtractor/MobilenetV1/MobilenetV1/Conv2d_13_depthwise/depthwise", "op": "DepthwiseConv2dNative", "input": ["FeatureExtractor/MobilenetV1/MobilenetV1/Conv2d_12_pointwise/Relu6", "FeatureExtractor/MobilenetV1/Conv2d_13_depthwise/depthwise_weights"], "attr": {"data_format": {"s": "TkhXQw=="}, "strides": {"list": {"i": ["1", "1", "1", "1"]}}, "dilations": {"list": {"i": ["1", "1", "1", "1"]}}, "padding": {"s": "U0FNRQ=="}, "T": {"type": "DT_FLOAT"}}}, {"name": "FeatureExtractor/MobilenetV1/MobilenetV1/Conv2d_13_depthwise/BatchNorm/batchnorm_1/mul_1", "op": "Mul", "input": ["FeatureExtractor/MobilenetV1/MobilenetV1/Conv2d_13_depthwise/BatchNorm/batchnorm_1/mul", "FeatureExtractor/MobilenetV1/MobilenetV1/Conv2d_13_depthwise/depthwise"], "attr": {"T": {"type": "DT_FLOAT"}}}, {"name": "FeatureExtractor/MobilenetV1/MobilenetV1/Conv2d_13_depthwise/BatchNorm/batchnorm_1/add_1", "op": "AddV2", "input": ["FeatureExtractor/MobilenetV1/MobilenetV1/Conv2d_13_depthwise/BatchNorm/batchnorm_1/mul_1", "FeatureExtractor/MobilenetV1/MobilenetV1/Conv2d_13_depthwise/BatchNorm/batchnorm_1/sub"], "attr": {"T": {"type": "DT_FLOAT"}}}, {"name": "FeatureExtractor/MobilenetV1/MobilenetV1/Conv2d_13_depthwise/Relu6", "op": "Relu6", "input": ["FeatureExtractor/MobilenetV1/MobilenetV1/Conv2d_13_depthwise/BatchNorm/batchnorm_1/add_1"], "attr": {"T": {"type": "DT_FLOAT"}}}, {"name": "FeatureExtractor/MobilenetV1/MobilenetV1/Conv2d_13_pointwise/BatchNorm/batchnorm_1/mul_1", "op": "Conv2D", "input": ["FeatureExtractor/MobilenetV1/MobilenetV1/Conv2d_13_depthwise/Relu6", "FeatureExtractor/MobilenetV1/MobilenetV1/Conv2d_13_pointwise/Conv2D/merged_input"], "device": "/device:CPU:0", "attr": {"padding": {"s": "U0FNRQ=="}, "dilations": {"list": {"i": ["1", "1", "1", "1"]}}, "T": {"type": "DT_FLOAT"}, "strides": {"list": {"i": ["1", "1", "1", "1"]}}, "data_format": {"s": "TkhXQw=="}, "use_cudnn_on_gpu": {"b": true}, "explicit_paddings": {"list": {}}}}, {"name": "FeatureExtractor/MobilenetV1/MobilenetV1/Conv2d_13_pointwise/BatchNorm/batchnorm_1/add_1", "op": "AddV2", "input": ["FeatureExtractor/MobilenetV1/MobilenetV1/Conv2d_13_pointwise/BatchNorm/batchnorm_1/mul_1", "FeatureExtractor/MobilenetV1/MobilenetV1/Conv2d_13_pointwise/BatchNorm/batchnorm_1/sub"], "attr": {"T": {"type": "DT_FLOAT"}}}, {"name": "FeatureExtractor/MobilenetV1/MobilenetV1/Conv2d_13_pointwise/Relu6", "op": "Relu6", "input": ["FeatureExtractor/MobilenetV1/MobilenetV1/Conv2d_13_pointwise/BatchNorm/batchnorm_1/add_1"], "attr": {"T": {"type": "DT_FLOAT"}}}, {"name": "BoxPredictor_1/ClassPredictor/BiasAdd", "op": "_FusedConv2D", "input": ["FeatureExtractor/MobilenetV1/MobilenetV1/Conv2d_13_pointwise/Relu6", "BoxPredictor_1/ClassPredictor/weights", "BoxPredictor_1/ClassPredictor/biases"], "device": "/device:CPU:0", "attr": {"epsilon": {"f": 0.0}, "padding": {"s": "U0FNRQ=="}, "fused_ops": {"list": {"s": ["Qmlhc0FkZA=="]}}, "dilations": {"list": {"i": ["1", "1", "1", "1"]}}, "T": {"type": "DT_FLOAT"}, "strides": {"list": {"i": ["1", "1", "1", "1"]}}, "data_format": {"s": "TkhXQw=="}, "use_cudnn_on_gpu": {"b": true}, "explicit_paddings": {"list": {}}, "num_args": {"i": "1"}}}, {"name": "BoxPredictor_1/BoxEncodingPredictor/BiasAdd", "op": "_FusedConv2D", "input": ["FeatureExtractor/MobilenetV1/MobilenetV1/Conv2d_13_pointwise/Relu6", "BoxPredictor_1/BoxEncodingPredictor/weights", "BoxPredictor_1/BoxEncodingPredictor/biases"], "device": "/device:CPU:0", "attr": {"dilations": {"list": {"i": ["1", "1", "1", "1"]}}, "T": {"type": "DT_FLOAT"}, "strides": {"list": {"i": ["1", "1", "1", "1"]}}, "data_format": {"s": "TkhXQw=="}, "use_cudnn_on_gpu": {"b": true}, "explicit_paddings": {"list": {}}, "num_args": {"i": "1"}, "epsilon": {"f": 0.0}, "padding": {"s": "U0FNRQ=="}, "fused_ops": {"list": {"s": ["Qmlhc0FkZA=="]}}}}, {"name": "BoxPredictor_1/Shape", "op": "Shape", "input": ["FeatureExtractor/MobilenetV1/MobilenetV1/Conv2d_13_pointwise/Relu6"], "attr": {"T": {"type": "DT_FLOAT"}, "out_type": {"type": "DT_INT32"}}}, {"name": "FeatureExtractor/MobilenetV1/Conv2d_13_pointwise_1_Conv2d_2_1x1_256/BatchNorm/batchnorm_1/mul_1", "op": "Conv2D", "input": ["FeatureExtractor/MobilenetV1/MobilenetV1/Conv2d_13_pointwise/Relu6", "FeatureExtractor/MobilenetV1/Conv2d_13_pointwise_1_Conv2d_2_1x1_256/Conv2D/merged_input"], "device": "/device:CPU:0", "attr": {"dilations": {"list": {"i": ["1", "1", "1", "1"]}}, "T": {"type": "DT_FLOAT"}, "strides": {"list": {"i": ["1", "1", "1", "1"]}}, "data_format": {"s": "TkhXQw=="}, "use_cudnn_on_gpu": {"b": true}, "explicit_paddings": {"list": {}}, "padding": {"s": "U0FNRQ=="}}}, {"name": "BoxPredictor_1/strided_slice", "op": "StridedSlice", "input": ["BoxPredictor_1/Shape", "Postprocessor/BatchMultiClassNonMaxSuppression/map/TensorArrayUnstack_1/strided_slice/stack", "Postprocessor/BatchMultiClassNonMaxSuppression/map/TensorArrayUnstack_1/strided_slice/stack_1", "Postprocessor/BatchMultiClassNonMaxSuppression/map/TensorArrayUnstack_1/strided_slice/stack_1"], "attr": {"shrink_axis_mask": {"i": "1"}, "begin_mask": {"i": "0"}, "ellipsis_mask": {"i": "0"}, "new_axis_mask": {"i": "0"}, "end_mask": {"i": "0"}, "Index": {"type": "DT_INT32"}, "T": {"type": "DT_INT32"}}}, {"name": "FeatureExtractor/MobilenetV1/Conv2d_13_pointwise_1_Conv2d_2_1x1_256/BatchNorm/batchnorm_1/add_1", "op": "AddV2", "input": ["FeatureExtractor/MobilenetV1/Conv2d_13_pointwise_1_Conv2d_2_1x1_256/BatchNorm/batchnorm_1/mul_1", "FeatureExtractor/MobilenetV1/Conv2d_13_pointwise_1_Conv2d_2_1x1_256/BatchNorm/batchnorm_1/sub"], "attr": {"T": {"type": "DT_FLOAT"}}}, {"name": "BoxPredictor_1/stack_1", "op": "Pack", "input": ["BoxPredictor_1/strided_slice", "BoxPredictor_1/stack_1/1", "BoxPredictor_0/stack_1/2"], "attr": {"T": {"type": "DT_INT32"}, "axis": {"i": "0"}, "N": {"i": "3"}}}, {"name": "BoxPredictor_1/stack", "op": "Pack", "input": ["BoxPredictor_1/strided_slice", "BoxPredictor_1/stack_1/1", "Postprocessor/BatchMultiClassNonMaxSuppression/map/TensorArrayStack/range/delta", "BoxPredictor_0/stack/3"], "attr": {"T": {"type": "DT_INT32"}, "axis": {"i": "0"}, "N": {"i": "4"}}}, {"name": "FeatureExtractor/MobilenetV1/Conv2d_13_pointwise_1_Conv2d_2_1x1_256/Relu6", "op": "Relu6", "input": ["FeatureExtractor/MobilenetV1/Conv2d_13_pointwise_1_Conv2d_2_1x1_256/BatchNorm/batchnorm_1/add_1"], "attr": {"T": {"type": "DT_FLOAT"}}}, {"name": "BoxPredictor_1/Reshape_1", "op": "Reshape", "input": ["BoxPredictor_1/ClassPredictor/BiasAdd", "BoxPredictor_1/stack_1"], "attr": {"T": {"type": "DT_FLOAT"}, "Tshape": {"type": "DT_INT32"}}}, {"name": "BoxPredictor_1/Reshape", "op": "Reshape", "input": ["BoxPredictor_1/BoxEncodingPredictor/BiasAdd", "BoxPredictor_1/stack"], "attr": {"T": {"type": "DT_FLOAT"}, "Tshape": {"type": "DT_INT32"}}}, {"name": "FeatureExtractor/MobilenetV1/Conv2d_13_pointwise_2_Conv2d_2_3x3_s2_512/BatchNorm/batchnorm_1/mul_1", "op": "Conv2D", "input": ["FeatureExtractor/MobilenetV1/Conv2d_13_pointwise_1_Conv2d_2_1x1_256/Relu6", "FeatureExtractor/MobilenetV1/Conv2d_13_pointwise_2_Conv2d_2_3x3_s2_512/Conv2D/merged_input"], "device": "/device:CPU:0", "attr": {"dilations": {"list": {"i": ["1", "1", "1", "1"]}}, "T": {"type": "DT_FLOAT"}, "strides": {"list": {"i": ["1", "2", "2", "1"]}}, "data_format": {"s": "TkhXQw=="}, "explicit_paddings": {"list": {}}, "use_cudnn_on_gpu": {"b": true}, "padding": {"s": "U0FNRQ=="}}}, {"name": "Squeeze_1", "op": "Squeeze", "input": ["BoxPredictor_1/Reshape"], "attr": {"squeeze_dims": {"list": {"i": ["2"]}}, "T": {"type": "DT_FLOAT"}}}, {"name": "FeatureExtractor/MobilenetV1/Conv2d_13_pointwise_2_Conv2d_2_3x3_s2_512/BatchNorm/batchnorm_1/add_1", "op": "AddV2", "input": ["FeatureExtractor/MobilenetV1/Conv2d_13_pointwise_2_Conv2d_2_3x3_s2_512/BatchNorm/batchnorm_1/mul_1", "FeatureExtractor/MobilenetV1/Conv2d_13_pointwise_2_Conv2d_2_3x3_s2_512/BatchNorm/batchnorm_1/sub"], "attr": {"T": {"type": "DT_FLOAT"}}}, {"name": "FeatureExtractor/MobilenetV1/Conv2d_13_pointwise_2_Conv2d_2_3x3_s2_512/Relu6", "op": "Relu6", "input": ["FeatureExtractor/MobilenetV1/Conv2d_13_pointwise_2_Conv2d_2_3x3_s2_512/BatchNorm/batchnorm_1/add_1"], "attr": {"T": {"type": "DT_FLOAT"}}}, {"name": "BoxPredictor_2/ClassPredictor/BiasAdd", "op": "_FusedConv2D", "input": ["FeatureExtractor/MobilenetV1/Conv2d_13_pointwise_2_Conv2d_2_3x3_s2_512/Relu6", "BoxPredictor_2/ClassPredictor/weights", "BoxPredictor_2/ClassPredictor/biases"], "device": "/device:CPU:0", "attr": {"dilations": {"list": {"i": ["1", "1", "1", "1"]}}, "T": {"type": "DT_FLOAT"}, "data_format": {"s": "TkhXQw=="}, "strides": {"list": {"i": ["1", "1", "1", "1"]}}, "use_cudnn_on_gpu": {"b": true}, "explicit_paddings": {"list": {}}, "num_args": {"i": "1"}, "epsilon": {"f": 0.0}, "padding": {"s": "U0FNRQ=="}, "fused_ops": {"list": {"s": ["Qmlhc0FkZA=="]}}}}, {"name": "BoxPredictor_2/BoxEncodingPredictor/BiasAdd", "op": "_FusedConv2D", "input": ["FeatureExtractor/MobilenetV1/Conv2d_13_pointwise_2_Conv2d_2_3x3_s2_512/Relu6", "BoxPredictor_2/BoxEncodingPredictor/weights", "BoxPredictor_2/BoxEncodingPredictor/biases"], "device": "/device:CPU:0", "attr": {"dilations": {"list": {"i": ["1", "1", "1", "1"]}}, "T": {"type": "DT_FLOAT"}, "data_format": {"s": "TkhXQw=="}, "strides": {"list": {"i": ["1", "1", "1", "1"]}}, "explicit_paddings": {"list": {}}, "use_cudnn_on_gpu": {"b": true}, "num_args": {"i": "1"}, "epsilon": {"f": 0.0}, "padding": {"s": "U0FNRQ=="}, "fused_ops": {"list": {"s": ["Qmlhc0FkZA=="]}}}}, {"name": "BoxPredictor_2/Shape", "op": "Shape", "input": ["FeatureExtractor/MobilenetV1/Conv2d_13_pointwise_2_Conv2d_2_3x3_s2_512/Relu6"], "attr": {"T": {"type": "DT_FLOAT"}, "out_type": {"type": "DT_INT32"}}}, {"name": "FeatureExtractor/MobilenetV1/Conv2d_13_pointwise_1_Conv2d_3_1x1_128/BatchNorm/batchnorm_1/mul_1", "op": "Conv2D", "input": ["FeatureExtractor/MobilenetV1/Conv2d_13_pointwise_2_Conv2d_2_3x3_s2_512/Relu6", "FeatureExtractor/MobilenetV1/Conv2d_13_pointwise_1_Conv2d_3_1x1_128/Conv2D/merged_input"], "device": "/device:CPU:0", "attr": {"strides": {"list": {"i": ["1", "1", "1", "1"]}}, "data_format": {"s": "TkhXQw=="}, "use_cudnn_on_gpu": {"b": true}, "explicit_paddings": {"list": {}}, "padding": {"s": "U0FNRQ=="}, "dilations": {"list": {"i": ["1", "1", "1", "1"]}}, "T": {"type": "DT_FLOAT"}}}, {"name": "BoxPredictor_2/strided_slice", "op": "StridedSlice", "input": ["BoxPredictor_2/Shape", "Postprocessor/BatchMultiClassNonMaxSuppression/map/TensorArrayUnstack_1/strided_slice/stack", "Postprocessor/BatchMultiClassNonMaxSuppression/map/TensorArrayUnstack_1/strided_slice/stack_1", "Postprocessor/BatchMultiClassNonMaxSuppression/map/TensorArrayUnstack_1/strided_slice/stack_1"], "attr": {"shrink_axis_mask": {"i": "1"}, "ellipsis_mask": {"i": "0"}, "begin_mask": {"i": "0"}, "new_axis_mask": {"i": "0"}, "end_mask": {"i": "0"}, "T": {"type": "DT_INT32"}, "Index": {"type": "DT_INT32"}}}, {"name": "FeatureExtractor/MobilenetV1/Conv2d_13_pointwise_1_Conv2d_3_1x1_128/BatchNorm/batchnorm_1/add_1", "op": "AddV2", "input": ["FeatureExtractor/MobilenetV1/Conv2d_13_pointwise_1_Conv2d_3_1x1_128/BatchNorm/batchnorm_1/mul_1", "FeatureExtractor/MobilenetV1/Conv2d_13_pointwise_1_Conv2d_3_1x1_128/BatchNorm/batchnorm_1/sub"], "attr": {"T": {"type": "DT_FLOAT"}}}, {"name": "BoxPredictor_2/stack_1", "op": "Pack", "input": ["BoxPredictor_2/strided_slice", "BoxPredictor_2/stack_1/1", "BoxPredictor_0/stack_1/2"], "attr": {"T": {"type": "DT_INT32"}, "axis": {"i": "0"}, "N": {"i": "3"}}}, {"name": "BoxPredictor_2/stack", "op": "Pack", "input": ["BoxPredictor_2/strided_slice", "BoxPredictor_2/stack_1/1", "Postprocessor/BatchMultiClassNonMaxSuppression/map/TensorArrayStack/range/delta", "BoxPredictor_0/stack/3"], "attr": {"T": {"type": "DT_INT32"}, "axis": {"i": "0"}, "N": {"i": "4"}}}, {"name": "FeatureExtractor/MobilenetV1/Conv2d_13_pointwise_1_Conv2d_3_1x1_128/Relu6", "op": "Relu6", "input": ["FeatureExtractor/MobilenetV1/Conv2d_13_pointwise_1_Conv2d_3_1x1_128/BatchNorm/batchnorm_1/add_1"], "attr": {"T": {"type": "DT_FLOAT"}}}, {"name": "BoxPredictor_2/Reshape_1", "op": "Reshape", "input": ["BoxPredictor_2/ClassPredictor/BiasAdd", "BoxPredictor_2/stack_1"], "attr": {"T": {"type": "DT_FLOAT"}, "Tshape": {"type": "DT_INT32"}}}, {"name": "BoxPredictor_2/Reshape", "op": "Reshape", "input": ["BoxPredictor_2/BoxEncodingPredictor/BiasAdd", "BoxPredictor_2/stack"], "attr": {"T": {"type": "DT_FLOAT"}, "Tshape": {"type": "DT_INT32"}}}, {"name": "FeatureExtractor/MobilenetV1/Conv2d_13_pointwise_2_Conv2d_3_3x3_s2_256/BatchNorm/batchnorm_1/mul_1", "op": "Conv2D", "input": ["FeatureExtractor/MobilenetV1/Conv2d_13_pointwise_1_Conv2d_3_1x1_128/Relu6", "FeatureExtractor/MobilenetV1/Conv2d_13_pointwise_2_Conv2d_3_3x3_s2_256/Conv2D/merged_input"], "device": "/device:CPU:0", "attr": {"dilations": {"list": {"i": ["1", "1", "1", "1"]}}, "T": {"type": "DT_FLOAT"}, "strides": {"list": {"i": ["1", "2", "2", "1"]}}, "data_format": {"s": "TkhXQw=="}, "use_cudnn_on_gpu": {"b": true}, "explicit_paddings": {"list": {}}, "padding": {"s": "U0FNRQ=="}}}, {"name": "Squeeze_2", "op": "Squeeze", "input": ["BoxPredictor_2/Reshape"], "attr": {"squeeze_dims": {"list": {"i": ["2"]}}, "T": {"type": "DT_FLOAT"}}}, {"name": "FeatureExtractor/MobilenetV1/Conv2d_13_pointwise_2_Conv2d_3_3x3_s2_256/BatchNorm/batchnorm_1/add_1", "op": "AddV2", "input": ["FeatureExtractor/MobilenetV1/Conv2d_13_pointwise_2_Conv2d_3_3x3_s2_256/BatchNorm/batchnorm_1/mul_1", "FeatureExtractor/MobilenetV1/Conv2d_13_pointwise_2_Conv2d_3_3x3_s2_256/BatchNorm/batchnorm_1/sub"], "attr": {"T": {"type": "DT_FLOAT"}}}, {"name": "FeatureExtractor/MobilenetV1/Conv2d_13_pointwise_2_Conv2d_3_3x3_s2_256/Relu6", "op": "Relu6", "input": ["FeatureExtractor/MobilenetV1/Conv2d_13_pointwise_2_Conv2d_3_3x3_s2_256/BatchNorm/batchnorm_1/add_1"], "attr": {"T": {"type": "DT_FLOAT"}}}, {"name": "BoxPredictor_3/ClassPredictor/BiasAdd", "op": "_FusedConv2D", "input": ["FeatureExtractor/MobilenetV1/Conv2d_13_pointwise_2_Conv2d_3_3x3_s2_256/Relu6", "BoxPredictor_3/ClassPredictor/weights", "BoxPredictor_3/ClassPredictor/biases"], "device": "/device:CPU:0", "attr": {"strides": {"list": {"i": ["1", "1", "1", "1"]}}, "data_format": {"s": "TkhXQw=="}, "explicit_paddings": {"list": {}}, "use_cudnn_on_gpu": {"b": true}, "num_args": {"i": "1"}, "epsilon": {"f": 0.0}, "padding": {"s": "U0FNRQ=="}, "fused_ops": {"list": {"s": ["Qmlhc0FkZA=="]}}, "dilations": {"list": {"i": ["1", "1", "1", "1"]}}, "T": {"type": "DT_FLOAT"}}}, {"name": "BoxPredictor_3/BoxEncodingPredictor/BiasAdd", "op": "_FusedConv2D", "input": ["FeatureExtractor/MobilenetV1/Conv2d_13_pointwise_2_Conv2d_3_3x3_s2_256/Relu6", "BoxPredictor_3/BoxEncodingPredictor/weights", "BoxPredictor_3/BoxEncodingPredictor/biases"], "device": "/device:CPU:0", "attr": {"dilations": {"list": {"i": ["1", "1", "1", "1"]}}, "T": {"type": "DT_FLOAT"}, "data_format": {"s": "TkhXQw=="}, "strides": {"list": {"i": ["1", "1", "1", "1"]}}, "explicit_paddings": {"list": {}}, "use_cudnn_on_gpu": {"b": true}, "num_args": {"i": "1"}, "epsilon": {"f": 0.0}, "padding": {"s": "U0FNRQ=="}, "fused_ops": {"list": {"s": ["Qmlhc0FkZA=="]}}}}, {"name": "BoxPredictor_3/Shape", "op": "Shape", "input": ["FeatureExtractor/MobilenetV1/Conv2d_13_pointwise_2_Conv2d_3_3x3_s2_256/Relu6"], "attr": {"T": {"type": "DT_FLOAT"}, "out_type": {"type": "DT_INT32"}}}, {"name": "FeatureExtractor/MobilenetV1/Conv2d_13_pointwise_1_Conv2d_4_1x1_128/BatchNorm/batchnorm_1/mul_1", "op": "Conv2D", "input": ["FeatureExtractor/MobilenetV1/Conv2d_13_pointwise_2_Conv2d_3_3x3_s2_256/Relu6", "FeatureExtractor/MobilenetV1/Conv2d_13_pointwise_1_Conv2d_4_1x1_128/Conv2D/merged_input"], "device": "/device:CPU:0", "attr": {"padding": {"s": "U0FNRQ=="}, "dilations": {"list": {"i": ["1", "1", "1", "1"]}}, "T": {"type": "DT_FLOAT"}, "strides": {"list": {"i": ["1", "1", "1", "1"]}}, "data_format": {"s": "TkhXQw=="}, "explicit_paddings": {"list": {}}, "use_cudnn_on_gpu": {"b": true}}}, {"name": "BoxPredictor_3/strided_slice", "op": "StridedSlice", "input": ["BoxPredictor_3/Shape", "Postprocessor/BatchMultiClassNonMaxSuppression/map/TensorArrayUnstack_1/strided_slice/stack", "Postprocessor/BatchMultiClassNonMaxSuppression/map/TensorArrayUnstack_1/strided_slice/stack_1", "Postprocessor/BatchMultiClassNonMaxSuppression/map/TensorArrayUnstack_1/strided_slice/stack_1"], "attr": {"ellipsis_mask": {"i": "0"}, "begin_mask": {"i": "0"}, "new_axis_mask": {"i": "0"}, "end_mask": {"i": "0"}, "Index": {"type": "DT_INT32"}, "T": {"type": "DT_INT32"}, "shrink_axis_mask": {"i": "1"}}}, {"name": "FeatureExtractor/MobilenetV1/Conv2d_13_pointwise_1_Conv2d_4_1x1_128/BatchNorm/batchnorm_1/add_1", "op": "AddV2", "input": ["FeatureExtractor/MobilenetV1/Conv2d_13_pointwise_1_Conv2d_4_1x1_128/BatchNorm/batchnorm_1/mul_1", "FeatureExtractor/MobilenetV1/Conv2d_13_pointwise_1_Conv2d_4_1x1_128/BatchNorm/batchnorm_1/sub"], "attr": {"T": {"type": "DT_FLOAT"}}}, {"name": "BoxPredictor_3/stack_1", "op": "Pack", "input": ["BoxPredictor_3/strided_slice", "BoxPredictor_3/stack_1/1", "BoxPredictor_0/stack_1/2"], "attr": {"T": {"type": "DT_INT32"}, "axis": {"i": "0"}, "N": {"i": "3"}}}, {"name": "BoxPredictor_3/stack", "op": "Pack", "input": ["BoxPredictor_3/strided_slice", "BoxPredictor_3/stack_1/1", "Postprocessor/BatchMultiClassNonMaxSuppression/map/TensorArrayStack/range/delta", "BoxPredictor_0/stack/3"], "attr": {"T": {"type": "DT_INT32"}, "axis": {"i": "0"}, "N": {"i": "4"}}}, {"name": "FeatureExtractor/MobilenetV1/Conv2d_13_pointwise_1_Conv2d_4_1x1_128/Relu6", "op": "Relu6", "input": ["FeatureExtractor/MobilenetV1/Conv2d_13_pointwise_1_Conv2d_4_1x1_128/BatchNorm/batchnorm_1/add_1"], "attr": {"T": {"type": "DT_FLOAT"}}}, {"name": "BoxPredictor_3/Reshape_1", "op": "Reshape", "input": ["BoxPredictor_3/ClassPredictor/BiasAdd", "BoxPredictor_3/stack_1"], "attr": {"T": {"type": "DT_FLOAT"}, "Tshape": {"type": "DT_INT32"}}}, {"name": "BoxPredictor_3/Reshape", "op": "Reshape", "input": ["BoxPredictor_3/BoxEncodingPredictor/BiasAdd", "BoxPredictor_3/stack"], "attr": {"T": {"type": "DT_FLOAT"}, "Tshape": {"type": "DT_INT32"}}}, {"name": "FeatureExtractor/MobilenetV1/Conv2d_13_pointwise_2_Conv2d_4_3x3_s2_256/BatchNorm/batchnorm_1/mul_1", "op": "Conv2D", "input": ["FeatureExtractor/MobilenetV1/Conv2d_13_pointwise_1_Conv2d_4_1x1_128/Relu6", "FeatureExtractor/MobilenetV1/Conv2d_13_pointwise_2_Conv2d_4_3x3_s2_256/Conv2D/merged_input"], "device": "/device:CPU:0", "attr": {"dilations": {"list": {"i": ["1", "1", "1", "1"]}}, "T": {"type": "DT_FLOAT"}, "data_format": {"s": "TkhXQw=="}, "strides": {"list": {"i": ["1", "2", "2", "1"]}}, "use_cudnn_on_gpu": {"b": true}, "explicit_paddings": {"list": {}}, "padding": {"s": "U0FNRQ=="}}}, {"name": "Squeeze_3", "op": "Squeeze", "input": ["BoxPredictor_3/Reshape"], "attr": {"T": {"type": "DT_FLOAT"}, "squeeze_dims": {"list": {"i": ["2"]}}}}, {"name": "FeatureExtractor/MobilenetV1/Conv2d_13_pointwise_2_Conv2d_4_3x3_s2_256/BatchNorm/batchnorm_1/add_1", "op": "AddV2", "input": ["FeatureExtractor/MobilenetV1/Conv2d_13_pointwise_2_Conv2d_4_3x3_s2_256/BatchNorm/batchnorm_1/mul_1", "FeatureExtractor/MobilenetV1/Conv2d_13_pointwise_2_Conv2d_4_3x3_s2_256/BatchNorm/batchnorm_1/sub"], "attr": {"T": {"type": "DT_FLOAT"}}}, {"name": "FeatureExtractor/MobilenetV1/Conv2d_13_pointwise_2_Conv2d_4_3x3_s2_256/Relu6", "op": "Relu6", "input": ["FeatureExtractor/MobilenetV1/Conv2d_13_pointwise_2_Conv2d_4_3x3_s2_256/BatchNorm/batchnorm_1/add_1"], "attr": {"T": {"type": "DT_FLOAT"}}}, {"name": "BoxPredictor_4/ClassPredictor/BiasAdd", "op": "_FusedConv2D", "input": ["FeatureExtractor/MobilenetV1/Conv2d_13_pointwise_2_Conv2d_4_3x3_s2_256/Relu6", "BoxPredictor_4/ClassPredictor/weights", "BoxPredictor_4/ClassPredictor/biases"], "device": "/device:CPU:0", "attr": {"fused_ops": {"list": {"s": ["Qmlhc0FkZA=="]}}, "dilations": {"list": {"i": ["1", "1", "1", "1"]}}, "T": {"type": "DT_FLOAT"}, "strides": {"list": {"i": ["1", "1", "1", "1"]}}, "data_format": {"s": "TkhXQw=="}, "use_cudnn_on_gpu": {"b": true}, "explicit_paddings": {"list": {}}, "num_args": {"i": "1"}, "epsilon": {"f": 0.0}, "padding": {"s": "U0FNRQ=="}}}, {"name": "BoxPredictor_4/BoxEncodingPredictor/BiasAdd", "op": "_FusedConv2D", "input": ["FeatureExtractor/MobilenetV1/Conv2d_13_pointwise_2_Conv2d_4_3x3_s2_256/Relu6", "BoxPredictor_4/BoxEncodingPredictor/weights", "BoxPredictor_4/BoxEncodingPredictor/biases"], "device": "/device:CPU:0", "attr": {"dilations": {"list": {"i": ["1", "1", "1", "1"]}}, "T": {"type": "DT_FLOAT"}, "strides": {"list": {"i": ["1", "1", "1", "1"]}}, "data_format": {"s": "TkhXQw=="}, "use_cudnn_on_gpu": {"b": true}, "explicit_paddings": {"list": {}}, "num_args": {"i": "1"}, "epsilon": {"f": 0.0}, "padding": {"s": "U0FNRQ=="}, "fused_ops": {"list": {"s": ["Qmlhc0FkZA=="]}}}}, {"name": "BoxPredictor_4/Shape", "op": "Shape", "input": ["FeatureExtractor/MobilenetV1/Conv2d_13_pointwise_2_Conv2d_4_3x3_s2_256/Relu6"], "attr": {"T": {"type": "DT_FLOAT"}, "out_type": {"type": "DT_INT32"}}}, {"name": "FeatureExtractor/MobilenetV1/Conv2d_13_pointwise_1_Conv2d_5_1x1_64/BatchNorm/batchnorm_1/mul_1", "op": "Conv2D", "input": ["FeatureExtractor/MobilenetV1/Conv2d_13_pointwise_2_Conv2d_4_3x3_s2_256/Relu6", "FeatureExtractor/MobilenetV1/Conv2d_13_pointwise_1_Conv2d_5_1x1_64/Conv2D/merged_input"], "device": "/device:CPU:0", "attr": {"dilations": {"list": {"i": ["1", "1", "1", "1"]}}, "T": {"type": "DT_FLOAT"}, "data_format": {"s": "TkhXQw=="}, "strides": {"list": {"i": ["1", "1", "1", "1"]}}, "explicit_paddings": {"list": {}}, "use_cudnn_on_gpu": {"b": true}, "padding": {"s": "U0FNRQ=="}}}, {"name": "BoxPredictor_4/strided_slice", "op": "StridedSlice", "input": ["BoxPredictor_4/Shape", "Postprocessor/BatchMultiClassNonMaxSuppression/map/TensorArrayUnstack_1/strided_slice/stack", "Postprocessor/BatchMultiClassNonMaxSuppression/map/TensorArrayUnstack_1/strided_slice/stack_1", "Postprocessor/BatchMultiClassNonMaxSuppression/map/TensorArrayUnstack_1/strided_slice/stack_1"], "attr": {"shrink_axis_mask": {"i": "1"}, "begin_mask": {"i": "0"}, "ellipsis_mask": {"i": "0"}, "new_axis_mask": {"i": "0"}, "end_mask": {"i": "0"}, "Index": {"type": "DT_INT32"}, "T": {"type": "DT_INT32"}}}, {"name": "FeatureExtractor/MobilenetV1/Conv2d_13_pointwise_1_Conv2d_5_1x1_64/BatchNorm/batchnorm_1/add_1", "op": "AddV2", "input": ["FeatureExtractor/MobilenetV1/Conv2d_13_pointwise_1_Conv2d_5_1x1_64/BatchNorm/batchnorm_1/mul_1", "FeatureExtractor/MobilenetV1/Conv2d_13_pointwise_1_Conv2d_5_1x1_64/BatchNorm/batchnorm_1/sub"], "attr": {"T": {"type": "DT_FLOAT"}}}, {"name": "BoxPredictor_4/stack_1", "op": "Pack", "input": ["BoxPredictor_4/strided_slice", "BoxPredictor_4/stack_1/1", "BoxPredictor_0/stack_1/2"], "attr": {"T": {"type": "DT_INT32"}, "axis": {"i": "0"}, "N": {"i": "3"}}}, {"name": "BoxPredictor_4/stack", "op": "Pack", "input": ["BoxPredictor_4/strided_slice", "BoxPredictor_4/stack_1/1", "Postprocessor/BatchMultiClassNonMaxSuppression/map/TensorArrayStack/range/delta", "BoxPredictor_0/stack/3"], "attr": {"N": {"i": "4"}, "T": {"type": "DT_INT32"}, "axis": {"i": "0"}}}, {"name": "FeatureExtractor/MobilenetV1/Conv2d_13_pointwise_1_Conv2d_5_1x1_64/Relu6", "op": "Relu6", "input": ["FeatureExtractor/MobilenetV1/Conv2d_13_pointwise_1_Conv2d_5_1x1_64/BatchNorm/batchnorm_1/add_1"], "attr": {"T": {"type": "DT_FLOAT"}}}, {"name": "BoxPredictor_4/Reshape_1", "op": "Reshape", "input": ["BoxPredictor_4/ClassPredictor/BiasAdd", "BoxPredictor_4/stack_1"], "attr": {"T": {"type": "DT_FLOAT"}, "Tshape": {"type": "DT_INT32"}}}, {"name": "BoxPredictor_4/Reshape", "op": "Reshape", "input": ["BoxPredictor_4/BoxEncodingPredictor/BiasAdd", "BoxPredictor_4/stack"], "attr": {"T": {"type": "DT_FLOAT"}, "Tshape": {"type": "DT_INT32"}}}, {"name": "FeatureExtractor/MobilenetV1/Conv2d_13_pointwise_2_Conv2d_5_3x3_s2_128/BatchNorm/batchnorm_1/mul_1", "op": "Conv2D", "input": ["FeatureExtractor/MobilenetV1/Conv2d_13_pointwise_1_Conv2d_5_1x1_64/Relu6", "FeatureExtractor/MobilenetV1/Conv2d_13_pointwise_2_Conv2d_5_3x3_s2_128/Conv2D/merged_input"], "device": "/device:CPU:0", "attr": {"T": {"type": "DT_FLOAT"}, "data_format": {"s": "TkhXQw=="}, "strides": {"list": {"i": ["1", "2", "2", "1"]}}, "use_cudnn_on_gpu": {"b": true}, "explicit_paddings": {"list": {}}, "padding": {"s": "U0FNRQ=="}, "dilations": {"list": {"i": ["1", "1", "1", "1"]}}}}, {"name": "Squeeze_4", "op": "Squeeze", "input": ["BoxPredictor_4/Reshape"], "attr": {"squeeze_dims": {"list": {"i": ["2"]}}, "T": {"type": "DT_FLOAT"}}}, {"name": "FeatureExtractor/MobilenetV1/Conv2d_13_pointwise_2_Conv2d_5_3x3_s2_128/BatchNorm/batchnorm_1/add_1", "op": "AddV2", "input": ["FeatureExtractor/MobilenetV1/Conv2d_13_pointwise_2_Conv2d_5_3x3_s2_128/BatchNorm/batchnorm_1/mul_1", "FeatureExtractor/MobilenetV1/Conv2d_13_pointwise_2_Conv2d_5_3x3_s2_128/BatchNorm/batchnorm_1/sub"], "attr": {"T": {"type": "DT_FLOAT"}}}, {"name": "FeatureExtractor/MobilenetV1/Conv2d_13_pointwise_2_Conv2d_5_3x3_s2_128/Relu6", "op": "Relu6", "input": ["FeatureExtractor/MobilenetV1/Conv2d_13_pointwise_2_Conv2d_5_3x3_s2_128/BatchNorm/batchnorm_1/add_1"], "attr": {"T": {"type": "DT_FLOAT"}}}, {"name": "BoxPredictor_5/ClassPredictor/BiasAdd", "op": "_FusedConv2D", "input": ["FeatureExtractor/MobilenetV1/Conv2d_13_pointwise_2_Conv2d_5_3x3_s2_128/Relu6", "BoxPredictor_5/ClassPredictor/weights", "BoxPredictor_5/ClassPredictor/biases"], "device": "/device:CPU:0", "attr": {"num_args": {"i": "1"}, "epsilon": {"f": 0.0}, "padding": {"s": "U0FNRQ=="}, "fused_ops": {"list": {"s": ["Qmlhc0FkZA=="]}}, "dilations": {"list": {"i": ["1", "1", "1", "1"]}}, "T": {"type": "DT_FLOAT"}, "data_format": {"s": "TkhXQw=="}, "strides": {"list": {"i": ["1", "1", "1", "1"]}}, "use_cudnn_on_gpu": {"b": true}, "explicit_paddings": {"list": {}}}}, {"name": "BoxPredictor_5/BoxEncodingPredictor/BiasAdd", "op": "_FusedConv2D", "input": ["FeatureExtractor/MobilenetV1/Conv2d_13_pointwise_2_Conv2d_5_3x3_s2_128/Relu6", "BoxPredictor_5/BoxEncodingPredictor/weights", "BoxPredictor_5/BoxEncodingPredictor/biases"], "device": "/device:CPU:0", "attr": {"strides": {"list": {"i": ["1", "1", "1", "1"]}}, "data_format": {"s": "TkhXQw=="}, "use_cudnn_on_gpu": {"b": true}, "explicit_paddings": {"list": {}}, "num_args": {"i": "1"}, "epsilon": {"f": 0.0}, "padding": {"s": "U0FNRQ=="}, "fused_ops": {"list": {"s": ["Qmlhc0FkZA=="]}}, "dilations": {"list": {"i": ["1", "1", "1", "1"]}}, "T": {"type": "DT_FLOAT"}}}, {"name": "BoxPredictor_5/Shape", "op": "Shape", "input": ["FeatureExtractor/MobilenetV1/Conv2d_13_pointwise_2_Conv2d_5_3x3_s2_128/Relu6"], "attr": {"T": {"type": "DT_FLOAT"}, "out_type": {"type": "DT_INT32"}}}, {"name": "BoxPredictor_5/strided_slice", "op": "StridedSlice", "input": ["BoxPredictor_5/Shape", "Postprocessor/BatchMultiClassNonMaxSuppression/map/TensorArrayUnstack_1/strided_slice/stack", "Postprocessor/BatchMultiClassNonMaxSuppression/map/TensorArrayUnstack_1/strided_slice/stack_1", "Postprocessor/BatchMultiClassNonMaxSuppression/map/TensorArrayUnstack_1/strided_slice/stack_1"], "attr": {"T": {"type": "DT_INT32"}, "Index": {"type": "DT_INT32"}, "shrink_axis_mask": {"i": "1"}, "ellipsis_mask": {"i": "0"}, "begin_mask": {"i": "0"}, "new_axis_mask": {"i": "0"}, "end_mask": {"i": "0"}}}, {"name": "BoxPredictor_5/stack_1", "op": "Pack", "input": ["BoxPredictor_5/strided_slice", "BoxPredictor_5/stack_1/1", "BoxPredictor_0/stack_1/2"], "attr": {"T": {"type": "DT_INT32"}, "axis": {"i": "0"}, "N": {"i": "3"}}}, {"name": "BoxPredictor_5/stack", "op": "Pack", "input": ["BoxPredictor_5/strided_slice", "BoxPredictor_5/stack_1/1", "Postprocessor/BatchMultiClassNonMaxSuppression/map/TensorArrayStack/range/delta", "BoxPredictor_0/stack/3"], "attr": {"T": {"type": "DT_INT32"}, "axis": {"i": "0"}, "N": {"i": "4"}}}, {"name": "BoxPredictor_5/Reshape_1", "op": "Reshape", "input": ["BoxPredictor_5/ClassPredictor/BiasAdd", "BoxPredictor_5/stack_1"], "attr": {"T": {"type": "DT_FLOAT"}, "Tshape": {"type": "DT_INT32"}}}, {"name": "BoxPredictor_5/Reshape", "op": "Reshape", "input": ["BoxPredictor_5/BoxEncodingPredictor/BiasAdd", "BoxPredictor_5/stack"], "attr": {"T": {"type": "DT_FLOAT"}, "Tshape": {"type": "DT_INT32"}}}, {"name": "Squeeze_5", "op": "Squeeze", "input": ["BoxPredictor_5/Reshape"], "attr": {"T": {"type": "DT_FLOAT"}, "squeeze_dims": {"list": {"i": ["2"]}}}}, {"name": "concat_1/axis", "op": "Const", "input": ["^Squeeze", "^Squeeze_1", "^Squeeze_2", "^Squeeze_3", "^Squeeze_4", "^Squeeze_5"], "attr": {"dtype": {"type": "DT_INT32"}, "value": {"tensor": {"dtype": "DT_INT32", "tensorShape": {}}}}}, {"name": "concat_1", "op": "ConcatV2", "input": ["BoxPredictor_0/Reshape_1", "BoxPredictor_1/Reshape_1", "BoxPredictor_2/Reshape_1", "BoxPredictor_3/Reshape_1", "BoxPredictor_4/Reshape_1", "BoxPredictor_5/Reshape_1", "concat_1/axis"], "attr": {"N": {"i": "6"}, "Tidx": {"type": "DT_INT32"}, "T": {"type": "DT_FLOAT"}}}, {"name": "concat", "op": "ConcatV2", "input": ["Squeeze", "Squeeze_1", "Squeeze_2", "Squeeze_3", "Squeeze_4", "Squeeze_5", "concat_1/axis"], "attr": {"Tidx": {"type": "DT_INT32"}, "T": {"type": "DT_FLOAT"}, "N": {"i": "6"}}}, {"name": "Postprocessor/Slice", "op": "Slice", "input": ["concat_1", "Postprocessor/Slice/begin", "Postprocessor/Slice/size"], "attr": {"T": {"type": "DT_FLOAT"}, "Index": {"type": "DT_INT32"}}}, {"name": "Postprocessor/Reshape_1", "op": "Reshape", "input": ["concat", "Postprocessor/Reshape_1/shape"], "attr": {"T": {"type": "DT_FLOAT"}, "Tshape": {"type": "DT_INT32"}}}, {"name": "Postprocessor/Shape", "op": "Shape", "input": ["concat"], "attr": {"T": {"type": "DT_FLOAT"}, "out_type": {"type": "DT_INT32"}}}, {"name": "Postprocessor/convert_scores", "op": "Sigmoid", "input": ["Postprocessor/Slice"], "attr": {"T": {"type": "DT_FLOAT"}}}, {"name": "Postprocessor/Decode/transpose", "op": "Transpose", "input": ["Postprocessor/Reshape_1", "Postprocessor/Decode/transpose/perm"], "attr": {"T": {"type": "DT_FLOAT"}, "Tperm": {"type": "DT_INT32"}}}, {"name": "Postprocessor/strided_slice", "op": "StridedSlice", "input": ["Postprocessor/Shape", "Postprocessor/BatchMultiClassNonMaxSuppression/map/TensorArrayUnstack_1/strided_slice/stack", "Postprocessor/BatchMultiClassNonMaxSuppression/map/TensorArrayUnstack_1/strided_slice/stack_1", "Postprocessor/BatchMultiClassNonMaxSuppression/map/TensorArrayUnstack_1/strided_slice/stack_1"], "attr": {"ellipsis_mask": {"i": "0"}, "begin_mask": {"i": "0"}, "new_axis_mask": {"i": "0"}, "end_mask": {"i": "0"}, "Index": {"type": "DT_INT32"}, "T": {"type": "DT_INT32"}, "shrink_axis_mask": {"i": "1"}}}, {"name": "Postprocessor/BatchMultiClassNonMaxSuppression/map/TensorArrayUnstack_1/Shape", "op": "Shape", "input": ["Postprocessor/convert_scores"], "attr": {"T": {"type": "DT_FLOAT"}, "out_type": {"type": "DT_INT32"}}}, {"name": "Postprocessor/Decode/unstack", "op": "Unpack", "input": ["Postprocessor/Decode/transpose"], "attr": {"T": {"type": "DT_FLOAT"}, "num": {"i": "4"}, "axis": {"i": "0"}}}, {"name": "Postprocessor/Tile/multiples", "op": "Pack", "input": ["Postprocessor/strided_slice", "Postprocessor/BatchMultiClassNonMaxSuppression/map/TensorArrayStack/range/delta", "Postprocessor/BatchMultiClassNonMaxSuppression/map/TensorArrayStack/range/delta"], "attr": {"T": {"type": "DT_INT32"}, "axis": {"i": "0"}, "N": {"i": "3"}}}, {"name": "Postprocessor/stack", "op": "Pack", "input": ["Postprocessor/strided_slice", "Postprocessor/BatchMultiClassNonMaxSuppression/mul/y", "BoxPredictor_0/stack/3"], "attr": {"T": {"type": "DT_INT32"}, "axis": {"i": "0"}, "N": {"i": "3"}}}, {"name": "Postprocessor/BatchMultiClassNonMaxSuppression/map/TensorArrayUnstack_1/strided_slice", "op": "StridedSlice", "input": ["Postprocessor/BatchMultiClassNonMaxSuppression/map/TensorArrayUnstack_1/Shape", "Postprocessor/BatchMultiClassNonMaxSuppression/map/TensorArrayUnstack_1/strided_slice/stack", "Postprocessor/BatchMultiClassNonMaxSuppression/map/TensorArrayUnstack_1/strided_slice/stack_1", "Postprocessor/BatchMultiClassNonMaxSuppression/map/TensorArrayUnstack_1/strided_slice/stack_1"], "attr": {"T": {"type": "DT_INT32"}, "Index": {"type": "DT_INT32"}, "shrink_axis_mask": {"i": "1"}, "ellipsis_mask": {"i": "0"}, "begin_mask": {"i": "0"}, "new_axis_mask": {"i": "0"}, "end_mask": {"i": "0"}}}, {"name": "Postprocessor/Decode/truediv", "op": "Mul", "input": ["ConstantFolding/Postprocessor/Decode/truediv_recip", "Postprocessor/Decode/unstack"], "attr": {"T": {"type": "DT_FLOAT"}}}, {"name": "Postprocessor/Decode/truediv_1", "op": "Mul", "input": ["ConstantFolding/Postprocessor/Decode/truediv_recip", "Postprocessor/Decode/unstack:1"], "attr": {"T": {"type": "DT_FLOAT"}}}, {"name": "Postprocessor/Decode/truediv_2", "op": "Mul", "input": ["ConstantFolding/Postprocessor/Decode/truediv_2_recip", "Postprocessor/Decode/unstack:2"], "attr": {"T": {"type": "DT_FLOAT"}}}, {"name": "Postprocessor/Decode/truediv_3", "op": "Mul", "input": ["ConstantFolding/Postprocessor/Decode/truediv_2_recip", "Postprocessor/Decode/unstack:3"], "attr": {"T": {"type": "DT_FLOAT"}}}, {"name": "Postprocessor/Tile", "op": "Tile", "input": ["Postprocessor/ExpandDims", "Postprocessor/Tile/multiples"], "attr": {"Tmultiples": {"type": "DT_INT32"}, "T": {"type": "DT_FLOAT"}}}, {"name": "Postprocessor/BatchMultiClassNonMaxSuppression/map/TensorArrayUnstack_1/range", "op": "Range", "input": ["Postprocessor/BatchMultiClassNonMaxSuppression/map/TensorArrayStack/range/start", "Postprocessor/BatchMultiClassNonMaxSuppression/map/TensorArrayUnstack_1/strided_slice", "Postprocessor/BatchMultiClassNonMaxSuppression/map/TensorArrayStack/range/delta"], "attr": {"Tidx": {"type": "DT_INT32"}}}, {"name": "Postprocessor/Decode/Exp_1", "op": "Exp", "input": ["Postprocessor/Decode/truediv_2"], "attr": {"T": {"type": "DT_FLOAT"}}}, {"name": "Postprocessor/Decode/Exp", "op": "Exp", "input": ["Postprocessor/Decode/truediv_3"], "attr": {"T": {"type": "DT_FLOAT"}}}, {"name": "Postprocessor/Reshape", "op": "Reshape", "input": ["Postprocessor/Tile", "Postprocessor/Reshape_1/shape"], "attr": {"T": {"type": "DT_FLOAT"}, "Tshape": {"type": "DT_INT32"}}}, {"name": "Postprocessor/Decode/get_center_coordinates_and_sizes/transpose", "op": "Transpose", "input": ["Postprocessor/Reshape", "Postprocessor/Decode/transpose/perm"], "attr": {"T": {"type": "DT_FLOAT"}, "Tperm": {"type": "DT_INT32"}}}, {"name": "Postprocessor/Decode/get_center_coordinates_and_sizes/unstack", "op": "Unpack", "input": ["Postprocessor/Decode/get_center_coordinates_and_sizes/transpose"], "attr": {"T": {"type": "DT_FLOAT"}, "num": {"i": "4"}, "axis": {"i": "0"}}}, {"name": "Postprocessor/Decode/get_center_coordinates_and_sizes/sub_1", "op": "Sub", "input": ["Postprocessor/Decode/get_center_coordinates_and_sizes/unstack:2", "Postprocessor/Decode/get_center_coordinates_and_sizes/unstack"], "attr": {"T": {"type": "DT_FLOAT"}}}, {"name": "Postprocessor/Decode/get_center_coordinates_and_sizes/sub", "op": "Sub", "input": ["Postprocessor/Decode/get_center_coordinates_and_sizes/unstack:3", "Postprocessor/Decode/get_center_coordinates_and_sizes/unstack:1"], "attr": {"T": {"type": "DT_FLOAT"}}}, {"name": "Postprocessor/Decode/mul_2", "op": "Mul", "input": ["Postprocessor/Decode/get_center_coordinates_and_sizes/sub_1", "Postprocessor/Decode/truediv"], "attr": {"T": {"type": "DT_FLOAT"}}}, {"name": "Postprocessor/Decode/get_center_coordinates_and_sizes/truediv", "op": "Mul", "input": ["MultipleGridAnchorGenerator/mul_19/x", "Postprocessor/Decode/get_center_coordinates_and_sizes/sub_1"], "attr": {"T": {"type": "DT_FLOAT"}}}, {"name": "Postprocessor/Decode/mul_3", "op": "Mul", "input": ["Postprocessor/Decode/get_center_coordinates_and_sizes/sub", "Postprocessor/Decode/truediv_1"], "attr": {"T": {"type": "DT_FLOAT"}}}, {"name": "Postprocessor/Decode/get_center_coordinates_and_sizes/truediv_1", "op": "Mul", "input": ["MultipleGridAnchorGenerator/mul_19/x", "Postprocessor/Decode/get_center_coordinates_and_sizes/sub"], "attr": {"T": {"type": "DT_FLOAT"}}}, {"name": "Postprocessor/Decode/get_center_coordinates_and_sizes/add", "op": "AddV2", "input": ["Postprocessor/Decode/get_center_coordinates_and_sizes/truediv", "Postprocessor/Decode/get_center_coordinates_and_sizes/unstack"], "attr": {"T": {"type": "DT_FLOAT"}}}, {"name": "Postprocessor/Decode/truediv_4", "op": "Mul", "input": ["Postprocessor/Decode/Exp_1", "Postprocessor/Decode/get_center_coordinates_and_sizes/truediv"], "attr": {"T": {"type": "DT_FLOAT"}}}, {"name": "Postprocessor/Decode/get_center_coordinates_and_sizes/add_1", "op": "AddV2", "input": ["Postprocessor/Decode/get_center_coordinates_and_sizes/truediv_1", "Postprocessor/Decode/get_center_coordinates_and_sizes/unstack:1"], "attr": {"T": {"type": "DT_FLOAT"}}}, {"name": "Postprocessor/Decode/truediv_5", "op": "Mul", "input": ["Postprocessor/Decode/Exp", "Postprocessor/Decode/get_center_coordinates_and_sizes/truediv_1"], "attr": {"T": {"type": "DT_FLOAT"}}}, {"name": "Postprocessor/Decode/add", "op": "AddV2", "input": ["Postprocessor/Decode/get_center_coordinates_and_sizes/add", "Postprocessor/Decode/mul_2"], "attr": {"T": {"type": "DT_FLOAT"}}}, {"name": "Postprocessor/Decode/add_1", "op": "AddV2", "input": ["Postprocessor/Decode/get_center_coordinates_and_sizes/add_1", "Postprocessor/Decode/mul_3"], "attr": {"T": {"type": "DT_FLOAT"}}}, {"name": "Postprocessor/Decode/sub", "op": "Sub", "input": ["Postprocessor/Decode/add", "Postprocessor/Decode/truediv_4"], "attr": {"T": {"type": "DT_FLOAT"}}}, {"name": "Postprocessor/Decode/add_2", "op": "AddV2", "input": ["Postprocessor/Decode/add", "Postprocessor/Decode/truediv_4"], "attr": {"T": {"type": "DT_FLOAT"}}}, {"name": "Postprocessor/Decode/sub_1", "op": "Sub", "input": ["Postprocessor/Decode/add_1", "Postprocessor/Decode/truediv_5"], "attr": {"T": {"type": "DT_FLOAT"}}}, {"name": "Postprocessor/Decode/add_3", "op": "AddV2", "input": ["Postprocessor/Decode/add_1", "Postprocessor/Decode/truediv_5"], "attr": {"T": {"type": "DT_FLOAT"}}}, {"name": "Postprocessor/Decode/stack", "op": "Pack", "input": ["Postprocessor/Decode/sub", "Postprocessor/Decode/sub_1", "Postprocessor/Decode/add_2", "Postprocessor/Decode/add_3"], "attr": {"T": {"type": "DT_FLOAT"}, "axis": {"i": "0"}, "N": {"i": "4"}}}, {"name": "Postprocessor/Decode/transpose_1", "op": "Transpose", "input": ["Postprocessor/Decode/stack", "Postprocessor/Decode/transpose/perm"], "attr": {"Tperm": {"type": "DT_INT32"}, "T": {"type": "DT_FLOAT"}}}, {"name": "Postprocessor/Reshape_2", "op": "Reshape", "input": ["Postprocessor/Decode/transpose_1", "Postprocessor/stack"], "attr": {"T": {"type": "DT_FLOAT"}, "Tshape": {"type": "DT_INT32"}}}, {"name": "Postprocessor/ExpandDims_1", "op": "ExpandDims", "input": ["Postprocessor/Reshape_2", "BoxPredictor_0/stack_1/2"], "attr": {"Tdim": {"type": "DT_INT32"}, "T": {"type": "DT_FLOAT"}}}, {"name": "Postprocessor/BatchMultiClassNonMaxSuppression/map/TensorArrayUnstack/Shape", "op": "Shape", "input": ["Postprocessor/ExpandDims_1"], "attr": {"T": {"type": "DT_FLOAT"}, "out_type": {"type": "DT_INT32"}}}, {"name": "Postprocessor/BatchMultiClassNonMaxSuppression/map/TensorArrayUnstack/strided_slice", "op": "StridedSlice", "input": ["Postprocessor/BatchMultiClassNonMaxSuppression/map/TensorArrayUnstack/Shape", "Postprocessor/BatchMultiClassNonMaxSuppression/map/TensorArrayUnstack_1/strided_slice/stack", "Postprocessor/BatchMultiClassNonMaxSuppression/map/TensorArrayUnstack_1/strided_slice/stack_1", "Postprocessor/BatchMultiClassNonMaxSuppression/map/TensorArrayUnstack_1/strided_slice/stack_1"], "attr": {"shrink_axis_mask": {"i": "1"}, "ellipsis_mask": {"i": "0"}, "begin_mask": {"i": "0"}, "new_axis_mask": {"i": "0"}, "end_mask": {"i": "0"}, "Index": {"type": "DT_INT32"}, "T": {"type": "DT_INT32"}}}, {"name": "Postprocessor/BatchMultiClassNonMaxSuppression/map/TensorArray_4", "op": "TensorArrayV3", "input": ["Postprocessor/BatchMultiClassNonMaxSuppression/map/TensorArrayUnstack/strided_slice"], "attr": {"dtype": {"type": "DT_FLOAT"}, "element_shape": {"shape": {"unknownRank": true}}, "dynamic_size": {"b": false}, "clear_after_read": {"b": true}, "identical_element_shapes": {"b": true}, "tensor_array_name": {"s": ""}}}, {"name": "Postprocessor/BatchMultiClassNonMaxSuppression/map/TensorArray_6", "op": "TensorArrayV3", "input": ["Postprocessor/BatchMultiClassNonMaxSuppression/map/TensorArrayUnstack/strided_slice"], "attr": {"tensor_array_name": {"s": ""}, "dtype": {"type": "DT_FLOAT"}, "element_shape": {"shape": {"unknownRank": true}}, "dynamic_size": {"b": false}, "clear_after_read": {"b": true}, "identical_element_shapes": {"b": true}}}, {"name": "Postprocessor/BatchMultiClassNonMaxSuppression/map/TensorArray_5", "op": "TensorArrayV3", "input": ["Postprocessor/BatchMultiClassNonMaxSuppression/map/TensorArrayUnstack/strided_slice"], "attr": {"element_shape": {"shape": {"unknownRank": true}}, "dynamic_size": {"b": false}, "clear_after_read": {"b": true}, "identical_element_shapes": {"b": true}, "tensor_array_name": {"s": ""}, "dtype": {"type": "DT_FLOAT"}}}, {"name": "Postprocessor/BatchMultiClassNonMaxSuppression/map/TensorArray_8", "op": "TensorArrayV3", "input": ["Postprocessor/BatchMultiClassNonMaxSuppression/map/TensorArrayUnstack/strided_slice"], "attr": {"element_shape": {"shape": {"unknownRank": true}}, "clear_after_read": {"b": true}, "dynamic_size": {"b": false}, "identical_element_shapes": {"b": true}, "tensor_array_name": {"s": ""}, "dtype": {"type": "DT_INT32"}}}, {"name": "Postprocessor/BatchMultiClassNonMaxSuppression/map/TensorArray_1", "op": "TensorArrayV3", "input": ["Postprocessor/BatchMultiClassNonMaxSuppression/map/TensorArrayUnstack/strided_slice"], "attr": {"tensor_array_name": {"s": ""}, "dtype": {"type": "DT_FLOAT"}, "element_shape": {"shape": {"unknownRank": true}}, "clear_after_read": {"b": true}, "dynamic_size": {"b": false}, "identical_element_shapes": {"b": true}}}, {"name": "Postprocessor/BatchMultiClassNonMaxSuppression/map/TensorArrayUnstack/range", "op": "Range", "input": ["Postprocessor/BatchMultiClassNonMaxSuppression/map/TensorArrayStack/range/start", "Postprocessor/BatchMultiClassNonMaxSuppression/map/TensorArrayUnstack/strided_slice", "Postprocessor/BatchMultiClassNonMaxSuppression/map/TensorArrayStack/range/delta"], "attr": {"Tidx": {"type": "DT_INT32"}}}, {"name": "Postprocessor/BatchMultiClassNonMaxSuppression/map/TensorArray", "op": "TensorArrayV3", "input": ["Postprocessor/BatchMultiClassNonMaxSuppression/map/TensorArrayUnstack/strided_slice"], "attr": {"tensor_array_name": {"s": ""}, "dtype": {"type": "DT_FLOAT"}, "element_shape": {"shape": {"unknownRank": true}}, "dynamic_size": {"b": false}, "clear_after_read": {"b": true}, "identical_element_shapes": {"b": true}}}, {"name": "Postprocessor/BatchMultiClassNonMaxSuppression/map/TensorArray_3", "op": "TensorArrayV3", "input": ["Postprocessor/BatchMultiClassNonMaxSuppression/map/TensorArrayUnstack/strided_slice"], "attr": {"tensor_array_name": {"s": ""}, "dtype": {"type": "DT_INT32"}, "element_shape": {"shape": {"unknownRank": true}}, "clear_after_read": {"b": true}, "dynamic_size": {"b": false}, "identical_element_shapes": {"b": true}}}, {"name": "Postprocessor/BatchMultiClassNonMaxSuppression/map/while/Less/Enter", "op": "Enter", "input": ["Postprocessor/BatchMultiClassNonMaxSuppression/map/TensorArrayUnstack/strided_slice"], "attr": {"T": {"type": "DT_INT32"}, "is_constant": {"b": true}, "parallel_iterations": {"i": "32"}, "frame_name": {"s": "UG9zdHByb2Nlc3Nvci9CYXRjaE11bHRpQ2xhc3NOb25NYXhTdXBwcmVzc2lvbi9tYXAvd2hpbGUvd2hpbGVfY29udGV4dA=="}}}, {"name": "ConstantFolding/Postprocessor/BatchMultiClassNonMaxSuppression/ones/packed_const_axis", "op": "Const", "input": ["^Postprocessor/BatchMultiClassNonMaxSuppression/map/TensorArrayUnstack/strided_slice"], "attr": {"value": {"tensor": {"dtype": "DT_INT32", "tensorShape": …
NonMaxSuppression/map/while/PadOrClipBoxList/cond_1/cond/sub/x", "op": "Const", "input": ["^Postprocessor/BatchMultiClassNonMaxSuppression/map/while/PadOrClipBoxList/cond_1/cond/switch_f"], "attr": {"value": {"tensor": {"dtype": "DT_INT32", "tensorShape": {}}}, "dtype": {"type": "DT_INT32"}}}, {"name": "Postprocessor/BatchMultiClassNonMaxSuppression/map/while/PadOrClipBoxList/cond_1/cond/ExpandDims/dim", "op": "Const", "input": ["^Postprocessor/BatchMultiClassNonMaxSuppression/map/while/PadOrClipBoxList/cond_1/cond/switch_f"], "attr": {"dtype": {"type": "DT_INT32"}, "value": {"tensor": {"dtype": "DT_INT32", "tensorShape": {}}}}}, {"name": "Postprocessor/BatchMultiClassNonMaxSuppression/map/while/PadOrClipBoxList/cond_1/cond/strided_slice/Switch", "op": "Switch", "input": ["Postprocessor/BatchMultiClassNonMaxSuppression/map/while/PadOrClipBoxList/cond_1/Shape", "Postprocessor/BatchMultiClassNonMaxSuppression/map/while/PadOrClipBoxList/cond_1/cond/switch_f"], "attr": {"T": {"type": "DT_INT32"}}}, {"name": "Postprocessor/BatchMultiClassNonMaxSuppression/map/while/PadOrClipBoxList/cond_1/GatherV2", "op": "GatherV2", "input": ["Postprocessor/BatchMultiClassNonMaxSuppression/map/while/PadOrClipBoxList/cond_1/Shape/Switch:1", "Postprocessor/BatchMultiClassNonMaxSuppression/map/while/PadOrClipBoxList/cond_1/range", "Postprocessor/BatchMultiClassNonMaxSuppression/map/while/PadOrClipBoxList/cond_1/GatherV2/axis"], "attr": {"Tparams": {"type": "DT_FLOAT"}, "Taxis": {"type": "DT_INT32"}, "batch_dims": {"i": "0"}, "Tindices": {"type": "DT_INT32"}}}, {"name": "Postprocessor/BatchMultiClassNonMaxSuppression/map/while/PadOrClipBoxList/cond_3/cond/sub/Switch", "op": "Switch", "input": ["Postprocessor/BatchMultiClassNonMaxSuppression/map/while/PadOrClipBoxList/cond_3/strided_slice", "Postprocessor/BatchMultiClassNonMaxSuppression/map/while/PadOrClipBoxList/cond_3/cond/switch_f"], "attr": {"T": {"type": "DT_INT32"}}}, {"name": "Postprocessor/BatchMultiClassNonMaxSuppression/map/while/PadOrClipBoxList/cond_3/sub", "op": "Sub", "input": ["Postprocessor/BatchMultiClassNonMaxSuppression/map/while/PadOrClipBoxList/cond_3/sub/x", "Postprocessor/BatchMultiClassNonMaxSuppression/map/while/PadOrClipBoxList/cond_3/strided_slice"], "attr": {"T": {"type": "DT_INT32"}}}, {"name": "Postprocessor/BatchMultiClassNonMaxSuppression/map/while/PadOrClipBoxList/cond_3/cond/switch_t", "op": "Identity", "input": ["Postprocessor/BatchMultiClassNonMaxSuppression/map/while/PadOrClipBoxList/cond_3/cond/Switch:1"], "attr": {"T": {"type": "DT_BOOL"}}}, {"name": "Postprocessor/BatchMultiClassNonMaxSuppression/map/while/PadOrClipBoxList/cond/cond/sub/Switch", "op": "Switch", "input": ["Postprocessor/BatchMultiClassNonMaxSuppression/map/while/PadOrClipBoxList/cond/strided_slice", "Postprocessor/BatchMultiClassNonMaxSuppression/map/while/PadOrClipBoxList/cond/Greater"], "attr": {"T": {"type": "DT_INT32"}}}, {"name": "Postprocessor/BatchMultiClassNonMaxSuppression/map/while/PadOrClipBoxList/cond/sub", "op": "Sub", "input": ["Postprocessor/BatchMultiClassNonMaxSuppression/map/while/PadOrClipBoxList/cond/sub/x", "Postprocessor/BatchMultiClassNonMaxSuppression/map/while/PadOrClipBoxList/cond/strided_slice"], "attr": {"T": {"type": "DT_INT32"}}}, {"name": "Postprocessor/BatchMultiClassNonMaxSuppression/map/while/PadOrClipBoxList/cond/cond/switch_f", "op": "Identity", "input": ["Postprocessor/BatchMultiClassNonMaxSuppression/map/while/PadOrClipBoxList/cond/cond/Switch"], "attr": {"T": {"type": "DT_BOOL"}}}, {"name": "Postprocessor/BatchMultiClassNonMaxSuppression/map/while/PadOrClipBoxList/cond/cond/strided_slice", "op": "StridedSlice", "input": ["Postprocessor/BatchMultiClassNonMaxSuppression/map/while/PadOrClipBoxList/cond/cond/strided_slice/Switch:1", "Postprocessor/BatchMultiClassNonMaxSuppression/map/while/PadOrClipBoxList/cond/cond/strided_slice/stack", "Postprocessor/BatchMultiClassNonMaxSuppression/map/while/PadOrClipBoxList/cond/cond/strided_slice/stack_1", "Postprocessor/BatchMultiClassNonMaxSuppression/map/while/PadOrClipBoxList/cond/cond/strided_slice/stack"], "attr": {"T": {"type": "DT_INT32"}, "Index": {"type": "DT_INT32"}, "shrink_axis_mask": {"i": "0"}, "begin_mask": {"i": "0"}, "ellipsis_mask": {"i": "0"}, "new_axis_mask": {"i": "0"}, "end_mask": {"i": "1"}}}, {"name": "Postprocessor/BatchMultiClassNonMaxSuppression/map/while/PadOrClipBoxList/cond_1/cond/sub/Switch", "op": "Switch", "input": ["Postprocessor/BatchMultiClassNonMaxSuppression/map/while/PadOrClipBoxList/cond_1/strided_slice", "Postprocessor/BatchMultiClassNonMaxSuppression/map/while/PadOrClipBoxList/cond_1/cond/switch_f"], "attr": {"T": {"type": "DT_INT32"}}}, {"name": "Postprocessor/BatchMultiClassNonMaxSuppression/map/while/PadOrClipBoxList/cond_1/sub", "op": "Sub", "input": ["Postprocessor/BatchMultiClassNonMaxSuppression/map/while/PadOrClipBoxList/cond_1/sub/x", "Postprocessor/BatchMultiClassNonMaxSuppression/map/while/PadOrClipBoxList/cond_1/strided_slice"], "attr": {"T": {"type": "DT_INT32"}}}, {"name": "Postprocessor/BatchMultiClassNonMaxSuppression/map/while/PadOrClipBoxList/cond_1/cond/switch_t", "op": "Identity", "input": ["Postprocessor/BatchMultiClassNonMaxSuppression/map/while/PadOrClipBoxList/cond_1/cond/Switch:1"], "attr": {"T": {"type": "DT_BOOL"}}}, {"name": "Postprocessor/BatchMultiClassNonMaxSuppression/map/while/PadOrClipBoxList/cond_3/cond/sub", "op": "Sub", "input": ["Postprocessor/BatchMultiClassNonMaxSuppression/map/while/PadOrClipBoxList/cond_3/cond/sub/x", "Postprocessor/BatchMultiClassNonMaxSuppression/map/while/PadOrClipBoxList/cond_3/cond/sub/Switch"], "attr": {"T": {"type": "DT_INT32"}}}, {"name": "Postprocessor/BatchMultiClassNonMaxSuppression/map/while/PadOrClipBoxList/cond_3/ExpandDims", "op": "ExpandDims", "input": ["Postprocessor/BatchMultiClassNonMaxSuppression/map/while/PadOrClipBoxList/cond_3/sub", "Postprocessor/BatchMultiClassNonMaxSuppression/map/while/PadOrClipBoxList/cond_3/ExpandDims/dim"], "attr": {"Tdim": {"type": "DT_INT32"}, "T": {"type": "DT_INT32"}}}, {"name": "Postprocessor/BatchMultiClassNonMaxSuppression/map/while/PadOrClipBoxList/cond_3/cond/strided_slice/stack_1", "op": "Const", "input": ["^Postprocessor/BatchMultiClassNonMaxSuppression/map/while/PadOrClipBoxList/cond_3/cond/switch_t"], "attr": {"dtype": {"type": "DT_INT32"}, "value": {"tensor": {"dtype": "DT_INT32", "tensorShape": {"dim": [{"size": "1"}]}}}}}, {"name": "Postprocessor/BatchMultiClassNonMaxSuppression/map/while/PadOrClipBoxList/cond_3/cond/strided_slice/stack", "op": "Const", "input": ["^Postprocessor/BatchMultiClassNonMaxSuppression/map/while/PadOrClipBoxList/cond_3/cond/switch_t"], "attr": {"value": {"tensor": {"dtype": "DT_INT32", "tensorShape": {"dim": [{"size": "1"}]}}}, "dtype": {"type": "DT_INT32"}}}, {"name": "Postprocessor/BatchMultiClassNonMaxSuppression/map/while/PadOrClipBoxList/cond_3/cond/concat/axis", "op": "Const", "input": ["^Postprocessor/BatchMultiClassNonMaxSuppression/map/while/PadOrClipBoxList/cond_3/cond/switch_t"], "attr": {"dtype": {"type": "DT_INT32"}, "value": {"tensor": {"dtype": "DT_INT32", "tensorShape": {}}}}}, {"name": "Postprocessor/BatchMultiClassNonMaxSuppression/map/while/PadOrClipBoxList/cond/ExpandDims", "op": "ExpandDims", "input": ["Postprocessor/BatchMultiClassNonMaxSuppression/map/while/PadOrClipBoxList/cond/sub", "Postprocessor/BatchMultiClassNonMaxSuppression/map/while/PadOrClipBoxList/cond/ExpandDims/dim"], "attr": {"Tdim": {"type": "DT_INT32"}, "T": {"type": "DT_INT32"}}}, {"name": "Postprocessor/BatchMultiClassNonMaxSuppression/map/while/PadOrClipBoxList/cond/cond/sub/x", "op": "Const", "input": ["^Postprocessor/BatchMultiClassNonMaxSuppression/map/while/PadOrClipBoxList/cond/cond/switch_f"], "attr": {"value": {"tensor": {"dtype": "DT_INT32", "tensorShape": {}}}, "dtype": {"type": "DT_INT32"}}}, {"name": "Postprocessor/BatchMultiClassNonMaxSuppression/map/while/PadOrClipBoxList/cond/cond/ExpandDims/dim", "op": "Const", "input": ["^Postprocessor/BatchMultiClassNonMaxSuppression/map/while/PadOrClipBoxList/cond/cond/switch_f"], "attr": {"value": {"tensor": {"dtype": "DT_INT32", "tensorShape": {}}}, "dtype": {"type": "DT_INT32"}}}, {"name": "Postprocessor/BatchMultiClassNonMaxSuppression/map/while/PadOrClipBoxList/cond_1/cond/sub", "op": "Sub", "input": ["Postprocessor/BatchMultiClassNonMaxSuppression/map/while/PadOrClipBoxList/cond_1/cond/sub/x", "Postprocessor/BatchMultiClassNonMaxSuppression/map/while/PadOrClipBoxList/cond_1/cond/sub/Switch"], "attr": {"T": {"type": "DT_INT32"}}}, {"name": "Postprocessor/BatchMultiClassNonMaxSuppression/map/while/PadOrClipBoxList/cond_1/ExpandDims", "op": "ExpandDims", "input": ["Postprocessor/BatchMultiClassNonMaxSuppression/map/while/PadOrClipBoxList/cond_1/sub", "Postprocessor/BatchMultiClassNonMaxSuppression/map/while/PadOrClipBoxList/cond_1/ExpandDims/dim"], "attr": {"Tdim": {"type": "DT_INT32"}, "T": {"type": "DT_INT32"}}}, {"name": "Postprocessor/BatchMultiClassNonMaxSuppression/map/while/PadOrClipBoxList/cond_1/cond/strided_slice/stack_1", "op": "Const", "input": ["^Postprocessor/BatchMultiClassNonMaxSuppression/map/while/PadOrClipBoxList/cond_1/cond/switch_t"], "attr": {"value": {"tensor": {"dtype": "DT_INT32", "tensorShape": {"dim": [{"size": "1"}]}}}, "dtype": {"type": "DT_INT32"}}}, {"name": "Postprocessor/BatchMultiClassNonMaxSuppression/map/while/PadOrClipBoxList/cond_1/cond/strided_slice/stack", "op": "Const", "input": ["^Postprocessor/BatchMultiClassNonMaxSuppression/map/while/PadOrClipBoxList/cond_1/cond/switch_t"], "attr": {"value": {"tensor": {"dtype": "DT_INT32", "tensorShape": {"dim": [{"size": "1"}]}}}, "dtype": {"type": "DT_INT32"}}}, {"name": "Postprocessor/BatchMultiClassNonMaxSuppression/map/while/PadOrClipBoxList/cond_1/cond/concat/axis", "op": "Const", "input": ["^Postprocessor/BatchMultiClassNonMaxSuppression/map/while/PadOrClipBoxList/cond_1/cond/switch_t"], "attr": {"value": {"tensor": {"dtype": "DT_INT32", "tensorShape": {}}}, "dtype": {"type": "DT_INT32"}}}, {"name": "Postprocessor/BatchMultiClassNonMaxSuppression/map/while/PadOrClipBoxList/cond_3/cond/ExpandDims", "op": "ExpandDims", "input": ["Postprocessor/BatchMultiClassNonMaxSuppression/map/while/PadOrClipBoxList/cond_3/cond/sub", "Postprocessor/BatchMultiClassNonMaxSuppression/map/while/PadOrClipBoxList/cond_3/cond/ExpandDims/dim"], "attr": {"Tdim": {"type": "DT_INT32"}, "T": {"type": "DT_INT32"}}}, {"name": "Postprocessor/BatchMultiClassNonMaxSuppression/map/while/PadOrClipBoxList/cond_3/cond/concat/Switch", "op": "Switch", "input": ["Postprocessor/BatchMultiClassNonMaxSuppression/map/while/PadOrClipBoxList/cond_3/ExpandDims", "Postprocessor/BatchMultiClassNonMaxSuppression/map/while/PadOrClipBoxList/cond_3/cond/switch_f"], "attr": {"T": {"type": "DT_INT32"}}}, {"name": "Postprocessor/BatchMultiClassNonMaxSuppression/map/while/PadOrClipBoxList/cond_3/cond/strided_slice", "op": "StridedSlice", "input": ["Postprocessor/BatchMultiClassNonMaxSuppression/map/while/PadOrClipBoxList/cond_3/cond/strided_slice/Switch:1", "Postprocessor/BatchMultiClassNonMaxSuppression/map/while/PadOrClipBoxList/cond_3/cond/strided_slice/stack", "Postprocessor/BatchMultiClassNonMaxSuppression/map/while/PadOrClipBoxList/cond_3/cond/strided_slice/stack_1", "Postprocessor/BatchMultiClassNonMaxSuppression/map/while/PadOrClipBoxList/cond_3/cond/strided_slice/stack"], "attr": {"Index": {"type": "DT_INT32"}, "T": {"type": "DT_INT32"}, "shrink_axis_mask": {"i": "0"}, "ellipsis_mask": {"i": "0"}, "begin_mask": {"i": "0"}, "new_axis_mask": {"i": "0"}, "end_mask": {"i": "1"}}}, {"name": "Postprocessor/BatchMultiClassNonMaxSuppression/map/while/PadOrClipBoxList/cond/cond/concat/Switch", "op": "Switch", "input": ["Postprocessor/BatchMultiClassNonMaxSuppression/map/while/PadOrClipBoxList/cond/ExpandDims", "Postprocessor/BatchMultiClassNonMaxSuppression/map/while/PadOrClipBoxList/cond/Greater"], "attr": {"T": {"type": "DT_INT32"}}}, {"name": "Postprocessor/BatchMultiClassNonMaxSuppression/map/while/PadOrClipBoxList/cond/cond/sub", "op": "Sub", "input": ["Postprocessor/BatchMultiClassNonMaxSuppression/map/while/PadOrClipBoxList/cond/cond/sub/x", "Postprocessor/BatchMultiClassNonMaxSuppression/map/while/PadOrClipBoxList/cond/cond/sub/Switch"], "attr": {"T": {"type": "DT_INT32"}}}, {"name": "Postprocessor/BatchMultiClassNonMaxSuppression/map/while/PadOrClipBoxList/cond_1/cond/ExpandDims", "op": "ExpandDims", "input": ["Postprocessor/BatchMultiClassNonMaxSuppression/map/while/PadOrClipBoxList/cond_1/cond/sub", "Postprocessor/BatchMultiClassNonMaxSuppression/map/while/PadOrClipBoxList/cond_1/cond/ExpandDims/dim"], "attr": {"Tdim": {"type": "DT_INT32"}, "T": {"type": "DT_INT32"}}}, {"name": "Postprocessor/BatchMultiClassNonMaxSuppression/map/while/PadOrClipBoxList/cond_1/cond/concat/Switch", "op": "Switch", "input": ["Postprocessor/BatchMultiClassNonMaxSuppression/map/while/PadOrClipBoxList/cond_1/ExpandDims", "Postprocessor/BatchMultiClassNonMaxSuppression/map/while/PadOrClipBoxList/cond_1/cond/switch_f"], "attr": {"T": {"type": "DT_INT32"}}}, {"name": "Postprocessor/BatchMultiClassNonMaxSuppression/map/while/PadOrClipBoxList/cond_1/cond/strided_slice", "op": "StridedSlice", "input": ["Postprocessor/BatchMultiClassNonMaxSuppression/map/while/PadOrClipBoxList/cond_1/cond/strided_slice/Switch:1", "Postprocessor/BatchMultiClassNonMaxSuppression/map/while/PadOrClipBoxList/cond_1/cond/strided_slice/stack", "Postprocessor/BatchMultiClassNonMaxSuppression/map/while/PadOrClipBoxList/cond_1/cond/strided_slice/stack_1", "Postprocessor/BatchMultiClassNonMaxSuppression/map/while/PadOrClipBoxList/cond_1/cond/strided_slice/stack"], "attr": {"shrink_axis_mask": {"i": "0"}, "ellipsis_mask": {"i": "0"}, "begin_mask": {"i": "0"}, "new_axis_mask": {"i": "0"}, "end_mask": {"i": "1"}, "Index": {"type": "DT_INT32"}, "T": {"type": "DT_INT32"}}}, {"name": "Postprocessor/BatchMultiClassNonMaxSuppression/map/while/PadOrClipBoxList/cond_3/cond/concat", "op": "ConcatV2", "input": ["Postprocessor/BatchMultiClassNonMaxSuppression/map/while/PadOrClipBoxList/cond_3/cond/concat/Switch:1", "Postprocessor/BatchMultiClassNonMaxSuppression/map/while/PadOrClipBoxList/cond_3/cond/strided_slice", "Postprocessor/BatchMultiClassNonMaxSuppression/map/while/PadOrClipBoxList/cond_3/cond/concat/axis"], "attr": {"Tidx": {"type": "DT_INT32"}, "T": {"type": "DT_INT32"}, "N": {"i": "2"}}}, {"name": "Postprocessor/BatchMultiClassNonMaxSuppression/map/while/PadOrClipBoxList/cond/cond/concat", "op": "ConcatV2", "input": ["Postprocessor/BatchMultiClassNonMaxSuppression/map/while/PadOrClipBoxList/cond/cond/concat/Switch:1", "Postprocessor/BatchMultiClassNonMaxSuppression/map/while/PadOrClipBoxList/cond/cond/strided_slice", "Postprocessor/BatchMultiClassNonMaxSuppression/map/while/PadOrClipBoxList/cond/cond/concat/axis"], "attr": {"Tidx": {"type": "DT_INT32"}, "T": {"type": "DT_INT32"}, "N": {"i": "2"}}}, {"name": "Postprocessor/BatchMultiClassNonMaxSuppression/map/while/PadOrClipBoxList/cond/cond/ExpandDims", "op": "ExpandDims", "input": ["Postprocessor/BatchMultiClassNonMaxSuppression/map/while/PadOrClipBoxList/cond/cond/sub", "Postprocessor/BatchMultiClassNonMaxSuppression/map/while/PadOrClipBoxList/cond/cond/ExpandDims/dim"], "attr": {"Tdim": {"type": "DT_INT32"}, "T": {"type": "DT_INT32"}}}, {"name": "Postprocessor/BatchMultiClassNonMaxSuppression/map/while/PadOrClipBoxList/cond_1/cond/concat", "op": "ConcatV2", "input": ["Postprocessor/BatchMultiClassNonMaxSuppression/map/while/PadOrClipBoxList/cond_1/cond/concat/Switch:1", "Postprocessor/BatchMultiClassNonMaxSuppression/map/while/PadOrClipBoxList/cond_1/cond/strided_slice", "Postprocessor/BatchMultiClassNonMaxSuppression/map/while/PadOrClipBoxList/cond_1/cond/concat/axis"], "attr": {"T": {"type": "DT_INT32"}, "N": {"i": "2"}, "Tidx": {"type": "DT_INT32"}}}, {"name": "Postprocessor/BatchMultiClassNonMaxSuppression/map/while/PadOrClipBoxList/cond_3/cond/Merge", "op": "Merge", "input": ["Postprocessor/BatchMultiClassNonMaxSuppression/map/while/PadOrClipBoxList/cond_3/cond/ExpandDims", "Postprocessor/BatchMultiClassNonMaxSuppression/map/while/PadOrClipBoxList/cond_3/cond/concat"], "attr": {"T": {"type": "DT_INT32"}, "N": {"i": "2"}}}, {"name": "Postprocessor/BatchMultiClassNonMaxSuppression/map/while/PadOrClipBoxList/cond/cond/Merge", "op": "Merge", "input": ["Postprocessor/BatchMultiClassNonMaxSuppression/map/while/PadOrClipBoxList/cond/cond/ExpandDims", "Postprocessor/BatchMultiClassNonMaxSuppression/map/while/PadOrClipBoxList/cond/cond/concat"], "attr": {"T": {"type": "DT_INT32"}, "N": {"i": "2"}}}, {"name": "Postprocessor/BatchMultiClassNonMaxSuppression/map/while/PadOrClipBoxList/cond_1/cond/Merge", "op": "Merge", "input": ["Postprocessor/BatchMultiClassNonMaxSuppression/map/while/PadOrClipBoxList/cond_1/cond/ExpandDims", "Postprocessor/BatchMultiClassNonMaxSuppression/map/while/PadOrClipBoxList/cond_1/cond/concat"], "attr": {"T": {"type": "DT_INT32"}, "N": {"i": "2"}}}, {"name": "Postprocessor/BatchMultiClassNonMaxSuppression/map/while/PadOrClipBoxList/cond_3/zeros", "op": "Fill", "input": ["Postprocessor/BatchMultiClassNonMaxSuppression/map/while/PadOrClipBoxList/cond_3/cond/Merge", "Postprocessor/BatchMultiClassNonMaxSuppression/map/while/PadOrClipBoxList/cond_3/zeros/Const"], "attr": {"T": {"type": "DT_FLOAT"}, "index_type": {"type": "DT_INT32"}}}, {"name": "Postprocessor/BatchMultiClassNonMaxSuppression/map/while/PadOrClipBoxList/cond/zeros", "op": "Fill", "input": ["Postprocessor/BatchMultiClassNonMaxSuppression/map/while/PadOrClipBoxList/cond/cond/Merge", "Postprocessor/BatchMultiClassNonMaxSuppression/map/while/PadOrClipBoxList/cond/zeros/Const"], "attr": {"T": {"type": "DT_FLOAT"}, "index_type": {"type": "DT_INT32"}}}, {"name": "Postprocessor/BatchMultiClassNonMaxSuppression/map/while/PadOrClipBoxList/cond_1/zeros", "op": "Fill", "input": ["Postprocessor/BatchMultiClassNonMaxSuppression/map/while/PadOrClipBoxList/cond_1/cond/Merge", "Postprocessor/BatchMultiClassNonMaxSuppression/map/while/PadOrClipBoxList/cond_1/zeros/Const"], "attr": {"T": {"type": "DT_FLOAT"}, "index_type": {"type": "DT_INT32"}}}, {"name": "Postprocessor/BatchMultiClassNonMaxSuppression/map/while/PadOrClipBoxList/cond_3/concat", "op": "ConcatV2", "input": ["Postprocessor/BatchMultiClassNonMaxSuppression/map/while/PadOrClipBoxList/cond_3/Shape/Switch", "Postprocessor/BatchMultiClassNonMaxSuppression/map/while/PadOrClipBoxList/cond_3/zeros", "Postprocessor/BatchMultiClassNonMaxSuppression/map/while/PadOrClipBoxList/cond_3/ExpandDims/dim"], "attr": {"T": {"type": "DT_FLOAT"}, "N": {"i": "2"}, "Tidx": {"type": "DT_INT32"}}}, {"name": "Postprocessor/BatchMultiClassNonMaxSuppression/map/while/PadOrClipBoxList/cond/concat", "op": "ConcatV2", "input": ["Postprocessor/BatchMultiClassNonMaxSuppression/map/while/PadOrClipBoxList/cond/Shape/Switch", "Postprocessor/BatchMultiClassNonMaxSuppression/map/while/PadOrClipBoxList/cond/zeros", "Postprocessor/BatchMultiClassNonMaxSuppression/map/while/PadOrClipBoxList/cond/ExpandDims/dim"], "attr": {"Tidx": {"type": "DT_INT32"}, "T": {"type": "DT_FLOAT"}, "N": {"i": "2"}}}, {"name": "Postprocessor/BatchMultiClassNonMaxSuppression/map/while/PadOrClipBoxList/cond_1/concat", "op": "ConcatV2", "input": ["Postprocessor/BatchMultiClassNonMaxSuppression/map/while/PadOrClipBoxList/cond_1/Shape/Switch", "Postprocessor/BatchMultiClassNonMaxSuppression/map/while/PadOrClipBoxList/cond_1/zeros", "Postprocessor/BatchMultiClassNonMaxSuppression/map/while/PadOrClipBoxList/cond_1/ExpandDims/dim"], "attr": {"T": {"type": "DT_FLOAT"}, "N": {"i": "2"}, "Tidx": {"type": "DT_INT32"}}}, {"name": "Postprocessor/BatchMultiClassNonMaxSuppression/map/while/PadOrClipBoxList/cond_3/Merge", "op": "Merge", "input": ["Postprocessor/BatchMultiClassNonMaxSuppression/map/while/PadOrClipBoxList/cond_3/concat", "Postprocessor/BatchMultiClassNonMaxSuppression/map/while/PadOrClipBoxList/cond_3/GatherV2"], "attr": {"T": {"type": "DT_FLOAT"}, "N": {"i": "2"}}}, {"name": "Postprocessor/BatchMultiClassNonMaxSuppression/map/while/PadOrClipBoxList/cond/Merge", "op": "Merge", "input": ["Postprocessor/BatchMultiClassNonMaxSuppression/map/while/PadOrClipBoxList/cond/concat", "Postprocessor/BatchMultiClassNonMaxSuppression/map/while/PadOrClipBoxList/cond/GatherV2"], "attr": {"N": {"i": "2"}, "T": {"type": "DT_FLOAT"}}}, {"name": "Postprocessor/BatchMultiClassNonMaxSuppression/map/while/PadOrClipBoxList/cond_1/Merge", "op": "Merge", "input": ["Postprocessor/BatchMultiClassNonMaxSuppression/map/while/PadOrClipBoxList/cond_1/concat", "Postprocessor/BatchMultiClassNonMaxSuppression/map/while/PadOrClipBoxList/cond_1/GatherV2"], "attr": {"T": {"type": "DT_FLOAT"}, "N": {"i": "2"}}}, {"name": "Postprocessor/BatchMultiClassNonMaxSuppression/map/while/TensorArrayWrite_2/TensorArrayWriteV3", "op": "TensorArrayWriteV3", "input": ["Postprocessor/BatchMultiClassNonMaxSuppression/map/while/TensorArrayWrite_2/TensorArrayWriteV3/Enter", "Postprocessor/BatchMultiClassNonMaxSuppression/map/while/Switch_1:1", "Postprocessor/BatchMultiClassNonMaxSuppression/map/while/PadOrClipBoxList/cond_3/Merge", "Postprocessor/BatchMultiClassNonMaxSuppression/map/while/Switch_4:1"], "attr": {"T": {"type": "DT_FLOAT"}}}, {"name": "Postprocessor/BatchMultiClassNonMaxSuppression/map/while/TensorArrayWrite/TensorArrayWriteV3", "op": "TensorArrayWriteV3", "input": ["Postprocessor/BatchMultiClassNonMaxSuppression/map/while/TensorArrayWrite/TensorArrayWriteV3/Enter", "Postprocessor/BatchMultiClassNonMaxSuppression/map/while/Switch_1:1", "Postprocessor/BatchMultiClassNonMaxSuppression/map/while/PadOrClipBoxList/cond/Merge", "Postprocessor/BatchMultiClassNonMaxSuppression/map/while/Switch_2:1"], "attr": {"T": {"type": "DT_FLOAT"}}}, {"name": "Postprocessor/BatchMultiClassNonMaxSuppression/map/while/TensorArrayWrite_1/TensorArrayWriteV3", "op": "TensorArrayWriteV3", "input": ["Postprocessor/BatchMultiClassNonMaxSuppression/map/while/TensorArrayWrite_1/TensorArrayWriteV3/Enter", "Postprocessor/BatchMultiClassNonMaxSuppression/map/while/Switch_1:1", "Postprocessor/BatchMultiClassNonMaxSuppression/map/while/PadOrClipBoxList/cond_1/Merge", "Postprocessor/BatchMultiClassNonMaxSuppression/map/while/Switch_3:1"], "attr": {"T": {"type": "DT_FLOAT"}}}, {"name": "Postprocessor/BatchMultiClassNonMaxSuppression/map/while/NextIteration_4", "op": "NextIteration", "input": ["Postprocessor/BatchMultiClassNonMaxSuppression/map/while/TensorArrayWrite_2/TensorArrayWriteV3"], "attr": {"T": {"type": "DT_FLOAT"}}}, {"name": "Postprocessor/BatchMultiClassNonMaxSuppression/map/while/NextIteration_2", "op": "NextIteration", "input": ["Postprocessor/BatchMultiClassNonMaxSuppression/map/while/TensorArrayWrite/TensorArrayWriteV3"], "attr": {"T": {"type": "DT_FLOAT"}}}, {"name": "Postprocessor/BatchMultiClassNonMaxSuppression/map/while/NextIteration_3", "op": "NextIteration", "input": ["Postprocessor/BatchMultiClassNonMaxSuppression/map/while/TensorArrayWrite_1/TensorArrayWriteV3"], "attr": {"T": {"type": "DT_FLOAT"}}}], "versions": {"producer": 175}}, "weightsManifest": [{"paths": ["group1-shard1of6.bin", "group1-shard2of6.bin", "group1-shard3of6.bin", "group1-shard4of6.bin", "group1-shard5of6.bin", "group1-shard6of6.bin"], "weights": [{"name": "BoxPredictor_0/ClassPredictor/weights", "shape": [1, 1, 512, 6], "dtype": "float32"}, {"name": "BoxPredictor_0/ClassPredictor/biases", "shape": [6], "dtype": "float32"}, {"name": "BoxPredictor_1/ClassPredictor/weights", "shape": [1, 1, 1024, 12], "dtype": "float32"}, {"name": "BoxPredictor_1/ClassPredictor/biases", "shape": [12], "dtype": "float32"}, {"name": "BoxPredictor_2/ClassPredictor/weights", "shape": [1, 1, 512, 12], "dtype": "float32"}, {"name": "BoxPredictor_2/ClassPredictor/biases", "shape": [12], "dtype": "float32"}, {"name": "BoxPredictor_3/ClassPredictor/weights", "shape": [1, 1, 256, 12], "dtype": "float32"}, {"name": "BoxPredictor_3/ClassPredictor/biases", "shape": [12], "dtype": "float32"}, {"name": "BoxPredictor_4/ClassPredictor/weights", "shape": [1, 1, 256, 12], "dtype": "float32"}, {"name": "BoxPredictor_4/ClassPredictor/biases", "shape": [12], "dtype": "float32"}, {"name": "BoxPredictor_5/ClassPredictor/weights", "shape": [1, 1, 128, 12], "dtype": "float32"}, {"name": "BoxPredictor_5/ClassPredictor/biases", "shape": [12], "dtype": "float32"}, {"name": "Postprocessor/Slice/begin", "shape": [3], "dtype": "int32"}, {"name": "Postprocessor/Slice/size", "shape": [3], "dtype": "int32"}, {"name": "Postprocessor/Const", "shape": [4], "dtype": "float32"}, {"name": "ConstantFolding/Postprocessor/Decode/truediv_recip", "shape": [], "dtype": "float32"}, {"name": "ConstantFolding/Postprocessor/Decode/truediv_2_recip", "shape": [], "dtype": "float32"}, {"name": "MultipleGridAnchorGenerator/Reshape", "shape": [1083, 2], "dtype": "float32"}, {"name": "MultipleGridAnchorGenerator/truediv_14", "shape": [3], "dtype": "float32"}, {"name": "MultipleGridAnchorGenerator/mul_15", "shape": [3], "dtype": "float32"}, {"name": "MultipleGridAnchorGenerator/Meshgrid_2/ExpandedShape/concat", "shape": [3], "dtype": "int32"}, {"name": "MultipleGridAnchorGenerator/Meshgrid_2/ExpandedShape_1/concat", "shape": [3], "dtype": "int32"}, {"name": "MultipleGridAnchorGenerator/Reshape_2", "shape": [600, 2], "dtype": "float32"}, {"name": "MultipleGridAnchorGenerator/truediv_15", "shape": [6], "dtype": "float32"}, {"name": "MultipleGridAnchorGenerator/mul_22", "shape": [6], "dtype": "float32"}, {"name": "MultipleGridAnchorGenerator/Meshgrid_5/ExpandedShape_1/concat", "shape": [3], "dtype": "int32"}, {"name": "MultipleGridAnchorGenerator/Reshape_4", "shape": [150, 2], "dtype": "float32"}, {"name": "MultipleGridAnchorGenerator/truediv_16", "shape": [6], "dtype": "float32"}, {"name": "MultipleGridAnchorGenerator/mul_29", "shape": [6], "dtype": "float32"}, {"name": "MultipleGridAnchorGenerator/Meshgrid_8/ExpandedShape_1/concat", "shape": [3], "dtype": "int32"}, {"name": "MultipleGridAnchorGenerator/Reshape_6", "shape": [54, 2], "dtype": "float32"}, {"name": "MultipleGridAnchorGenerator/truediv_17", "shape": [6], "dtype": "float32"}, {"name": "MultipleGridAnchorGenerator/mul_36", "shape": [6], "dtype": "float32"}, {"name": "MultipleGridAnchorGenerator/Meshgrid_11/ExpandedShape_1/concat", "shape": [3], "dtype": "int32"}, {"name": "MultipleGridAnchorGenerator/Reshape_8", "shape": [24, 2], "dtype": "float32"}, {"name": "MultipleGridAnchorGenerator/truediv_18", "shape": [6], "dtype": "float32"}, {"name": "MultipleGridAnchorGenerator/mul_43", "shape": [6], "dtype": "float32"}, {"name": "MultipleGridAnchorGenerator/Meshgrid_14/ExpandedShape_1/concat", "shape": [3], "dtype": "int32"}, {"name": "MultipleGridAnchorGenerator/Reshape_10", "shape": [6, 2], "dtype": "float32"}, {"name": "MultipleGridAnchorGenerator/truediv_19", "shape": [6], "dtype": "float32"}, {"name": "MultipleGridAnchorGenerator/mul_50", "shape": [6], "dtype": "float32"}, {"name": "MultipleGridAnchorGenerator/Meshgrid_5/ExpandedShape/concat", "shape": [3], "dtype": "int32"}, {"name": "MultipleGridAnchorGenerator/Reshape_1/shape", "shape": [2], "dtype": "int32"}, {"name": "MultipleGridAnchorGenerator/mul_19/x", "shape": [], "dtype": "float32"}, {"name": "Postprocessor/Reshape_1/shape", "shape": [2], "dtype": "int32"}, {"name": "Postprocessor/Decode/transpose/perm", "shape": [2], "dtype": "int32"}, {"name": "BoxPredictor_0/BoxEncodingPredictor/weights", "shape": [1, 1, 512, 12], "dtype": "float32"}, {"name": "BoxPredictor_0/stack_1/1", "shape": [], "dtype": "int32"}, {"name": "BoxPredictor_1/BoxEncodingPredictor/weights", "shape": [1, 1, 1024, 24], "dtype": "float32"}, {"name": "BoxPredictor_1/BoxEncodingPredictor/biases", "shape": [24], "dtype": "float32"}, {"name": "BoxPredictor_1/stack_1/1", "shape": [], "dtype": "int32"}, {"name": "BoxPredictor_2/BoxEncodingPredictor/weights", "shape": [1, 1, 512, 24], "dtype": "float32"}, {"name": "BoxPredictor_2/BoxEncodingPredictor/biases", "shape": [24], "dtype": "float32"}, {"name": "BoxPredictor_2/stack_1/1", "shape": [], "dtype": "int32"}, {"name": "BoxPredictor_3/BoxEncodingPredictor/weights", "shape": [1, 1, 256, 24], "dtype": "float32"}, {"name": "BoxPredictor_3/BoxEncodingPredictor/biases", "shape": [24], "dtype": "float32"}, {"name": "BoxPredictor_3/stack_1/1", "shape": [], "dtype": "int32"}, {"name": "BoxPredictor_4/BoxEncodingPredictor/weights", "shape": [1, 1, 256, 24], "dtype": "float32"}, {"name": "BoxPredictor_4/BoxEncodingPredictor/biases", "shape": [24], "dtype": "float32"}, {"name": "BoxPredictor_4/stack_1/1", "shape": [], "dtype": "int32"}, {"name": "BoxPredictor_5/BoxEncodingPredictor/weights", "shape": [1, 1, 128, 24], "dtype": "float32"}, {"name": "BoxPredictor_5/BoxEncodingPredictor/biases", "shape": [24], "dtype": "float32"}, {"name": "FeatureExtractor/MobilenetV1/Conv2d_1_depthwise/depthwise_weights", "shape": [3, 3, 32, 1], "dtype": "float32"}, {"name": "FeatureExtractor/MobilenetV1/Conv2d_2_depthwise/depthwise_weights", "shape": [3, 3, 64, 1], "dtype": "float32"}, {"name": "FeatureExtractor/MobilenetV1/Conv2d_3_depthwise/depthwise_weights", "shape": [3, 3, 128, 1], "dtype": "float32"}, {"name": "FeatureExtractor/MobilenetV1/Conv2d_4_depthwise/depthwise_weights", "shape": [3, 3, 128, 1], "dtype": "float32"}, {"name": "FeatureExtractor/MobilenetV1/Conv2d_5_depthwise/depthwise_weights", "shape": [3, 3, 256, 1], "dtype": "float32"}, {"name": "FeatureExtractor/MobilenetV1/Conv2d_6_depthwise/depthwise_weights", "shape": [3, 3, 256, 1], "dtype": "float32"}, {"name": "FeatureExtractor/MobilenetV1/Conv2d_7_depthwise/depthwise_weights", "shape": [3, 3, 512, 1], "dtype": "float32"}, {"name": "FeatureExtractor/MobilenetV1/Conv2d_8_depthwise/depthwise_weights", "shape": [3, 3, 512, 1], "dtype": "float32"}, {"name": "FeatureExtractor/MobilenetV1/Conv2d_9_depthwise/depthwise_weights", "shape": [3, 3, 512, 1], "dtype": "float32"}, {"name": "FeatureExtractor/MobilenetV1/Conv2d_10_depthwise/depthwise_weights", "shape": [3, 3, 512, 1], "dtype": "float32"}, {"name": "FeatureExtractor/MobilenetV1/Conv2d_11_depthwise/depthwise_weights", "shape": [3, 3, 512, 1], "dtype": "float32"}, {"name": "FeatureExtractor/MobilenetV1/Conv2d_12_depthwise/depthwise_weights", "shape": [3, 3, 512, 1], "dtype": "float32"}, {"name": "FeatureExtractor/MobilenetV1/Conv2d_13_depthwise/depthwise_weights", "shape": [3, 3, 1024, 1], "dtype": "float32"}, {"name": "Postprocessor/BatchMultiClassNonMaxSuppression/map/TensorArrayStack/range/start", "shape": [], "dtype": "int32"}, {"name": "Preprocessor/mul/x", "shape": [], "dtype": "float32"}, {"name": "add_6/y", "shape": [], "dtype": "float32"}, {"name": "strided_slice_6/stack_1", "shape": [1], "dtype": "int32"}, {"name": "strided_slice_7/stack_1", "shape": [1], "dtype": "int32"}, {"name": "BoxPredictor_5/stack_1/1", "shape": [], "dtype": "int32"}, {"name": "Postprocessor/BatchMultiClassNonMaxSuppression/map/TensorArrayStack/range/delta", "shape": [], "dtype": "int32"}, {"name": "Postprocessor/BatchMultiClassNonMaxSuppression/mul/y", "shape": [], "dtype": "int32"}, {"name": "BoxPredictor_0/stack/3", "shape": [], "dtype": "int32"}, {"name": "BoxPredictor_0/stack_1/2", "shape": [], "dtype": "int32"}, {"name": "Postprocessor/BatchMultiClassNonMaxSuppression/map/TensorArrayUnstack_1/strided_slice/stack", "shape": [1], "dtype": "int32"}, {"name": "Postprocessor/BatchMultiClassNonMaxSuppression/map/TensorArrayUnstack_1/strided_slice/stack_1", "shape": [1], "dtype": "int32"}, {"name": "Preprocessor/map/while/ResizeImage/resize/ExpandDims/dim", "shape": [], "dtype": "int32"}, {"name": "Preprocessor/map/while/ResizeImage/resize/size", "shape": [2], "dtype": "int32"}, {"name": "Preprocessor/map/while/add/y", "shape": [], "dtype": "int32"}, {"name": "FeatureExtractor/MobilenetV1/MobilenetV1/Conv2d_13_depthwise/BatchNorm/batchnorm_1/mul", "shape": [1024], "dtype": "float32"}, {"name": "FeatureExtractor/MobilenetV1/MobilenetV1/Conv2d_12_depthwise/BatchNorm/batchnorm_1/mul", "shape": [512], "dtype": "float32"}, {"name": "FeatureExtractor/MobilenetV1/MobilenetV1/Conv2d_11_depthwise/BatchNorm/batchnorm_1/mul", "shape": [512], "dtype": "float32"}, {"name": "FeatureExtractor/MobilenetV1/MobilenetV1/Conv2d_10_depthwise/BatchNorm/batchnorm_1/mul", "shape": [512], "dtype": "float32"}, {"name": "FeatureExtractor/MobilenetV1/MobilenetV1/Conv2d_9_depthwise/BatchNorm/batchnorm_1/mul", "shape": [512], "dtype": "float32"}, {"name": "FeatureExtractor/MobilenetV1/MobilenetV1/Conv2d_8_depthwise/BatchNorm/batchnorm_1/mul", "shape": [512], "dtype": "float32"}, {"name": "FeatureExtractor/MobilenetV1/MobilenetV1/Conv2d_7_depthwise/BatchNorm/batchnorm_1/mul", "shape": [512], "dtype": "float32"}, {"name": "FeatureExtractor/MobilenetV1/MobilenetV1/Conv2d_6_depthwise/BatchNorm/batchnorm_1/mul", "shape": [256], "dtype": "float32"}, {"name": "FeatureExtractor/MobilenetV1/MobilenetV1/Conv2d_5_depthwise/BatchNorm/batchnorm_1/mul", "shape": [256], "dtype": "float32"}, {"name": "FeatureExtractor/MobilenetV1/MobilenetV1/Conv2d_4_depthwise/BatchNorm/batchnorm_1/mul", "shape": [128], "dtype": "float32"}, {"name": "FeatureExtractor/MobilenetV1/MobilenetV1/Conv2d_3_depthwise/BatchNorm/batchnorm_1/mul", "shape": [128], "dtype": "float32"}, {"name": "FeatureExtractor/MobilenetV1/MobilenetV1/Conv2d_2_depthwise/BatchNorm/batchnorm_1/mul", "shape": [64], "dtype": "float32"}, {"name": "FeatureExtractor/MobilenetV1/MobilenetV1/Conv2d_1_depthwise/BatchNorm/batchnorm_1/mul", "shape": [32], "dtype": "float32"}, {"name": "FeatureExtractor/MobilenetV1/MobilenetV1/Conv2d_0/Conv2D/merged_input", "shape": [3, 3, 3, 32], "dtype": "float32"}, {"name": "FeatureExtractor/MobilenetV1/MobilenetV1/Conv2d_0/BatchNorm/batchnorm_1/sub", "shape": [32], "dtype": "float32"}, {"name": "FeatureExtractor/MobilenetV1/MobilenetV1/Conv2d_1_depthwise/BatchNorm/batchnorm_1/sub", "shape": [32], "dtype": "float32"}, {"name": "FeatureExtractor/MobilenetV1/MobilenetV1/Conv2d_1_pointwise/Conv2D/merged_input", "shape": [1, 1, 32, 64], "dtype": "float32"}, {"name": "FeatureExtractor/MobilenetV1/MobilenetV1/Conv2d_1_pointwise/BatchNorm/batchnorm_1/sub", "shape": [64], "dtype": "float32"}, {"name": "FeatureExtractor/MobilenetV1/MobilenetV1/Conv2d_2_depthwise/BatchNorm/batchnorm_1/sub", "shape": [64], "dtype": "float32"}, {"name": "FeatureExtractor/MobilenetV1/MobilenetV1/Conv2d_2_pointwise/Conv2D/merged_input", "shape": [1, 1, 64, 128], "dtype": "float32"}, {"name": "FeatureExtractor/MobilenetV1/MobilenetV1/Conv2d_2_pointwise/BatchNorm/batchnorm_1/sub", "shape": [128], "dtype": "float32"}, {"name": "FeatureExtractor/MobilenetV1/MobilenetV1/Conv2d_3_depthwise/BatchNorm/batchnorm_1/sub", "shape": [128], "dtype": "float32"}, {"name": "FeatureExtractor/MobilenetV1/MobilenetV1/Conv2d_3_pointwise/Conv2D/merged_input", "shape": [1, 1, 128, 128], "dtype": "float32"}, {"name": "FeatureExtractor/MobilenetV1/MobilenetV1/Conv2d_3_pointwise/BatchNorm/batchnorm_1/sub", "shape": [128], "dtype": "float32"}, {"name": "FeatureExtractor/MobilenetV1/MobilenetV1/Conv2d_4_depthwise/BatchNorm/batchnorm_1/sub", "shape": [128], "dtype": "float32"}, {"name": "FeatureExtractor/MobilenetV1/MobilenetV1/Conv2d_4_pointwise/Conv2D/merged_input", "shape": [1, 1, 128, 256], "dtype": "float32"}, {"name": "FeatureExtractor/MobilenetV1/MobilenetV1/Conv2d_4_pointwise/BatchNorm/batchnorm_1/sub", "shape": [256], "dtype": "float32"}, {"name": "FeatureExtractor/MobilenetV1/MobilenetV1/Conv2d_5_depthwise/BatchNorm/batchnorm_1/sub", "shape": [256], "dtype": "float32"}, {"name": "FeatureExtractor/MobilenetV1/MobilenetV1/Conv2d_5_pointwise/Conv2D/merged_input", "shape": [1, 1, 256, 256], "dtype": "float32"}, {"name": "FeatureExtractor/MobilenetV1/MobilenetV1/Conv2d_5_pointwise/BatchNorm/batchnorm_1/sub", "shape": [256], "dtype": "float32"}, {"name": "FeatureExtractor/MobilenetV1/MobilenetV1/Conv2d_6_depthwise/BatchNorm/batchnorm_1/sub", "shape": [256], "dtype": "float32"}, {"name": "FeatureExtractor/MobilenetV1/MobilenetV1/Conv2d_6_pointwise/Conv2D/merged_input", "shape": [1, 1, 256, 512], "dtype": "float32"}, {"name": "FeatureExtractor/MobilenetV1/MobilenetV1/Conv2d_6_pointwise/BatchNorm/batchnorm_1/sub", "shape": [512], "dtype": "float32"}, {"name": "FeatureExtractor/MobilenetV1/MobilenetV1/Conv2d_7_depthwise/BatchNorm/batchnorm_1/sub", "shape": [512], "dtype": "float32"}, {"name": "FeatureExtractor/MobilenetV1/MobilenetV1/Conv2d_7_pointwise/Conv2D/merged_input", "shape": [1, 1, 512, 512], "dtype": "float32"}, {"name": "FeatureExtractor/MobilenetV1/MobilenetV1/Conv2d_7_pointwise/BatchNorm/batchnorm_1/sub", "shape": [512], "dtype": "float32"}, {"name": "FeatureExtractor/MobilenetV1/MobilenetV1/Conv2d_8_depthwise/BatchNorm/batchnorm_1/sub", "shape": [512], "dtype": "float32"}, {"name": "FeatureExtractor/MobilenetV1/MobilenetV1/Conv2d_8_pointwise/Conv2D/merged_input", "shape": [1, 1, 512, 512], "dtype": "float32"}, {"name": "FeatureExtractor/MobilenetV1/MobilenetV1/Conv2d_8_pointwise/BatchNorm/batchnorm_1/sub", "shape": [512], "dtype": "float32"}, {"name": "FeatureExtractor/MobilenetV1/MobilenetV1/Conv2d_9_depthwise/BatchNorm/batchnorm_1/sub", "shape": [512], "dtype": "float32"}, {"name": "FeatureExtractor/MobilenetV1/MobilenetV1/Conv2d_9_pointwise/Conv2D/merged_input", "shape": [1, 1, 512, 512], "dtype": "float32"}, {"name": "FeatureExtractor/MobilenetV1/MobilenetV1/Conv2d_9_pointwise/BatchNorm/batchnorm_1/sub", "shape": [512], "dtype": "float32"}, {"name": "FeatureExtractor/MobilenetV1/MobilenetV1/Conv2d_10_depthwise/BatchNorm/batchnorm_1/sub", "shape": [512], "dtype": "float32"}, {"name": "FeatureExtractor/MobilenetV1/MobilenetV1/Conv2d_10_pointwise/Conv2D/merged_input", "shape": [1, 1, 512, 512], "dtype": "float32"}, {"name": "FeatureExtractor/MobilenetV1/MobilenetV1/Conv2d_10_pointwise/BatchNorm/batchnorm_1/sub", "shape": [512], "dtype": "float32"}, {"name": "FeatureExtractor/MobilenetV1/MobilenetV1/Conv2d_11_depthwise/BatchNorm/batchnorm_1/sub", "shape": [512], "dtype": "float32"}, {"name": "FeatureExtractor/MobilenetV1/MobilenetV1/Conv2d_11_pointwise/Conv2D/merged_input", "shape": [1, 1, 512, 512], "dtype": "float32"}, {"name": "FeatureExtractor/MobilenetV1/MobilenetV1/Conv2d_11_pointwise/BatchNorm/batchnorm_1/sub", "shape": [512], "dtype": "float32"}, {"name": "FeatureExtractor/MobilenetV1/MobilenetV1/Conv2d_12_depthwise/BatchNorm/batchnorm_1/sub", "shape": [512], "dtype": "float32"}, {"name": "FeatureExtractor/MobilenetV1/MobilenetV1/Conv2d_12_pointwise/Conv2D/merged_input", "shape": [1, 1, 512, 1024], "dtype": "float32"}, {"name": "FeatureExtractor/MobilenetV1/MobilenetV1/Conv2d_12_pointwise/BatchNorm/batchnorm_1/sub", "shape": [1024], "dtype": "float32"}, {"name": "FeatureExtractor/MobilenetV1/MobilenetV1/Conv2d_13_depthwise/BatchNorm/batchnorm_1/sub", "shape": [1024], "dtype": "float32"}, {"name": "FeatureExtractor/MobilenetV1/MobilenetV1/Conv2d_13_pointwise/Conv2D/merged_input", "shape": [1, 1, 1024, 1024], "dtype": "float32"}, {"name": "FeatureExtractor/MobilenetV1/MobilenetV1/Conv2d_13_pointwise/BatchNorm/batchnorm_1/sub", "shape": [1024], "dtype": "float32"}, {"name": "FeatureExtractor/MobilenetV1/Conv2d_13_pointwise_1_Conv2d_2_1x1_256/Conv2D/merged_input", "shape": [1, 1, 1024, 256], "dtype": "float32"}, {"name": "FeatureExtractor/MobilenetV1/Conv2d_13_pointwise_1_Conv2d_2_1x1_256/BatchNorm/batchnorm_1/sub", "shape": [256], "dtype": "float32"}, {"name": "FeatureExtractor/MobilenetV1/Conv2d_13_pointwise_2_Conv2d_2_3x3_s2_512/Conv2D/merged_input", "shape": [3, 3, 256, 512], "dtype": "float32"}, {"name": "FeatureExtractor/MobilenetV1/Conv2d_13_pointwise_2_Conv2d_2_3x3_s2_512/BatchNorm/batchnorm_1/sub", "shape": [512], "dtype": "float32"}, {"name": "FeatureExtractor/MobilenetV1/Conv2d_13_pointwise_1_Conv2d_3_1x1_128/Conv2D/merged_input", "shape": [1, 1, 512, 128], "dtype": "float32"}, {"name": "FeatureExtractor/MobilenetV1/Conv2d_13_pointwise_1_Conv2d_3_1x1_128/BatchNorm/batchnorm_1/sub", "shape": [128], "dtype": "float32"}, {"name": "FeatureExtractor/MobilenetV1/Conv2d_13_pointwise_2_Conv2d_3_3x3_s2_256/Conv2D/merged_input", "shape": [3, 3, 128, 256], "dtype": "float32"}, {"name": "FeatureExtractor/MobilenetV1/Conv2d_13_pointwise_2_Conv2d_3_3x3_s2_256/BatchNorm/batchnorm_1/sub", "shape": [256], "dtype": "float32"}, {"name": "FeatureExtractor/MobilenetV1/Conv2d_13_pointwise_1_Conv2d_4_1x1_128/Conv2D/merged_input", "shape": [1, 1, 256, 128], "dtype": "float32"}, {"name": "FeatureExtractor/MobilenetV1/Conv2d_13_pointwise_1_Conv2d_4_1x1_128/BatchNorm/batchnorm_1/sub", "shape": [128], "dtype": "float32"}, {"name": "FeatureExtractor/MobilenetV1/Conv2d_13_pointwise_2_Conv2d_4_3x3_s2_256/Conv2D/merged_input", "shape": [3, 3, 128, 256], "dtype": "float32"}, {"name": "FeatureExtractor/MobilenetV1/Conv2d_13_pointwise_2_Conv2d_4_3x3_s2_256/BatchNorm/batchnorm_1/sub", "shape": [256], "dtype": "float32"}, {"name": "FeatureExtractor/MobilenetV1/Conv2d_13_pointwise_1_Conv2d_5_1x1_64/Conv2D/merged_input", "shape": [1, 1, 256, 64], "dtype": "float32"}, {"name": "FeatureExtractor/MobilenetV1/Conv2d_13_pointwise_1_Conv2d_5_1x1_64/BatchNorm/batchnorm_1/sub", "shape": [64], "dtype": "float32"}, {"name": "FeatureExtractor/MobilenetV1/Conv2d_13_pointwise_2_Conv2d_5_3x3_s2_128/Conv2D/merged_input", "shape": [3, 3, 64, 128], "dtype": "float32"}, {"name": "FeatureExtractor/MobilenetV1/Conv2d_13_pointwise_2_Conv2d_5_3x3_s2_128/BatchNorm/batchnorm_1/sub", "shape": [128], "dtype": "float32"}, {"name": "concat_1/axis", "shape": [], "dtype": "int32"}, {"name": "ConstantFolding/Postprocessor/BatchMultiClassNonMaxSuppression/ones/packed_const_axis", "shape": [], "dtype": "int32"}, {"name": "Postprocessor/BatchMultiClassNonMaxSuppression/map/while/PadOrClipBoxList/Greater/y", "shape": [], "dtype": "int32"}, {"name": "Postprocessor/BatchMultiClassNonMaxSuppression/map/while/Slice_1/begin", "shape": [2], "dtype": "int32"}, {"name": "Postprocessor/BatchMultiClassNonMaxSuppression/map/while/Reshape_1/shape", "shape": [2], "dtype": "int32"}, {"name": "Postprocessor/BatchMultiClassNonMaxSuppression/map/while/Slice/begin", "shape": [3], "dtype": "int32"}, {"name": "Postprocessor/BatchMultiClassNonMaxSuppression/map/while/stack_1/1", "shape": [], "dtype": "int32"}, {"name": "Postprocessor/BatchMultiClassNonMaxSuppression/map/while/Reshape/shape", "shape": [3], "dtype": "int32"}, {"name": "Postprocessor/BatchMultiClassNonMaxSuppression/map/while/MultiClassNonMaxSuppression/FilterGreaterThan/Greater/y", "shape": [], "dtype": "float32"}, {"name": "ConstantFolding/Postprocessor/BatchMultiClassNonMaxSuppression/map/while/MultiClassNonMaxSuppression/ClipToWindow/unstack-folded-2", "shape": [], "dtype": "float32"}, {"name": "ConstantFolding/Postprocessor/BatchMultiClassNonMaxSuppression/map/while/MultiClassNonMaxSuppression/ClipToWindow/unstack-folded-1", "shape": [], "dtype": "float32"}, {"name": "Postprocessor/BatchMultiClassNonMaxSuppression/map/while/MultiClassNonMaxSuppression/add/y", "shape": [], "dtype": "float32"}, {"name": "Postprocessor/BatchMultiClassNonMaxSuppression/map/while/MultiClassNonMaxSuppression/FilterGreaterThan/Reshape/shape", "shape": [1], "dtype": "int32"}, {"name": "Postprocessor/BatchMultiClassNonMaxSuppression/map/while/MultiClassNonMaxSuppression/non_max_suppression/iou_threshold", "shape": [], "dtype": "float32"}, {"name": "Postprocessor/BatchMultiClassNonMaxSuppression/map/while/MultiClassNonMaxSuppression/non_max_suppression/score_threshold", "shape": [], "dtype": "float32"}, {"name": "Postprocessor/BatchMultiClassNonMaxSuppression/map/while/MultiClassNonMaxSuppression/SortByField/Gather/GatherV2_3/axis", "shape": [], "dtype": "int32"}, {"name": "Postprocessor/BatchMultiClassNonMaxSuppression/map/while/PadOrClipBoxList/strided_slice/stack", "shape": [1], "dtype": "int32"}, {"name": "Postprocessor/BatchMultiClassNonMaxSuppression/map/while/PadOrClipBoxList/strided_slice/stack_1", "shape": [1], "dtype": "int32"}, {"name": "Postprocessor/BatchMultiClassNonMaxSuppression/map/while/MultiClassNonMaxSuppression/ClipToWindow/Area/split/split_dim", "shape": [], "dtype": "int32"}, {"name": "Postprocessor/BatchMultiClassNonMaxSuppression/map/while/MultiClassNonMaxSuppression/Slice/begin", "shape": [2], "dtype": "int32"}, {"name": "Postprocessor/BatchMultiClassNonMaxSuppression/map/while/MultiClassNonMaxSuppression/stack/1", "shape": [], "dtype": "int32"}, {"name": "Postprocessor/BatchMultiClassNonMaxSuppression/map/while/MultiClassNonMaxSuppression/Reshape/shape", "shape": [1], "dtype": "int32"}, {"name": "Postprocessor/BatchMultiClassNonMaxSuppression/map/while/PadOrClipBoxList/cond_3/sub/x", "shape": [], "dtype": "int32"}, {"name": "Postprocessor/BatchMultiClassNonMaxSuppression/map/while/PadOrClipBoxList/cond_3/strided_slice/stack", "shape": [1], "dtype": "int32"}, {"name": "Postprocessor/BatchMultiClassNonMaxSuppression/map/while/PadOrClipBoxList/cond_3/strided_slice/stack_1", "shape": [1], "dtype": "int32"}, {"name": "Postprocessor/BatchMultiClassNonMaxSuppression/map/while/PadOrClipBoxList/cond_3/cond/switch_f", "shape": [], "dtype": "bool"}, {"name": "Postprocessor/BatchMultiClassNonMaxSuppression/map/while/PadOrClipBoxList/cond_3/zeros/Const", "shape": [], "dtype": "float32"}, {"name": "Postprocessor/BatchMultiClassNonMaxSuppression/map/while/PadOrClipBoxList/cond_3/ExpandDims/dim", "shape": [], "dtype": "int32"}, {"name": "Postprocessor/BatchMultiClassNonMaxSuppression/map/while/PadOrClipBoxList/cond_3/range", "shape": [100], "dtype": "int32"}, {"name": "Postprocessor/BatchMultiClassNonMaxSuppression/map/while/PadOrClipBoxList/cond_3/GatherV2/axis", "shape": [], "dtype": "int32"}, {"name": "Postprocessor/BatchMultiClassNonMaxSuppression/map/while/PadOrClipBoxList/cond/sub/x", "shape": [], "dtype": "int32"}, {"name": "Postprocessor/BatchMultiClassNonMaxSuppression/map/while/PadOrClipBoxList/cond/strided_slice/stack", "shape": [1], "dtype": "int32"}, {"name": "Postprocessor/BatchMultiClassNonMaxSuppression/map/while/PadOrClipBoxList/cond/strided_slice/stack_1", "shape": [1], "dtype": "int32"}, {"name": "Postprocessor/BatchMultiClassNonMaxSuppression/map/while/PadOrClipBoxList/cond/Greater", "shape": [], "dtype": "bool"}, {"name": "Postprocessor/BatchMultiClassNonMaxSuppression/map/while/PadOrClipBoxList/cond/zeros/Const", "shape": [], "dtype": "float32"}, {"name": "Postprocessor/BatchMultiClassNonMaxSuppression/map/while/PadOrClipBoxList/cond/ExpandDims/dim", "shape": [], "dtype": "int32"}, {"name": "Postprocessor/BatchMultiClassNonMaxSuppression/map/while/PadOrClipBoxList/cond/range", "shape": [100], "dtype": "int32"}, {"name": "Postprocessor/BatchMultiClassNonMaxSuppression/map/while/PadOrClipBoxList/cond/GatherV2/axis", "shape": [], "dtype": "int32"}, {"name": "Postprocessor/BatchMultiClassNonMaxSuppression/map/while/PadOrClipBoxList/cond_1/sub/x", "shape": [], "dtype": "int32"}, {"name": "Postprocessor/BatchMultiClassNonMaxSuppression/map/while/PadOrClipBoxList/cond_1/strided_slice/stack", "shape": [1], "dtype": "int32"}, {"name": "Postprocessor/BatchMultiClassNonMaxSuppression/map/while/PadOrClipBoxList/cond_1/strided_slice/stack_1", "shape": [1], "dtype": "int32"}, {"name": "Postprocessor/BatchMultiClassNonMaxSuppression/map/while/PadOrClipBoxList/cond_1/cond/switch_f", "shape": [], "dtype": "bool"}, {"name": "Postprocessor/BatchMultiClassNonMaxSuppression/map/while/PadOrClipBoxList/cond_1/zeros/Const", "shape": [], "dtype": "float32"}, {"name": "Postprocessor/BatchMultiClassNonMaxSuppression/map/while/PadOrClipBoxList/cond_1/ExpandDims/dim", "shape": [], "dtype": "int32"}, {"name": "Postprocessor/BatchMultiClassNonMaxSuppression/map/while/PadOrClipBoxList/cond_1/range", "shape": [100], "dtype": "int32"}, {"name": "Postprocessor/BatchMultiClassNonMaxSuppression/map/while/PadOrClipBoxList/cond_1/GatherV2/axis", "shape": [], "dtype": "int32"}, {"name": "Postprocessor/BatchMultiClassNonMaxSuppression/map/while/PadOrClipBoxList/cond_3/cond/sub/x", "shape": [], "dtype": "int32"}, {"name": "Postprocessor/BatchMultiClassNonMaxSuppression/map/while/PadOrClipBoxList/cond_3/cond/ExpandDims/dim", "shape": [], "dtype": "int32"}, {"name": "Postprocessor/BatchMultiClassNonMaxSuppression/map/while/PadOrClipBoxList/cond/cond/strided_slice/stack_1", "shape": [1], "dtype": "int32"}, {"name": "Postprocessor/BatchMultiClassNonMaxSuppression/map/while/PadOrClipBoxList/cond/cond/strided_slice/stack", "shape": [1], "dtype": "int32"}, {"name": "Postprocessor/BatchMultiClassNonMaxSuppression/map/while/PadOrClipBoxList/cond/cond/concat/axis", "shape": [], "dtype": "int32"}, {"name": "Postprocessor/BatchMultiClassNonMaxSuppression/map/while/PadOrClipBoxList/cond_1/cond/sub/x", "shape": [], "dtype": "int32"}, {"name": "Postprocessor/BatchMultiClassNonMaxSuppression/map/while/PadOrClipBoxList/cond_1/cond/ExpandDims/dim", "shape": [], "dtype": "int32"}, {"name": "Postprocessor/BatchMultiClassNonMaxSuppression/map/while/PadOrClipBoxList/cond_3/cond/strided_slice/stack_1", "shape": [1], "dtype": "int32"}, {"name": "Postprocessor/BatchMultiClassNonMaxSuppression/map/while/PadOrClipBoxList/cond_3/cond/strided_slice/stack", "shape": [1], "dtype": "int32"}, {"name": "Postprocessor/BatchMultiClassNonMaxSuppression/map/while/PadOrClipBoxList/cond_3/cond/concat/axis", "shape": [], "dtype": "int32"}, {"name": "Postprocessor/BatchMultiClassNonMaxSuppression/map/while/PadOrClipBoxList/cond/cond/sub/x", "shape": [], "dtype": "int32"}, {"name": "Postprocessor/BatchMultiClassNonMaxSuppression/map/while/PadOrClipBoxList/cond/cond/ExpandDims/dim", "shape": [], "dtype": "int32"}, {"name": "Postprocessor/BatchMultiClassNonMaxSuppression/map/while/PadOrClipBoxList/cond_1/cond/strided_slice/stack_1", "shape": [1], "dtype": "int32"}, {"name": "Postprocessor/BatchMultiClassNonMaxSuppression/map/while/PadOrClipBoxList/cond_1/cond/strided_slice/stack", "shape": [1], "dtype": "int32"}, {"name": "Postprocessor/BatchMultiClassNonMaxSuppression/map/while/PadOrClipBoxList/cond_1/cond/concat/axis", "shape": [], "dtype": "int32"}]}]}